models/GRU_santander.pt (torch, 179355 bytes, 11 tensors)

gru.weight_ih_l0 f4 [192, 11]
00000000: 8fcc d0bd 794a 0dbb 7192 09be 45e6 9d3d
00000010: b53e 2abd 1c6e c2bd 82f2 73bd b632 443d
00000020: 170b afbd 68a5 893d 4fa6 71bd ee58 8f3c
00000030: a888 053e 5621 a13d 193c a0bd 3ce6 51bb
00000040: 746a 043f 7c8e cfbd 01a8 cdbd fa68 eaba
00000050: b1ef dbbd 93bc 1a3d 1e3e fb3d 013b be3d
00000060: 9e2c 44bd e9dc 6ebb e4e4 83bd 645b dc3e
00000070: 1c53 83b9 b66c b93c de60 b13c 1cec 34bd
00000080: 00f4 443d c415 9cbc 2c6a 03bd 9f36 b8ba
00000090: 8f89 bcbd 9191 1f3d e9c4 0b3f d260 41bc
000000a0: 44cc 453d c142 1b3c 49ec f3bd b55c 49bd
000000b0: f19a 1d3d feed 54bd b9e0 6e3d ea6a acbd
000000c0: 4fcc 79bb ed26 033f b169 0f3e 4e4e f03d
000000d0: fe1b 49bd 8d55 85bd a5fe 72be 93ef 643c
000000e0: c471 ca3b e218 be3c 96c0 55bc edf9 60bc
000000f0: ad28 5abf 6629 22be 768d 673d 8130 5b3d
00000100: 7521 b33c e9fa 0bbe 687d 0e3d 78c2 0cbe
00000110: 2157 3cbc 0a8a 7bbc 3dec 37bd c1d9 0d3d
00000120: cdd4 b6bd a64b 89bc 8a2f b73d 808b 4fbd
00000130: ea2b 933d 7739 8cbd 2774 443d 9b02 dfbd
00000140: a5bf d5bd 2822 88bc adf0 f7be 1aaa 403c
00000150: 10ed 9a3d 75a4 783c 6d74 823d 81f9 8a3c
00000160: ad20 c73d 7097 133e 65ae 9fbd 7655 66bd
00000170: 3433 c9bd 7626 bc3e b078 b8bd 2f50 733c
00000180: c04f 7e3c f4a6 633d 0e23 4ebb c8fa 62bd
00000190: 40f3 983d 38aa 2fbc f4db 9d3b 16ea f83d
000001a0: a468 563e 4774 983d c56e c03d 03ee ce3b
000001b0: 1d6c f83b b28f 2ebb b6ff 7b3d 93c8 e23d
000001c0: 7d71 613d 1b35 fc3c e90c e83d ab86 8c3d
000001d0: b28c 043e 53dd 91bd ae55 473d 3eb5 05bd
000001e0: ee18 753d 71c0 dd3d bfe7 81bd 87ce c03c
000001f0: 6ba0 a7bd 0e9e cdbc 6d85 00bf 0f6b cf3d
00000200: 2890 2abc f470 f2bd c865 95bd 2209 b43d
00000210: 5403 d2bc dc64 bfbd de04 ba3d 0923 c2bc
00000220: ed4e 593d 50c6 513e d683 adbc 72f6 443c
00000230: a7ed 05be 8912 523d 3d3d d4bd 36c4 5bbd
00000240: fb55 f93d bd82 503d 650a c0bc 52c7 96bc
00000250: 396c b93d 29da 85bc 2811 61bd 6a4f 0a3d
00000260: 266d 053e a245 a83b 4189 1dbe 421f d9bd
00000270: 130b b7bd ca9a 5b3d c5fb a7bd d586 19bf
00000280: 298b f6bd 0ff4 213d e4cb ecbd a22e ed3d
00000290: 224e d6bb ea31 173d 99cd 093e 7f66 bb3d
000002a0: e7ff e13d 7e81 ff3c 8d12 123e ea9f 93bb
000002b0: 2f90 31bc 1d83 17bd 49e0 8d3d b6c0 82be
000002c0: 396c 163e 764c 58bd 8d84 3cbd 2489 15bc
000002d0: d228 943c faaf 2a3f fda2 2abd abbe 38bd
000002e0: 109f 5cbd fc89 b4bb 570c 8fbb 3d54 493d
000002f0: 296a ef3d 9a54 f03d d259 523d 545f bf3d
00000300: dc91 023f f5e0 9dbd 2bef f2bd 67a0 a5bd
00000310: d92c d4bd da4e f9bd c4de 9dbd bd83 ec3d
00000320: 1d24 8fbc 3bf6 803d 5c55 0e3e 8d0b 44bf
00000330: f8a1 ecbd 0cb3 bebd c5d5 d83c 8921 313c
00000340: a3eb 673d 390f 9e3d 129d 913c b74c a8bd
00000350: 2c8b 71bd 6948 f9bb cc04 e7be 3a18 7cbb
00000360: 8f2c 97bd 940c 1d3b 3517 54bd 9613 963d
00000370: 4b60 a7bd e004 01be 9361 3abd c96f babc
00000380: 6108 9cbd 5346 34bf b967 29bd 0f92 5a3d
00000390: dbee cfbd f965 0c3d e030 3f3d efbe 983d
000003a0: e434 2b3e 4876 fd3d 83cc b63d 0a93 0e3e
000003b0: adad 91be f5db f03d 7bda 5dbb 2056 8cbc
000003c0: 6a6f cc3d 79ef 8bbc b193 da3d 99e8 1fbd
000003d0: 5374 cf3d 0f27 ad3c db9c 16bd 9420 5d3e
000003e0: 45c3 4abd e6e2 d9bd 2b10 563d 8bde 953d
000003f0: b69e 7f3d 77bf 17be 2e1d 98bd d8d6 aaba
-0.101952665 -0.0021559282 -0.13434769 0.07709936 -0.04156371 -0.09493658 -0.059557445 0.047899924
-0.08547037 0.06721002 -0.058996495 0.01749846 0.13040411 0.078676865 -0.07823963 -0.00320281
0.51724935 -0.101345986 -0.1004181 -0.0017884069 -0.10739077 0.037777495 0.12267707 0.09288598
-0.047894113 -0.003644759 -0.06440142 0.43038476 -0.00025048188 0.022634845 0.021652635 -0.044170484
0.04808426 -0.019053347 -0.032083675 -0.0014054364 -0.09205925 0.038957182 0.54597336 -0.011802869
0.048290506 0.009476365 -0.11910302 -0.049160678 0.03847784 -0.05198478 0.05831978 -0.0841883
-0.0038116162 0.5123127 0.14005162 0.117336854 -0.04909896 -0.06510458 -0.23729952 0.013973135
0.0061781127 0.023205224 -0.013046404 -0.013731462 -0.85218316 -0.15836105 0.056531392 0.053513054
0.02186654 -0.13669933 0.034787565 -0.13746059 -0.0114953825 -0.015352735 -0.04490303 0.034631494
-0.08927307 -0.016759705 0.08944614 -0.050670147 0.0718611 -0.06846898 0.047962334 -0.10889169
-0.10436944 -0.01661785 -0.4842581 0.011759305 0.07564747 0.015175928 0.06369863 0.016964676
0.09723029 0.14413238 -0.07796935 -0.056233846 -0.09824219 0.36748093 -0.09007394 0.01485066
0.015521944 0.05557914 -0.0031454 -0.055414945 0.07468271 -0.010721736 0.00481748 0.12154023
0.20938355 0.07444053 0.093961276 0.0063149943 0.0075812475 -0.0026635942 0.06152316 0.11073413
0.05503987 0.030787041 0.113305874 0.068616234 0.12944296 -0.07122292 0.048665695 -0.03264355
0.059838228 0.10827721 -0.0634303 0.02353598 -0.08184894 -0.02509978 -0.5020359 0.10127842
-0.010410346 -0.1183795 -0.07294804 0.087908044 -0.025636353 -0.09345409 0.090829596 -0.023698347
0.053053785 0.20485806 -0.021181028 0.012021648 -0.13078938 0.051287208 -0.10363243 -0.05365392
0.121746026 0.05090593 -0.023442456 -0.01840559 0.09053845 -0.016339378 -0.054948002 0.03376714
0.13029918 0.005135254 -0.1538439 -0.10601665 -0.08937659 0.053614415 -0.08202318 -0.5997136
-0.120382614 0.039539393 -0.115623266 0.1158116 -0.006540076 0.036912836 0.13457336 0.09150409
0.110351376 0.031189676 0.14264889 -0.004505147 -0.010837599 -0.036990274 0.069275446 -0.25537652
0.14689721 -0.052807294 -0.046024848 -0.009126935 0.01808587 0.6667477 -0.041659344 -0.04510371
-0.05386263 -0.005509613 -0.0043654847 0.0491526 0.1169017 0.117348865 0.05135519 0.09344354
0.51003814 -0.07708923 -0.11862024 -0.08087235 -0.103601165 -0.12173243 -0.07708505 0.115485646
-0.017473275 0.06296965 0.1389975 -0.76580125 -0.115543306 -0.09311494 0.02646912 0.010811218
0.056621205 0.07717747 0.017775092 -0.08217757 -0.058970615 -0.007607509 -0.45120847 -0.0038466589
-0.07381546 0.0023963796 -0.051779944 0.073279545 -0.08172663 -0.12599516 -0.04550321 -0.022758381
-0.07618786 -0.70419806 -0.041358683 0.05336195 -0.1015298 0.034276936 0.04667747 0.07458293
0.16719395 0.12376076 0.08925726 0.13923278 -0.28452817 0.117607035 -0.0033852148 -0.017130911
0.09982188 -0.017081963 0.10672701 -0.03904018 0.10129609 0.021136789 -0.036770683 0.21594459
-0.04950263 -0.106389806 0.052261513 0.07317837 0.062407218 -0.14819132 -0.074274406 -0.0013033999

gru.weight_hh_l0 f4 [192, 64]
00000000: 16a7 c83c ebad c4bb 55f5 e9bd afb7 0d3d
00000010: 5c0a 973d fd43 c5bd ddb2 0dbe 27d7 4cbc
00000020: a571 c63d 069b a13c 9ac5 11be 4b6d 3c3d
00000030: dc9e 433d d493 023e 32d7 98bd 5f38 d63d
00000040: 3621 e7bd 173c 92bd 674d 21bd a53d 733d
00000050: d61f b2bd 6eb8 a23d af84 103e c106 3e3c
00000060: 4ae7 1fbe 3026 463d c462 86bc 11a6 67bd
00000070: 60a8 883d 6a6a b83c b7d7 913b 166b d93d
00000080: e72f 6fbc a307 3f3d bda2 fe3d 20ea dbbd
00000090: 7f63 c5bc 9caa 14be deaa 463d 4b78 8cbd
000000a0: b1c1 983c db64 07be d13e 1bbd 24ae 903c
000000b0: 563e 62bd 76c5 6d3d 9726 e13d 8b53 55bd
000000c0: 7a1e e7bc 9d93 ce3d 64a1 ca3d ca49 afbd
000000d0: afe7 cfbd 7557 9a3c 8104 c6bc 9452 b0bd
000000e0: 444c 333d 0c44 96bb a14f 1dbd fe09 b3bd
000000f0: 86f8 c73d f2e3 173d dbb5 73bd 71c8 9ebd
00000100: 9caf fa3d 43a8 86bd 23b5 8abc 84ed 643c
00000110: a5a9 8a3d 3e32 9b3d f773 fb3d d14a 3ebd
00000120: 9630 63bd 71f1 b7bd f74b e53c 5212 a1bd
00000130: e185 a7bd b15a 69bd af19 6d3d 9b58 9cbc
00000140: 8d8d aa3d 097b bbbd 9219 e03b 83d1 583d
00000150: f90f 503d c875 883c c712 5dbd ce0d cdbc
00000160: aead da3c ea7d 073d c130 b3bd e52d 8bbd
00000170: 3591 a2bd aaf8 223d 0157 a73d fdb4 84bd
00000180: bbf5 a03c 8ab8 843c 8e11 343c 292d 8fbc
00000190: ae97 8e3d dee4 8e3c 46db 4e3b ca36 39bd
000001a0: 09fa 313d b9cd 283d 0d69 b93d 5ae2 74bd
000001b0: dca0 a3bb 3a4d 61ba b749 b93d c4ff e83d
000001c0: edd8 82bd 5a06 afbd ed07 c63d adae 82bd
000001d0: 3cc0 b33d 4e51 dc3d 1e2f 453d a6b9 0bbd
000001e0: 8cf5 f03d 6b84 e4bd 77bc e7bd a6a8 c93d
000001f0: f9c4 9ebd a02f d0ba 29d5 b0bd 6370 aa3c
00000200: ba5a 1dbd 56a7 4c3d 311f 5d3b b7ea b83d
00000210: 8a8f 033e a2a3 fabd 868d b8bd 180b fb3d
00000220: cdd0 01be 78dc 533d e738 e6bd 79a1 b6bc
00000230: 4ae0 413d ddf6 5fbd 82b4 0fbd 9893 a23d
00000240: 3845 543c ca19 3b3c acb7 293d fa95 273d
00000250: 0138 a0bd cac2 d33d 09c2 b23d f3d5 7fbd
00000260: aff1 83bd a35b a9bd e8cd b7bd b40d 143e
00000270: 3415 f5bd ea01 70bc efc4 00be 96ff cd3d
00000280: ddb4 d73d e2c6 a5bd 267a ad3d 0b08 9e3d
00000290: 2b59 a4bd b174 503d 4855 82bc 53cb 913d
000002a0: 1b5a 03bd e8a8 7d3d c9d2 f33d 798f 80bd
000002b0: a6a4 af3d 806d 92bd f73c b8bd 40c3 213d
000002c0: 7989 c1bd 80ca 4ebd 79d2 9c3d 0312 0abe
000002d0: 494f 03bd 5f5f e8bd 522b 8cbd ac00 b23d
000002e0: 9ef1 643d 697a ea3c b020 f83d 6b9d 243c
000002f0: bfcf 043e ceac d33c 763a a4bc 7331 16bc
00000300: 06e3 91bd fc93 e23a c375 ec3c e5e1 983d
00000310: 5354 5bbc 1132 b2bb 3784 cdbb ebd7 a93c
00000320: ebc9 05be ca1e 813d ac53 98bd b587 903d
00000330: c448 0a3c 8cba 4cbd d199 d73c 12eb 703d
00000340: f237 ef3d 7a01 41bd c4a0 1bbd 3f41 8b3d
00000350: 0c49 b43a f4b4 463c 945a dc3d ed77 053d
00000360: 0254 8dbd 9564 96bc b4e0 8a3c 5f7f bb3d
00000370: eeb4 a5bd 174e 433d ea6f 973b e3c9 81bd
00000380: 0ca6 063e 1660 303d dcb3 e9bd 167f 82bd
00000390: 88f4 a33d 04a9 953d 7e91 553d feb7 9fbd
000003a0: c1d7 563d 45ad fabd f2aa 43bc ad53 b9bd
000003b0: f8f9 c6bc 3bad e23d 2a2a 01be 96c5 2a3c
000003c0: ae8a 9a3d 434d 6d3d 2826 24bc 954e 19bd
000003d0: 3c3f fc3a afca a13c dac1 a23d f57b 13bd
000003e0: ec72 823c 8fab 87bd b261 a7ba 044d 983d
000003f0: df81 993c 2d9f d13d 1774 393c f1de 213d
0.024493735 -0.006002178 -0.114237465 0.034599002 0.07375023 -0.09632108 -0.13837762 -0.012502468
0.09689645 0.019727241 -0.14235535 0.046002667 0.047758922 0.12751704 -0.0746292 0.10459971
-0.11285631 -0.071403675 -0.039380457 0.05938496 -0.086974785 0.079453334 0.14113115 0.01159829
-0.15615574 0.048376262 -0.016404517 -0.056554858 0.0667274 0.02251168 0.004450764 0.10616128
-0.014598823 0.046638142 0.124333836 -0.10738015 -0.024095295 -0.14518207 0.048502795 -0.068588816
0.018647047 -0.13222067 -0.037901703 0.017661162 -0.05523523 0.05804964 0.109936886 -0.052081626
-0.028212775 0.10086749 0.09894064 -0.08558996 -0.10151612 0.01884053 -0.02417207 -0.086095005
0.043773904 -0.0045857485 -0.03840602 -0.0874214 0.09764199 0.03708262 -0.059499603 -0.07753075
0.12240526 -0.06575062 -0.016932076 0.013972644 0.067706384 0.07577942 0.12277978 -0.04645807
-0.055466257 -0.08981598 0.027990324 -0.078648224 -0.08179832 -0.056971256 0.057885822 -0.01908522
0.0832778 -0.091543265 0.0068389857 0.05293418 0.050796483 0.016657725 -0.053972986 -0.025030997
0.026694145 0.033079065 -0.087495334 -0.06795863 -0.07937852 0.039787926 0.081708916 -0.06479833
0.019648423 0.016201276 0.0109905135 -0.017477589 0.06962524 0.017443117 0.0031563803 -0.045218267
0.043451343 0.041211817 0.0905324 -0.05978618 -0.004993541 -0.00085945765 0.09047263 0.113769084
-0.063890316 -0.08546133 0.096694805 -0.06380973 0.087769 0.10757695 0.048140638 -0.034112595
0.11765584 -0.11158069 -0.11315244 0.0984662 -0.07752413 -0.0015883334 -0.08634407 0.020805543
-0.0384166 0.04996427 0.0033740515 0.09029143 0.12847725 -0.12238242 -0.090113685 0.12257975
-0.12677307 0.051723927 -0.11241322 -0.022293793 0.04733304 -0.054678787 -0.035084255 0.079383075
0.012955956 0.011419723 0.04143493 0.040914513 -0.07823182 0.103398874 0.087284155 -0.062459897
-0.06442582 -0.082694314 -0.089748204 0.14458352 -0.11966935 -0.014648894 -0.12575124 0.10058515
0.10532544 -0.080945745 0.084705636 0.07716378 -0.0802482 0.050892536 -0.015909806 0.07118859
-0.032068353 0.06192866 0.119054385 -0.06277365 0.08576326 -0.07149792 -0.08996003 0.039492846
-0.09450049 -0.050486088 0.07657332 -0.13483433 -0.032058034 -0.113463156 -0.068442 0.086915344
0.055894487 0.028622823 0.1211561 0.010047297 0.12969874 0.025839236 -0.020047408 -0.009167063
-0.071233794 0.0017286534 0.028864747 0.07464961 -0.013386804 -0.0054380973 -0.0062718648 0.02073284
-0.13065307 0.06304701 -0.07437834 0.07057134 0.0084402 -0.049982592 0.026318463 0.05881793
0.116805926 -0.04712055 -0.037995115 0.06799554 0.001375468 0.0121281035 0.10759464 0.032585073
-0.06900789 -0.018358508 0.01695285 0.091551535 -0.0809115 0.047681894 0.0046214955 -0.06337335
0.1314928 0.043060385 -0.114112586 -0.06371896 0.08005625 0.07307628 0.052140705 -0.077987656
0.052451853 -0.1224008 -0.011942612 -0.09049163 -0.024289116 0.11068197 -0.1261374 0.010423085
0.07545982 0.05793501 -0.010018863 -0.037428457 0.001924492 0.019749967 0.079471305 -0.036006887
0.01592394 -0.06624519 -0.0012770204 0.074365646 0.018738685 0.102354385 0.011319182 0.039519254

gru.bias_ih_l0 f4 [192]
00000000: 6290 acbd eb71 f3ba 3ce0 ba3d 05be 7a3d
00000010: 5971 bdbc 2797 153d 4482 3f3b 42ed 8ebd
00000020: 54ac 9abd 2e48 473d 0b4e ca3d c837 66bd
00000030: 1b57 a5bd 9fc7 c8bc f0c0 b43d 224c 04bd
00000040: e8df a73d 3faa fc3c 640a f3bc 8566 df3d
00000050: 377a bfbd d805 31bd 1840 aa3d 1e1c edbd
00000060: 8c16 223d 0a9b 643d 28fa 1dbd 6215 45bd
00000070: 81e8 c83c 91e2 06be 354e 47bd b7ff 9bbd
00000080: d965 703d dab4 eb3d d761 6ebd 36ad a73d
00000090: 532d 94bb 87f0 edbd d194 b63c 40ef a63d
000000a0: 5b11 e7bd 53e1 0e3b 4435 6e3d 0764 7f3d
000000b0: 7160 cc3d 0fff 5fba ac0f 99bd 36e6 713a
000000c0: df6d 563c ff5a 953d cbf2 c6bd fd31 1a3e
000000d0: dd95 6ebd bf1b da3c 657f 96bc 19ae f43d
000000e0: 7b5c d5bd 4db3 e6bd 8ec1 ed3c c748 c43d
000000f0: 4bd8 ab3d 68f3 723d 37c8 ca3d c613 c0bb
00000100: 1496 ac3d d836 27be 49d0 21be 4a33 87be
00000110: 3390 71be 1115 f2be ac5a 5fba 1661 a4bd
00000120: f4ef b0be 1ee0 35bd a1b9 c4bd 83dc bd3b
00000130: 6f03 b2bd 69a2 bf3d 3bb3 7fbe f223 10be
00000140: 7670 90be 04b4 a5be 0427 9cbe 9d94 00be
00000150: 194a 83be d45d 8f3e 7795 52be 2635 6dbe
00000160: 8070 b9be 6bbd 4dbc 2292 8cbe a135 94be
00000170: 78d2 59be 1423 f8bd 4a5b 29be e49b 77bd
00000180: 05c5 6b3d 17cc 7bbe e354 1f3e ac82 70be
00000190: 159f 8bbe 1cd1 8a3d 2189 ed3a f701 44be
000001a0: 06b2 ddbd 05c9 37be 4bf7 16be ea1b 37be
000001b0: 03d4 9ebc 8caa 9bbe 95fd 813e 0f95 90bd
000001c0: 529f 94be 8660 cfbd f5d7 8bbe 0448 543d
000001d0: 161d 24be 48ce 44be 6e06 c4be be74 73bd
000001e0: 773a 183e 54ea b7bd 2ec1 0dbd 94d7 35be
000001f0: ade1 0fbe 941e 9fbd 85ef c0bd 2f3a 40be
00000200: f4a5 55bc 1c66 473d 4bde ab3d c43d 73bd
00000210: 6300 c1bd 8a14 83bc ac8e be3d aaf1 78bd
00000220: 7f8e 3a3d c737 f43d 3733 763c 4858 55bd
00000230: 3bf2 08bd 02b5 a9bd 4479 023d 3a44 0cbd
00000240: f714 2cbd b5ab b53d a6e8 aabd c62a bb3c
00000250: 5eb6 ed3d 3782 8fbd 796a bebd 4d05 65bd
00000260: 1f22 153d 9600 5f3c 5192 a6bd 4bcd dfbd
00000270: c844 163d f38b c2bd 9300 9dbd 8acf d1bd
00000280: cb55 273d 5ef9 1bbd cf12 dfbc e907 543d
00000290: 116a 483d 3d56 cc3d 61ed a9bc b4d0 f13c
000002a0: f9cf cb3d b3b3 8d3d 9455 a33d a078 91bd
000002b0: 7bc8 39bd 0270 fbbd ff9c 3fbd adab f5bd
000002c0: 56c1 adbd cf95 f7bd fed3 93bc 45ae ef3d
000002d0: b734 243d 7d04 803d 64ce e23a 4f13 f63d
000002e0: be5b 543c 263e 18bd 4430 d23d 6264 4abd
000002f0: 68aa 02be 3b5e 57bd 9d37 babd 20a4 c3bd
-0.08425976 -0.0018573379 0.091248006 0.061216373 -0.023125337 0.036521103 0.0029221931 -0.06978847
-0.075524 0.04865282 0.09878167 -0.05620554 -0.08073255 -0.02450925 0.088258624 -0.03229917
0.081970036 0.030842898 -0.02966804 0.10908226 -0.093494825 -0.043218464 0.08313006 -0.115776286
0.039572284 0.05581192 -0.038568646 -0.048116095 0.024524929 -0.13172366 -0.04865857 -0.07617133
0.05869088 0.11509104 -0.058198776 0.08187334 -0.0045220046 -0.116181426 0.022287758 0.08151102
-0.11282607 0.0021801784 0.058156267 0.062351253 0.09979332 -0.00085447816 -0.07473692 0.00092277245
0.013087719 0.07292747 -0.09714278 0.15058132 -0.05824839 0.026624558 -0.018371293 0.11947269
-0.1041803 -0.11264668 0.029022958 0.09584194 0.08390864 0.05931416 0.09901469 -0.005861732
0.08427063 -0.16329515 -0.1580211 -0.26406318 -0.23590164 -0.47281697 -0.0008520286 -0.0802633
-0.3455807 -0.044403188 -0.096057184 0.0057941093 -0.08692061 0.09357149 -0.24970715 -0.14076212
-0.282108 -0.32363904 -0.30498517 -0.12556691 -0.2564247 0.28001273 -0.20564829 -0.23164806
-0.36218643 -0.012557368 -0.2745524 -0.28947166 -0.21271694 -0.121160656 -0.1653873 -0.060451403
0.05756094 -0.24589573 0.15559725 -0.23487347 -0.27269807 0.06778166 0.0018122533 -0.19141375
-0.10824971 -0.17947777 -0.14742772 -0.17881742 -0.019388204 -0.30403554 0.2538878 -0.07059681
-0.29027802 -0.10125832 -0.273132 0.051826492 -0.1602672 -0.19219315 -0.38286155 -0.059437506
0.14866053 -0.089802414 -0.03460806 -0.17758018 -0.14050932 -0.07769504 -0.09420685 -0.18772195
-0.013040055 0.048681363 0.083920084 -0.059385076 -0.09423902 -0.016001005 0.09304556 -0.060777344
0.04554605 0.11924701 0.015026859 -0.052086145 -0.033434134 -0.082864776 0.03185393 -0.034244753
-0.04201218 0.08870641 -0.083451554 0.022847544 0.116070494 -0.070072584 -0.09297652 -0.05591326
0.036409494 0.01361098 -0.081333764 -0.109278284 0.03668669 -0.094993494 -0.07666125 -0.10244663
0.040853303 -0.038079612 -0.027230648 0.051765356 0.048929278 0.09977386 -0.020743074 0.029518463
0.09951777 0.069190405 0.07975307 -0.071030855 -0.04535721 -0.12277223 -0.046780583 -0.11995635
-0.084841415 -0.120891206 -0.018045422 0.11703161 0.040089335 0.06250856 0.0017303941 0.120154016
0.012961326 -0.037168644 0.10263112 -0.04941214 -0.12760317 -0.0525801 -0.09092639 -0.09552789

gru.bias_hh_l0 f4 [192]
00000000: d83a 913c 358b 6d3d 5488 07bc e72f bf3d
00000010: d3bd f3bd 3df8 b63d b613 473c 4072 07be
00000020: ec98 d9bd 6dc2 8fbd 0d17 ba3d 883f e1bb
00000030: cd64 753c 0d31 0c3e ca6c 3abd aa5f 88bd
00000040: 2dd3 f33d b50f 82bc 1b7b 903d d9d5 9c3c
00000050: b19f aabd b048 a03d 58ee 9fba 19e1 07bc
00000060: a219 be3c d440 2f3d b9ab debd 4ab4 133d
00000070: 8467 7a3d 6e3d 19be a226 193e 64b5 cabc
00000080: cbb4 0f3e 25b9 84bd d685 a33d 544a 40bd
00000090: ef7b efbd ad02 8abd a70f 003e de99 a13d
000000a0: 7ef3 bbbd c35a a53c 14bc f23c 2285 99bc
000000b0: ddc2 ca3b f6ee 62bd 6b86 e0bc 3812 d4bc
000000c0: 0e94 58bd 32b2 803d c223 953d bfc6 b53d
000000d0: f9cc cebd cc71 adbc e965 2cbb 0604 a43c
000000e0: 796e 133d 6376 26be caf5 753d 1620 3dbc
000000f0: 0b40 a23d 77a8 783d bc5f 103d 66f8 d0bd
00000100: 1186 ae3d 6636 73be 6007 33be 6193 17be
00000110: e71f bdbe f85f f8be f2de d4bd 59b4 43be
00000120: 77d2 16be 5751 e7bc 9255 e7bd 5954 8e3d
00000130: 1b48 6ebd a975 863d 1398 13be 97c9 46be
00000140: ad9d 2cbe 7f60 91be eac1 7fbe 925f 4bbe
00000150: 87d1 c6bd 1389 893e 8feb cbbd d828 a0bd
00000160: 305b 47be 8459 2a3d 68eb 35be 170a 3ebe
00000170: 1d14 0bbe a6f5 c0bd 7113 b2bc ff7f 0fbd
00000180: 13a8 3c3e 63dd b9be 1dc0 babd a27a 96be
00000190: be71 9ebe e328 e63c ff04 18be ffb3 8cbd
000001a0: 186a 62be 6679 03be 76d4 98bd bfc8 9dbe
000001b0: 920d 60be ac87 c1be ec21 cf3d daee 19be
000001c0: d1b7 99be 608f 7ebe 22f4 4cbe 4749 073e
000001d0: 2a6b c1bd 2cea 56be 53e4 30be 5868 29be
000001e0: 1849 c63d e6f0 bdbd ac51 20be 775e 11be
000001f0: e854 efbd db19 9fbc cc40 86bd 46a9 bfbd
00000200: 1636 28bd 77b7 39bd 85cb 7cbd a34e a23d
00000210: 37d8 0bbd cfc3 6f3d 29d0 c33d 038c bc3c
00000220: e79b c1bd 77ae e43d 053e 873d 831c 833c
00000230: 2271 87bd 73cb abbc c4ca 343d 33fc a6bc
00000240: 6a91 57bc f1e4 f4bc 2397 063e 8fd4 86bc
00000250: 3ebc f5bb fff8 bf3d 1764 52bd f70d f0bc
00000260: 98da 993d 9422 2bbd 5d8c d33d 328c 5a3d
00000270: 6852 e13d a731 b9bd 6109 053e b60e b4bd
00000280: 786e c5bd e5a5 65bc 07e3 63bd 5fd5 2f3d
00000290: 6144 72bd ac9e d93c 529f 1ebc 2d18 bfbd
000002a0: cd25 dcbc c0bc be3d 8031 1b3d 54f3 36bd
000002b0: 1e14 bd3d 27aa b43d 16d9 58bd 2859 05bd
000002c0: 37bc 70bd 051e 8abc eb42 33bc 114b 053e
000002d0: af20 8fbc d1f3 97bd 60bc cabd fe1e 1dbc
000002e0: aef2 de3b 402a bf3d d27f c0bb ef20 1b3c
000002f0: 7c5f 5dbd 2e3c c5b9 f358 ccbd 5dd1 b33d
0.017728254 0.057994086 -0.008272249 0.093353085 -0.119014405 0.089340664 0.012150696 -0.13227177
-0.10624871 -0.07019506 0.09086428 -0.0068740286 0.014977646 0.13690586 -0.045513906 -0.066588715
0.11905513 -0.01587663 0.070547305 0.01914494 -0.0833124 0.07826364 -0.0012201769 -0.008293414
0.023205582 0.042786434 -0.10872597 0.03606061 0.061133876 -0.1496484 0.14956143 -0.024744697
0.14033811 -0.06480626 0.079845116 -0.046945885 -0.1169356 -0.067387916 0.12505971 0.07890676
-0.09177302 0.02018488 0.029630698 -0.01874024 0.0061877803 -0.055403672 -0.027407845 -0.025887594
-0.05287557 0.06283988 0.07282211 0.088757984 -0.10097689 -0.021172427 -0.002630586 0.02002145
0.035994027 -0.16256098 0.060048856 -0.011543294 0.079223715 0.060707536 0.03524755 -0.10203628
0.08521665 -0.2375122 -0.17483282 -0.14802314 -0.36938402 -0.48510718 -0.10394086 -0.19111766
-0.14728723 -0.028237028 -0.11295618 0.06949682 -0.058174234 0.06565411 -0.1441348 -0.19412838
-0.16857024 -0.28393933 -0.24976316 -0.19860676 -0.09707933 0.26862392 -0.099570386 -0.0782029
-0.19468379 0.041589275 -0.17765582 -0.18558536 -0.13581891 -0.09421854 -0.021737786 -0.035034176
0.1842349 -0.36301717 -0.09118674 -0.29390436 -0.30946153 0.028095668 -0.14845656 -0.06870269
-0.22110784 -0.12839279 -0.07462399 -0.3081722 -0.21880177 -0.37798822 0.10113892 -0.15032521
-0.30023053 -0.2485938 -0.20015004 0.13211547 -0.09444268 -0.20987767 -0.17274599 -0.1654371
0.0968191 -0.09274463 -0.15656155 -0.14196192 -0.116861165 -0.019421509 -0.06555328 -0.09358458
-0.041067205 -0.04534098 -0.06171753 0.07925155 -0.034141745 0.058536347 0.09561188 0.023015982
-0.09453564 0.11166089 0.06603626 0.016004806 -0.06613375 -0.020971036 0.044138685 -0.02038393
-0.013157228 -0.029894324 0.13143592 -0.016458778 -0.007499247 0.09373664 -0.051364984 -0.029303534
0.075123966 -0.041781023 0.103295065 0.053356357 0.11002046 -0.090426736 0.12991859 -0.087918684
-0.09640211 -0.014016603 -0.055636432 0.042928096 -0.059147242 0.026564918 -0.00968154 -0.09330783
-0.026873494 0.09313345 0.037889004 -0.04466565 0.09232353 0.088215165 -0.052941404 -0.03255573
-0.058773246 -0.016860018 -0.010941247 0.13016917 -0.01747164 -0.07419551 -0.09899211 -0.009589909
0.006803832 0.093342304 -0.0058746124 0.009468301 -0.05404614 -0.00037619605 -0.09977903 0.08780167

gru.weight_ih_l1 f4 [192, 64]
00000000: 1251 1a3d 848e 2a3d 19c9 403d ba1c 243a
00000010: cea3 063e f9cc 0b3e 358c 88bd 92bc 12bd
00000020: 2dae ad3d 9d21 36ba d261 523c 2047 033e
00000030: a6aa 7b3d 24ac 0abd d081 be3c 10bc 04bd
00000040: 1ce7 05be 4b7a 523c 0d04 6abd 26ea ab3d
00000050: 4f8b a23d 7f13 c43d 8571 a13d 975c b1bd
00000060: 291f a4bd f3fc db3d 423f c93d 8969 dabc
00000070: 56ce 8cbd 6617 c83b f986 93bd 49b1 a5bc
00000080: 771d 2abc d3f2 f2bd 722a 123d c25c 02be
00000090: 6240 68bc 8366 e53c d94d d3bd ba0b 053e
000000a0: 1a79 a7bd 2555 8e3c 000b a0bd 5f92 7abd
000000b0: ad59 60bd a90d 3b3d a293 953d b72d 793d
000000c0: 00bb 783c b43e f73d b3aa e43d a101 dfbd
000000d0: d871 c63b f168 f9bd d6f7 8bbd d382 b7bd
000000e0: 4a5f cebd ccf8 0fbe 335d 973c cb8f 09be
000000f0: 8871 85bd fe05 b53d 29fc 283b 21d3 e1bd
00000100: c582 ef3d 4312 d2bd 10cd d13b 0747 56bd
00000110: d67b d93d c976 32be ce09 85bd 288b 063e
00000120: ee33 743d 0af3 8fbd 0be1 31bd 7b70 74bb
00000130: 6f1c 5f3d c178 49bd 9a8f 983d 69b0 97bd
00000140: cd96 ddbc 4f81 a93d 476f 563d e81e d9bc
00000150: 1db1 a2bd 73ec 953c 4caa c03d 9d6c 4ebd
00000160: b408 afbd fdaf 12bd 077f 41bd 7fce cbba
00000170: d79b dd3d 9dd7 85bd 430d 9cbc eb21 c3bd
00000180: a4f9 883c e109 7fbc f2d8 b73d 7887 ba3d
00000190: 79b0 4cbd 76fc 9d3b 4138 c9bd 0f5c f5bb
000001a0: 1bc6 c73d 8826 2a3d 7dcb 9d3d 0ac7 193e
000001b0: 9729 e2bd 6714 db3d 15a1 9d3d 0e0f 8a3c
000001c0: 31fc 293d 63da b13d b439 9cbd e6ee 9bbd
000001d0: df92 babd e84d d23c 05ab 3f3d c62c 073e
000001e0: ec89 fcbd 4494 c03d 3bdc 0cbd dbe2 ce3d
000001f0: 2751 ab3d aed3 a23d 279e 3a3d 1b86 b03d
00000200: 8241 ad3d 0fbf 45bc 4e2c 913d d444 f63c
00000210: 50e1 c7bd 10ef f13d e3b6 99bc 90cf 8cbd
00000220: c7db acbd c77f e5bd 2daa 033d 9b10 e5bb
00000230: bccb b83d c1ac b5bd 561f 89bd 387f 2b3b
00000240: 4b56 d6bd 88be b0bd 6258 93bd 6468 c03d
00000250: 3c30 be3d 866d 623d 196d 9fbb 2e24 e13c
00000260: d4f7 1b3d 55ff 1dbd 1898 083e 4a78 553d
00000270: 52b4 5fbd 761e b13d a793 103d 97e7 083d
00000280: 92cc b2bd 1bd4 bf3c 9c45 e03d 7099 9a3b
00000290: ea5e cb3c 77e6 3fbd 6542 1a3e ad5e bebd
000002a0: 5061 80bd 6cec 383d 3cb3 1cbd 8ad5 e2bd
000002b0: 70b7 7d3d 9dec be3d 8290 cf3d 31e0 86bc
000002c0: a5e9 a23d 48a7 e33d e3b2 363b 149b 8b3c
000002d0: 7902 c63d 1d3a 10be 608f febd 0376 ce3c
000002e0: 5fd8 6fbd 322b 65bc e28d 983d 4444 533d
000002f0: 5987 1e3d 21d8 9c3d bb25 b53b 1cb5 363b
00000300: 4eaf 88bd d91e 4fbd aec1 b1bd 425a 1e3b
00000310: 90f3 f13c 1a23 83bc ad0f acbd 96bb b8bd
00000320: ccaa 63bd 9f16 21bd fe2d edbc 318f b93c
00000330: 5cc6 cebd 86aa 093e 04f0 2bbd 4af0 8abb
00000340: 7a94 01be 9c47 b43d fa27 a73d 3933 ddbd
00000350: 005c fe3d f492 d43d 48e4 0abd 1b3e 8d3d
00000360: cc5b 2dbd 4014 923d 4f62 45bd 996c d9bd
00000370: 8bdc 55bc 7e8d 0f3c 42c3 923d 2d56 95bd
00000380: 871b ef3d a525 953d d529 70bc 4c5a e63c
00000390: 0e10 99bd 7c58 493d a563 f9bc 2b7d c73d
000003a0: e028 afbb f489 42bd 40da babd 5b79 c7bd
000003b0: 3a80 5e3d af94 1fbd da53 863c 7c43 92bd
000003c0: 735a 873d 8c5d 73bb 7824 1e3c 6967 f63d
000003d0: f78a 4bbd 7508 bebd 5443 58bd d61b 013e
000003e0: f2d2 32bc 6d11 96bd 4258 653d f3c6 103d
000003f0: 808c b53d 85ef c6bd eb8b 893d 7d7c 0dbd
0.03767497 0.04163982 0.04706678 0.0006260384 0.13148424 0.1365241 -0.06667367 -0.035824366
0.08480487 -0.0006947758 0.012840705 0.12820101 0.06144204 -0.033855572 0.023255259 -0.032405913
-0.13076442 0.01284654 -0.05713277 0.0839427 0.07936727 0.09574031 0.0788298 -0.08660238
-0.08013756 0.107416056 0.098265186 -0.026661651 -0.06875293 0.006106305 -0.07203478 -0.020226138
-0.0103830015 -0.11862721 0.03568501 -0.12730697 -0.014175506 0.028002983 -0.10317583 0.12992755
-0.08177395 0.017374584 -0.07814598 -0.061174747 -0.05477302 0.045667324 0.07303549 0.060834613
0.015181303 0.120725065 0.11165371 -0.108889826 0.0060560517 -0.12178219 -0.0683438 -0.089604996
-0.10076769 -0.14059752 0.018477058 -0.13433759 -0.06515795 0.088390335 0.0025785065 -0.11026598
0.11694864 -0.102573894 0.006402619 -0.05231383 0.10619323 -0.17428125 -0.06496011 0.13139021
0.059619837 -0.07028778 -0.04342751 -0.003729849 0.054470476 -0.049187426 0.07449265 -0.074066944
-0.027049446 0.08276617 0.052352216 -0.026503995 -0.07943938 0.018301224 0.094074816 -0.05039655
-0.08546582 -0.035812367 -0.047240283 -0.0015549212 0.1082074 -0.065352656 -0.019049292 -0.09527954
0.0167206 -0.01556632 0.08976926 0.0910787 -0.049972985 0.0048213555 -0.09825183 -0.007487781
0.097545825 0.041540653 0.07704828 0.15017334 -0.11043089 0.10697251 0.076967396 0.016852882
0.041500274 0.08684232 -0.076281935 -0.07613926 -0.09110045 0.025671914 0.046793956 0.13200673
-0.12330994 0.094032794 -0.034389716 0.10101863 0.08365088 0.07950531 0.045560982 0.086193286
0.0845976 -0.012069478 0.070885286 0.030062117 -0.09759772 0.11813176 -0.018763965 -0.06875527
-0.08440357 -0.11206012 0.032144714 -0.006990505 0.09023234 -0.08870841 -0.0669543 0.0026168358
-0.10465678 -0.08630091 -0.07194592 0.09394911 0.09286544 0.05528023 -0.0048653004 0.027483072
0.038078144 -0.03857358 0.13339269 0.05211667 -0.054615326 0.08648388 0.035297062 0.033423986
-0.08730425 0.02341657 0.10950777 0.004717998 0.024825532 -0.046850648 0.1506439 -0.09295402
-0.06268561 0.045147344 -0.03825687 -0.110758856 0.061942518 0.09322474 0.101349846 -0.016464325
0.079547204 0.11115891 0.002787762 0.01704172 0.0966844 -0.14084668 -0.1242969 0.025202757
-0.058555957 -0.013987349 0.07448937 0.051578775 0.038703296 0.07658411 0.0055281795 0.0027878946
-0.06674062 -0.050566528 -0.086795196 0.0024162685 0.029535085 -0.016007949 -0.084014274 -0.09020154
-0.055582806 -0.039328214 -0.028952595 0.022651287 -0.10096428 0.13443956 -0.041976944 -0.0042400705
-0.12654296 0.08802721 0.08161922 -0.108007856 0.12419891 0.103795916 -0.033909112 0.06896611
-0.042323872 0.07132769 -0.048189458 -0.106164165 -0.01305307 0.008761762 0.07166149 -0.07291827
0.11675172 0.07282571 -0.014658411 0.028119229 -0.07473765 0.04915665 -0.030443022 0.09740671
-0.005345449 -0.047494844 -0.09123659 -0.097399436 0.054321505 -0.038960155 0.016397405 -0.07141778
0.06609049 -0.0037134616 0.0096522495 0.12031443 -0.049693074 -0.09278957 -0.052798584 0.12608275
-0.010914551 -0.073275425 0.055992372 0.035345983 0.08864689 -0.097136535 0.0671614 -0.03454255

gru.weight_hh_l1 f4 [192, 64]
00000000: e85d 973d c844 1f3d 6fb1 bbbd 883b 7c3d
00000010: ca3d d9bc e152 23bd d4a8 ad3d da0f 053e
00000020: ccc3 d93d a5dc 0e3c 33c3 603d 75ce eabc
00000030: 4b8e 7e3d 86f1 a33d 318e f53d 7d41 d23c
00000040: c47e e23d d5a0 2e3b 86fb fa39 248a c8bd
00000050: 4644 3c3c 474f 823d bef6 0abd d616 7f3d
00000060: 444e 54bd 9244 6d3d 069e 7a3d 5964 493d
00000070: ae10 ad3d 2135 a8bd f031 37bd a055 f73b
00000080: 116a 14be 1a19 f63d 10cc fdbd a470 743c
00000090: c6fc 4c3d f0e9 e23d f8fe 94b8 e5c7 83bd
000000a0: a9a7 dc3d be86 1f3d 12c1 aa3d fcf8 bf3d
000000b0: e46a 6abd b12d cbbd 8940 c13d f705 18bd
000000c0: bec7 17bd a7ff 1e3d fd74 2b3d ac2d f8bd
000000d0: 2291 103e b27e b6bd 7350 6abd b860 07bd
000000e0: ac86 893d b84f 7bbd 4884 ebbd 0155 4ebc
000000f0: b93e a63c 3815 f9bb 54f0 b83d 4908 303d
00000100: 857e a0bd 04eb 093e f5c3 0e3d 8e14 bf3d
00000110: ffd1 94bd a23a 1d3d 469e 4a3d 223c e9bc
00000120: 50f9 f93d b0b5 5f3d b0ad 9e3d 7695 36bd
00000130: 21ed e93c 3cc7 fcbd 361f 363b f4cd c13d
00000140: 58a4 bd3c e483 b23c 8833 8ebd b03e a73d
00000150: 8f8f 883d a25f b6bd 01f1 363d f7cc 54bd
00000160: 913e e93d 926e 75bd 54ad dabd e2cd 03be
00000170: fe12 5abd 707a 1b3d 7abe a33c 54eb 02bc
00000180: 3024 0abe 8693 a7bd 37af 103d 954c 00bc
00000190: 4abb 4dbd 93da c43d ed27 ca3d ab4e c7bd
000001a0: 5842 7bbc 2993 9a3c a444 af3c 4bac c2bd
000001b0: 0b37 0e3d 36c4 f6bd ba69 00be 9409 603d
000001c0: d2bb 873d 97d4 dcbd 3f2b 92bd 74b2 5bbd
000001d0: 65ac 003e 2ec5 55bd 1174 79bd d5c4 dabd
000001e0: 1658 60bc 64f7 92bd 8875 7ebd 313d d7bd
000001f0: 8a47 223d 944b 183d 13e3 db3c 1649 ddbd
00000200: 9893 133e 9fbc ea3d 620d bebc 6177 193c
00000210: d96f 213d 6be3 113e 3ef3 323d f43e 15bd
00000220: a8e8 173e 18ae d13c 1118 88bd 744b df3d
00000230: c291 3d3c 930c b53d 9a1d 62bb 93cb b13d
00000240: 004b 63bd d347 bcbd 6983 cdbc 57f4 2c3d
00000250: 4cdb 66bc 4a29 15bd 6ec0 843d 5e77 5abd
00000260: a72a c63d 2d4b 733d 2cc7 953d ff6e a53d
00000270: eae4 473d 3cc3 703c e842 03be 49d0 f7bc
00000280: c067 f3bd dbc1 133e fd7d 833d 92d7 013e
00000290: 0a51 6fba 4e1d 143e 907c e3bd cd4d a23d
000002a0: 7044 45bd b86e 0cbe 01bd dfb9 b371 103d
000002b0: ef5f 1e3d f4c2 823d 516c 4e3d 88ed 213d
000002c0: 7529 613d 6a28 713b a471 c23d 90b1 7abd
000002d0: 7a63 903d 5dd3 db3d 4c14 d33d f4cd 423d
000002e0: 7a6a 91bd 3d11 febc c17d c7bb 41f5 083d
000002f0: b384 843c 72ea c83c ae24 eb3d b8a0 18bd
00000300: 6c9d 033e 0199 933d da19 2abc 53e7 a43d
00000310: 1286 303d a14d d03c 6abd 37bd e118 f43b
00000320: 8c36 c4bd 7e3c de3d 9a5c 993c 1369 cabd
00000330: c962 fe3d 486f aebc d72d b93c e2a6 f4bc
00000340: d151 88bd c4d1 f83b 675d 0c3d e690 34bd
00000350: 4015 9d3d b0b6 fe3d 1b84 023e cc47 173d
00000360: 6554 81bd b1dc d93d 6e11 33bd 96b8 d6bd
00000370: e896 babd cbfe 9bbd d537 df3c 31da 433d
00000380: 5893 17bc d30e b6bd cf9e 093b 3364 ed3d
00000390: 39d3 10be 93fc e03d a78f cebc be8b e7bd
000003a0: 0996 b9bd 8629 543c a057 1bbd 07fd 1abd
000003b0: e410 3ebd 7e00 453c 7ed2 cf3d 906d 1ebc
000003c0: c8e5 e5bc d652 a13b 0a9e 00be 04d9 b73d
000003d0: 59e3 c9bd efb0 5cbd f55a 7fbd c9fa 2ebd
000003e0: 3458 a43d 99e2 31bc cc7f 0d3d b0a1 7a3d
000003f0: 34be 4fbd 6480 733d 56f7 c0bc 78e5 f13d
0.07390958 0.038883954 -0.09164702 0.06158021 -0.026518721 -0.03987396 0.08479467 0.12994328
0.106330484 0.008719598 0.054873656 -0.0286629 0.06214742 0.08005051 0.119900115 0.025665993
0.11059335 0.0026646156 0.00047871115 -0.09791973 0.011490887 0.06362777 -0.033926718 0.062277637
-0.051832452 0.057926722 0.06118586 0.049167965 0.08450447 -0.082132585 -0.04472536 0.007548049
-0.14493586 0.120165065 -0.123924375 0.014919434 0.05004575 0.11079776 -7.1046816e-05 -0.06434611
0.10774166 0.03894686 0.083376065 0.09373662 -0.057230845 -0.09920824 0.09436137 -0.037115064
-0.037055723 0.038818028 0.041859616 -0.12118086 0.14117864 -0.08910884 -0.05720563 -0.033051223
0.0671514 -0.061355323 -0.1149984 -0.012593509 0.02029358 -0.0076014064 0.09030214 0.04297665
-0.07836632 0.13468558 0.034854848 0.09330092 -0.07266616 0.038385995 0.049467348 -0.028471056
0.12205756 0.05461663 0.07747972 -0.04457613 0.028555455 -0.123426884 0.00277896 0.094631106
0.023149654 0.021791406 -0.069434226 0.081662536 0.06668007 -0.08904959 0.044663433 -0.051953282
0.11388887 -0.0599199 -0.10677591 -0.12871507 -0.05324077 0.037958562 0.019988287 -0.007990677
-0.13490367 -0.08182435 0.035323348 -0.007830759 -0.05022744 0.09612002 0.098708965 -0.097318016
-0.015335642 0.018869 0.021395035 -0.095055185 0.03472046 -0.12049143 -0.12540331 0.054696634
0.06627621 -0.10782736 -0.07137155 -0.053636983 0.12565763 -0.05219 -0.060901705 -0.10682074
-0.013692876 -0.07176092 -0.062123805 -0.10509718 0.039619006 0.037181452 0.026841676 -0.10804956
0.14411771 0.11461758 -0.02319974 0.009366841 0.039413307 0.1424691 0.043689005 -0.03643699
0.14834845 0.02559571 -0.06645215 0.109030634 0.011570396 0.08840289 -0.0034502507 0.08681407
-0.055491447 -0.09193387 -0.025087075 0.042225208 -0.01409037 -0.03641633 0.064820156 -0.053336494
0.09676104 0.059397865 0.0731338 0.080778114 0.048802294 0.014694985 -0.12818491 -0.030250685
-0.11885023 0.14429419 0.06420515 0.1267989 -0.0009129202 0.14464304 -0.11107743 0.079249956
-0.04816097 -0.13714111 -0.00042674693 0.035264682 0.03866571 0.063848406 0.050396267 0.039533168
0.054971177 0.003679777 0.094943315 -0.061204493 0.07050224 0.10733674 0.10306606 0.047559693
-0.07100387 -0.03101408 -0.006087989 0.033437017 0.016176557 0.024525855 0.114816055 -0.03726265
0.1285302 0.072069176 -0.01038214 0.08051934 0.04309661 0.025427641 -0.044858374 0.007449255
-0.095807165 0.10851382 0.018720914 -0.098833226 0.124211855 -0.021293297 0.022604866 -0.029864732
-0.0665623 0.0075933654 0.034268763 -0.0440835 0.07670069 0.124371886 0.12745707 0.036933705
-0.06314925 0.10637797 -0.043717794 -0.10484426 -0.09110814 -0.07616957 0.027248302 0.047815505
-0.009251438 -0.08889546 0.0020999198 0.11591377 -0.14143075 0.10985675 -0.025214983 -0.113059506
-0.0906182 0.012949353 -0.037925363 -0.037838962 -0.046402827 0.012024043 0.1014757 -0.009669676
-0.02806367 0.004923205 -0.12560287 0.08976939 -0.09857816 -0.053879675 -0.062342603 -0.042719636
0.08024636 -0.010857248 0.034545705 0.061189353 -0.0507185 0.059448615 -0.023555439 0.11811346

gru.bias_ih_l1 f4 [192]
00000000: c049 9a3d bf57 d03d 765b 8f3d dd6b bbbd
00000010: 4016 e83d e97d 803a 412f 313c 2121 54bd
00000020: 3043 d4bd 7cd5 4f3d 55ff 823d 8cec bcbd
00000030: 5719 89bd 43f8 dd3c 7c4f 36bd d47a c33d
00000040: a104 323d 0ac6 e0bd c006 a9bc 0c7e 753b
00000050: 0593 71bd 5531 003c 0f88 68bd c0be 993d
00000060: 22b4 c53d a73b 083e 93dd f7bd d12e 493d
00000070: 5854 483d 37ba 303d 809b c73d 4944 993d
00000080: dbc8 ab3d 017b 06be d01f 533d 4e8b 763d
00000090: d646 463d 2f0e cf3c f66d 5d3d ffbe e2bd
000000a0: fe3a c23c 134a b93d b576 003e 85da 58bc
000000b0: 0581 cf3d c91f 16bd a066 2dbc 1f71 363c
000000c0: 0c66 b23d 4dee a73d 639c 70bd f6fd dd3d
000000d0: c59e 34bd f4c4 09bd 0a13 743d 8d86 3d3d
000000e0: 6fae 6e3d 817a 433d ff4b e7bd 7b89 e93b
000000f0: 4bfd a4bc 9381 a73c ff1c b43d 11e3 9c3c
00000100: 33a5 c23d 2c11 383d 3bc2 413e 642b 7d3b
00000110: 6512 353e cbc9 23bd 2db3 143d 1bb6 e43d
00000120: fa29 ae3d a2aa 133e b0fe d7bd 7112 92bd
00000130: 1399 af3d 3cfd f43c ca0f cdbc 96df 3c3e
00000140: ab6a 393e ce99 a93e 67ea fd3d 0dc2 1d3e
00000150: 9b75 ef3d 09c1 d73d 82e8 803d 8e14 c13d
00000160: 4a4f b03d fbb0 bf3d 323f cbbd db7a 283e
00000170: 5b01 dc3d 288b 81bd a474 7d3d f060 b43d
00000180: 0ddd d73d 62bf 46be a2bf 8d3d 23b9 a43d
00000190: b46b e13d 08e0 a03e 775a 4c3d bb84 64bd
000001a0: 759f 9bbd 9221 6e3e 8ab9 753e 3e25 8d3e
000001b0: 578e 0a3e a77d 37bb 1828 87bd e64b 6b3d
000001c0: 56db 603e 0755 1e3d 806c bbbd de3d e73b
000001d0: a45d 653e a83b afbd d2d1 a1bb 0dca 6b3e
000001e0: 939e 8f3d d078 15bd 1846 b83d 1f4c a63d
000001f0: 1fae 913e 7997 1cbd 3d5c c93d ed97 9a3e
00000200: ce3b 113d ddde 7fbd 2d14 afbd e34a 823c
00000210: 48de 0cbd 6ff8 63bd b58f 0abd ebb5 01be
00000220: 34f4 cabd 7f80 3a3c 80f6 f23d ccc9 aa3d
00000230: 3d1e 11bd 29a9 f8ba e502 05be d3ef 893d
00000240: c11f d9bd d194 9fbd 4acd ff3c 40bb dbbc
00000250: b173 e33c ce65 c1bb 4f30 75bd 1427 25bd
00000260: 0f56 f8bd b2d3 9e3d 51d0 a13a 3aae 7fbd
00000270: ea3e f5bd e007 dcbd 49a3 bd3d 2ec0 ce3d
00000280: ac37 ad3d d7d4 903b e97f cc3d 40f5 dbbd
00000290: 684d 823d a5c8 8fbd 3404 8c3d 19cd 49bc
000002a0: f90d 79bd 09fc 77bd 26cd 963c 76a4 25bd
000002b0: 3d14 0c3d 4c68 c23d 43b8 b73d fed9 4ebd
000002c0: 6174 22bd e970 f339 9a86 023e d9de 4f3d
000002d0: 262b a9bd 7636 563d 50c2 c2bc ee43 27bb
000002e0: 4fe8 dfbd ce4f 93bd 94cd 733d 8fd2 653d
000002f0: 32ab d83d 6bff 42bd 00da 07bc 59bb 6c3d
0.07533598 0.10172986 0.06999867 -0.09151433 0.11332369 0.0009803149 0.010814489 -0.051789407
-0.103643775 0.050740704 0.06396357 -0.09224805 -0.06694286 0.02709592 -0.044509396 0.09544912
0.043461446 -0.10975273 -0.020633101 0.0037459163 -0.0589781 0.007824262 -0.05677038 0.07507086
0.09653498 0.13304006 -0.12102809 0.049116913 0.04890856 0.04314634 0.09746456 0.074837275
0.083879195 -0.1313286 0.05154401 0.060191445 0.0484074 0.025275318 0.054059945 -0.11071586
0.02370977 0.09047332 0.12545283 -0.013235693 0.101320304 -0.036651406 -0.01058355 0.011135369
0.0871087 0.08199749 -0.058742892 0.10839455 -0.044096727 -0.033635095 0.05958847 0.046270896
0.05827182 0.04772425 -0.11293792 0.0071269847 -0.02014031 0.020447528 0.08794593 0.019151242
0.095041655 0.04493825 0.1892175 0.00386306 0.17682798 -0.039987367 0.036303688 0.11167546
0.085041 0.1442056 -0.10546625 -0.07132424 0.085741185 0.029905908 -0.025031943 0.18444666
0.18107097 0.33125156 0.12398224 0.15406056 0.11692353 0.105348654 0.06294347 0.094277486
0.08608873 0.09359928 -0.09924163 0.16453116 0.10742446 -0.0632537 0.061878815 0.08807552
0.10540209 -0.19408944 0.06921317 0.080431245 0.11006871 0.31420922 0.04989096 -0.055790644
-0.075987734 0.23254994 0.23996559 0.27567476 0.13530861 -0.0027998479 -0.06599444 0.05744543
0.2195867 0.038655307 -0.09151554 0.0070569357 0.22399002 -0.085563004 -0.0049383426 0.23026295
0.070126675 -0.03649217 0.08997744 0.08119988 0.28453156 -0.038230393 0.09832046 0.30194035
0.035457425 -0.0624684 -0.0854877 0.01590485 -0.03439167 -0.055656847 -0.033828456 -0.12667052
-0.09909859 0.011383175 0.118634224 0.08339271 -0.035429228 -0.0018971312 -0.12989385 0.06735196
-0.1060176 -0.07792056 0.03122582 -0.026822686 0.027765127 -0.0059020286 -0.059860524 -0.04032047
-0.121257894 0.077552214 0.0012345408 -0.062422015 -0.119748905 -0.107436895 0.0925966 0.10095249
0.08457884 0.0044199037 0.099853344 -0.10740137 0.0636242 -0.07020692 0.06836739 -0.0123169655
-0.06080434 -0.060543094 0.01840837 -0.040440045 0.03419899 0.09492549 0.08970692 -0.050500862
-0.03966177 0.00046432696 0.12746659 0.050749633 -0.08260183 0.05229803 -0.023774296 -0.0025522667
-0.10932981 -0.07192956 0.059522226 0.056109007 0.10579528 -0.047606867 -0.008291721 0.057795856

gru.bias_hh_l1 f4 [192]
00000000: e4ce 19bd 83b8 a93b f1c2 b23a 2390 c4bd
00000010: c9a4 46bd 7d87 ba3d a2ab 6a3d 43cb 093d
00000020: 3cd2 b8bc 0544 ac3d 7599 09bd 08cb 563c
00000030: 6b94 a2bd 5ddf 0a3c 1132 f0bd 10c2 aebd
00000040: 3d4d cbbc bbc1 413d 6ba2 c53d b9cf aebd
00000050: 2f79 32bd 65cd a93d 0f39 d9bb 617f 06be
00000060: 638d 663d b302 23bd fc52 17bd 3c75 5a3d
00000070: d72b c83d 5b9b 943d 0e00 72bd 5b2c 7f3c
00000080: 77d1 3fbd 707b 3dbd 0fe4 dcba 1f19 ebbd
00000090: d6f6 323d 6bc1 bebd 51b9 e2bd d5c4 f53b
000000a0: 1f73 9bbd 0ce0 1d3d ee1c b5bd be1c 8e3d
000000b0: 192a 8e3d 3112 9cbd 29f6 16bd 282f 6ebd
000000c0: 88cc d93d de2d dabc 313e a0bd 8534 b4bb
000000d0: 0c38 ad3d 5b12 2a3d f27f 39bd d6ff 653c
000000e0: 77e2 eebd a90c 67bd d9a2 c63d 11e0 cdbd
000000f0: 4704 ea3d 8641 4cbd aff2 dfbd 94a4 cdbd
00000100: ad37 7c3d b717 4c3e 9548 813d dee2 8bbd
00000110: 727b e43d 230a d5bd 3a72 713b b73f 46bd
00000120: adde 693e e317 903d 1826 e5bd da0c 18bd
00000130: 8ae8 01be ad5c fc3d 1679 5d3d c742 783e
00000140: aa09 3a3e 15ce af3e c1d9 fa3d 2cdf 7d3e
00000150: feea 3c3e bced 853d d062 61bc be34 1a3d
00000160: 12bf e33d bbcf 813d 786b 7ebc 00ea 5f3e
00000170: d9c4 8e3e 165c fa3d 2b57 493c 286d 373e
00000180: dd9a 8d3e b023 a1bd 163f bb3c c459 22bd
00000190: 0c8f 033e af6b a73e 99a4 bfbd 8922 42bd
000001a0: 2399 843d e28b 963e c679 4f3e 4566 813e
000001b0: 355d 273d 7203 6fbc 5526 9e3c 36a1 9cbd
000001c0: 2fb9 903e 290b f93b 0ef5 c5bc 2700 393d
000001d0: c2c8 073e 067d 7a3d 9555 833d bce9 5a3e
000001e0: 87e2 903b 67b7 77bb dd93 123e 8f28 ce3d
000001f0: a701 093e dadc 0bbd e1a8 193d 5c71 553e
00000200: be96 563d b547 babc 1e30 4a3d 7aec 29bd
00000210: 1876 f8bc 3cc1 c4bd 6a4e 37bd b385 a23c
00000220: 1748 26bd 1c4f 39bd 4d89 763d 419a acb9
00000230: 1b6b fc3d 8378 8abc 971c cbbd a24e 793c
00000240: 8593 59bd d2f1 5f3c 5ac1 8ebd 6a33 0dbd
00000250: cbba 76bd 0f84 0fbd 62f7 c73d 5fd3 c63d
00000260: 7b5e 8abd 8d0f a5bc 752c 713d 66ec 983c
00000270: 509a cabd 2a11 d9bc cb0f 863c 25e1 4dbd
00000280: 5c57 823d 2bd2 ee3b 837c c73d e64c 603d
00000290: c503 7cbd c88f c0bd 81f5 c33d 314e 523d
000002a0: 29d8 a0bd c18c cb3d 6243 b63d 2e96 4abd
000002b0: 71cc 5ebd 6240 c73d 53be 47bd a473 b9bd
000002c0: 43ee 7c3d b3db bd3d 5a3c ff3d fefb b53c
000002d0: b254 cbbc d808 c43d 7e12 2f3d 9420 a0bd
000002e0: 11fc cfbd d7a3 a03d 347b c23c 5003 2dbd
000002f0: 8c50 0a3e 38a0 dfbc 3540 1bbc aca7 c9bd
-0.037550822 0.005179466 0.0013638419 -0.095978044 -0.048496995 0.091078736 0.057292588 0.03364111
-0.022561185 0.08411411 -0.033593614 0.01310993 -0.07938465 0.0084761055 -0.117282994 -0.08533108
-0.024817104 0.047303896 0.096501194 -0.08535714 -0.0435726 0.08291129 -0.0066291164 -0.13134529
0.05628718 -0.039797496 -0.036944374 0.05333446 0.09773987 0.07256194 -0.059082083 0.01557454
-0.04683062 -0.046260297 -0.0016852635 -0.11479401 0.043692432 -0.09314235 -0.110705025 0.007500271
-0.07590317 0.038543746 -0.088434085 0.06939076 0.06941623 -0.07620657 -0.03685585 -0.05815044
0.10634714 -0.0266332 -0.07824362 -0.005499425 0.08457956 0.04152141 -0.045288034 0.014038047
-0.116642885 -0.056408558 0.096990295 -0.10052503 0.11426597 -0.049867176 -0.1093496 -0.100411564
0.061576534 0.19930921 0.06312672 -0.06830381 0.11156358 -0.10402324 0.0036841766 -0.048400607
0.2283885 0.07035806 -0.111889064 -0.03712163 -0.12686363 0.12322364 0.054070555 0.24244224
0.18167749 0.34336916 0.122485645 0.24792165 0.18449017 0.06539485 -0.013756469 0.037647955
0.11120428 0.063384496 -0.015528552 0.21866608 0.27884558 0.12224595 0.012288849 0.17912734
0.27657214 -0.07868135 0.02285723 -0.03963639 0.12847537 0.32699344 -0.093575664 -0.047396217
0.06474521 0.29403597 0.20261297 0.25273338 0.040860374 -0.014588224 0.019305388 -0.07647936
0.28266284 0.0076002073 -0.024164703 0.04516616 0.13260177 0.061154388 0.06412808 0.21378225
0.0044215354 -0.0037798525 0.14314218 0.1006633 0.13379537 -0.034146167 0.03751457 0.20844024
0.052389853 -0.02273927 0.049362294 -0.041485287 -0.030329749 -0.09607169 -0.044752516 0.019839143
-0.040596094 -0.04524146 0.060189534 -0.00032921325 0.12325116 -0.016903168 -0.099175625 0.015216501
-0.0531192 0.013668494 -0.06970473 -0.03447286 -0.060236733 -0.03503805 0.097639814 0.097082846
-0.06756302 -0.020149017 0.05888029 0.018667411 -0.09892714 -0.026497442 0.016364953 -0.050263543
0.06364319 0.0072882376 0.097405456 0.054760836 -0.061527032 -0.09402424 0.095683105 0.0513441
-0.07853729 0.09938956 0.08899571 -0.04945963 -0.05439419 0.09729077 -0.04876549 -0.0905526
0.06175066 0.0927042 0.12462683 0.022214886 -0.02482066 0.09571999 0.042742245 -0.07818714
-0.101555 0.0784375 0.023740388 -0.042239487 0.13507289 -0.027298078 -0.009475757 -0.09846434
