models/GRU_santander2.pt (torch, 179366 bytes, 11 tensors)

gru.weight_ih_l0 f4 [192, 11]
0	0xbdf25254	-0.11832109
1	0xbd8cd67a	-0.06876846
2	0xbd97f650	-0.07420027
3	0xbd9fd7b0	-0.07804811
4	0x3deff93e	0.11717461
5	0xbc367fa9	-0.011138835
6	0xbdd74e11	-0.10512937
7	0xbc07a938	-0.008280091
8	0x3decaec6	0.11556773
9	0xbdbeea7b	-0.09322067
10	0x3d9d98c7	0.076951556
11	0x3dd12e21	0.102138765
12	0xbdae0bca	-0.08498342
13	0xbc54aaac	-0.0129801445
14	0x3d2bbdbe	0.041929
15	0xbd0c7d8e	-0.034299426
16	0xbe4f91af	-0.20270418
17	0xbdc3801c	-0.09545919
18	0x3db8eb77	0.09029286
19	0x3d0eaa2f	0.03483027
20	0xbd850214	-0.06494537
21	0xbce4d227	-0.02793224
22	0x3d402e74	0.0469193
23	0x3de3516e	0.11099516
24	0x3e06d4aa	0.13167062
25	0x3d9c71fe	0.0763893
26	0x3deca7d0	0.11555445
27	0x3e2605a5	0.1621309
28	0x3c2c1973	0.010504114
29	0xbcd93225	-0.026513169
30	0x3d2d7721	0.04234994
31	0xbdb2148e	-0.08695327
32	0xbdc8c6f2	-0.09803571
33	0x3d8123b5	0.06305639
34	0x3d81ab18	0.06331462
35	0x3d68ba68	0.056818396
36	0xbd2a046f	-0.041508134
37	0x3ddebb72	0.10875596
38	0x3d01ed39	0.031720374
39	0x3cb6fa8d	0.022336269
40	0xbd714fb8	-0.058913916
41	0x3d919922	0.07109286
42	0xbdd3e14b	-0.103457056
43	0x3dae1519	0.08500118
44	0x3dc8aae6	0.09798221
45	0xbd97f57a	-0.07419868
46	0xbb471781	-0.0030379
47	0x3ccc2d6d	0.024924004
48	0xbd3aa789	-0.04556993
49	0xbe770ffe	-0.24127194
50	0x3d2e7e7e	0.0426011
51	0xbd1c7ac2	-0.03820301
52	0xbd814bec	-0.06313309
53	0xbd90c0ec	-0.07068047
54	0x3dcae73b	0.09907385
55	0x3d819ac3	0.063283466
56	0xbdc6ada0	-0.09701085
57	0x3dccb171	0.09994782
58	0x3c91252f	0.017717926
59	0xbd3cf4e8	-0.046132
60	0xbe7ec465	-0.24879606
61	0xbd2f4e58	-0.042799324
62	0xbde5675c	-0.11201355
63	0xbd11a81b	-0.03556071
64	0x3df66df0	0.12032688
65	0x3dabfb2b	0.08397516
66	0xbd976084	-0.07391456
67	0xbdf0a5df	-0.117503874
68	0xbcef919d	-0.029244239
69	0x3c241773	0.010015356
70	0xbd0a623f	-0.0337851
71	0xbd96d592	-0.07364954
72	0xbda565b3	-0.08076038
73	0xbdc5ead6	-0.09663932
74	0xbd8e5518	-0.06949824
75	0xbc45822d	-0.012054962
76	0xbda30613	-0.07960143
77	0xbdb1804b	-0.08667048
78	0x3d2dc4a1	0.042423848
79	0x3d8221fe	0.0635414
80	0x3d6ef03d	0.058334578
81	0xbd75278f	-0.05985218
82	0x3d736550	0.05942279
83	0xbca03b62	-0.019559566
84	0x3db61193	0.08890071
85	0xbce6b59b	-0.028162768
86	0x3d4a32cf	0.04936486
87	0xbd76d039	-0.06025717
88	0xbe0e5649	-0.13900103
89	0x3d86d4bb	0.06583544
90	0x3bea99a7	0.00715943
91	0x3ddc8940	0.10768366
92	0xbdfa14db	-0.12211009
93	0xbe790f76	-0.24322304
94	0x3dbf178f	0.09330665
95	0x3d5a0186	0.05322411
96	0x3dd754d9	0.1051423
97	0x3d554c44	0.052074686
98	0xbd41cc02	-0.047313698
99	0x3dda6275	0.106633104
100	0xbdbfe3f0	-0.093696475
101	0x3d5f63ab	0.05453841
102	0xbdd2142f	-0.10257756
103	0x3de3a5d5	0.11115614
104	0xbe9aa706	-0.30205554
105	0x3d6c2e84	0.05766155
106	0x3de17c16	0.11009996
107	0xbd2897bd	-0.041160334
108	0xbd7a71a5	-0.061143536
109	0x3c9971da	0.018731046
110	0xbd29e667	-0.041479494
111	0xbdc4a275	-0.09601299
112	0x3dcbcea4	0.09951523
113	0xbd5f429b	-0.05450688
114	0xbdfd89f9	-0.12379832
115	0x3e11649b	0.14198534
116	0x3d81c321	0.06336046
117	0x3df5a407	0.11994176
118	0x3ca8faf5	0.020627478
119	0xbd4b57bf	-0.049644228
120	0x3d2bf3ad	0.041980434
121	0xbd60788a	-0.054802455
122	0x3d5723f3	0.05252452
123	0xbe072013	-0.13195829
124	0xbc7a2ea8	-0.015269913
125	0x3dcd4a58	0.100239456
126	0xbe1aa8d0	-0.1510346
127	0x3cbfb1e3	0.023400253
128	0x3d88e31f	0.06683945
129	0x3d10625c	0.035250053
130	0xbdba58c1	-0.0909896
131	0x3d2fef00	0.042952538
132	0xbd2c847b	-0.04211853
133	0xbdc10431	-0.094246276
134	0x3dc19c6e	0.09453665
135	0x3d7a6ab5	0.06113692
136	0x3ccb8546	0.024843823
137	0x3ea9218b	0.33033404
138	0x3df764e8	0.12079793
139	0x3dc2f09d	0.095185496
140	0xbd91ce81	-0.071194656
141	0xbdb8587b	-0.09001251
142	0x3cf89026	0.030342173
143	0xbdd92adc	-0.10603878
144	0xbda36ccf	-0.07979738
145	0xbd61b5ac	-0.055104896
146	0xbdb277ba	-0.08714242
147	0xbd089747	-0.033347394
148	0xbe504a73	-0.203409
149	0xbd1a03be	-0.037601225
150	0xbd9bcc3d	-0.07607315
151	0xbcfd47ac	-0.030917965
152	0x3d5542cb	0.052065652
153	0xbdcf64b1	-0.10126627
154	0xbd1cfc43	-0.038326513
155	0xbdd46b94	-0.103720814
156	0xbd85e091	-0.06536973
157	0xbccfb114	-0.025352992
158	0xbd841c83	-0.06450751
159	0xbe452f60	-0.19256353
160	0x3d57d30a	0.052691497
161	0x3d0c3e6b	0.034239214
162	0xbe0ea5ba	-0.13930407
163	0x3da09ab4	0.07842007
164	0xbe0f1e92	-0.13976505
165	0x3d2cb61c	0.04216586
166	0x3db3a334	0.08771363
167	0x3d8d4a5d	0.06898949
168	0x3da502f6	0.080572054
169	0xbdbbde11	-0.09173215
170	0x3e0ec114	0.13940841
171	0xbd0d986b	-0.034569185
172	0xbd651b28	-0.0559341
173	0x3d843a86	0.06456475
174	0x3df9776f	0.12180983
175	0xbdb6eb6d	-0.08931623
176	0xbd59b4b7	-0.05315086
177	0x3bb46ce7	0.0055061462
178	0x3dd2415e	0.10266374
179	0x3d7d4ebc	0.061842665
180	0x3db2e0dd	0.087342955
181	0x3e79f0fd	0.24408336
182	0x3e040f75	0.12896521
183	0x3d3002db	0.042971473
184	0x3d91fda0	0.07128453
185	0xbd1e11c9	-0.03859118
186	0xbde48f6d	-0.11160169
187	0xbe003b16	-0.1252254
188	0xbddbcde5	-0.10732631
189	0xbdf53a8f	-0.1197406
190	0x3d9d93fd	0.07694242
191	0xbb3f4808	-0.002918722
192	0xbe2b672c	-0.16738576
193	0xbdecf027	-0.11569243
194	0x3d855e4c	0.06512126
195	0x3ddcaec0	0.107755184
196	0xbd26a257	-0.040682163
197	0xbde37c93	-0.11107745
198	0x3d71a928	0.05899921
199	0x3dec3687	0.11533838
200	0x3d6f2d55	0.05839284
201	0xbde13103	-0.10995676
202	0x3dbd9a2a	0.0925792
203	0x3e196b9a	0.14982453
204	0x3e04b7b3	0.129607
205	0xbd53a2b3	-0.051668834
206	0xbdd8ed14	-0.10592094
207	0xbd3a5df9	-0.045499776
208	0xbc5c5e09	-0.013450154
209	0xbe04108e	-0.1289694
210	0x3c921a8f	0.01783493
211	0xbd577aed	-0.052607466
212	0xbcfdf205	-0.030999193
213	0xbdd9cc05	-0.10634617
214	0xbe8a2e4b	-0.26988444
215	0x3dbaf7f4	0.091293246
216	0xbdd23aca	-0.102651194
217	0x3d66e09e	0.056366555
218	0x39aa1c5d	0.0003244606
219	0x3d89b8a0	0.067246675
220	0xbd2dd845	-0.04244258
221	0xbcfb2ba3	-0.030660456
222	0xbd44579e	-0.04793512
223	0xbddb8d02	-0.107202545
224	0x3d69ecd1	0.05711061
225	0xbe850586	-0.25980777
226	0xbe07b433	-0.13252334
227	0xbdbca780	-0.092116356
228	0xbe00a6f4	-0.12563688
229	0x3d6f484b	0.058418553
230	0xbd03d0b4	-0.032181457
231	0xbcee3761	-0.029079141
232	0x38304cd6	4.203323e-05
233	0x3d5a08fc	0.053231224
234	0xbde6ec01	-0.11275483
235	0x3c878046	0.016540658
236	0xbc8a3683	-0.016871696
237	0xbb43e982	-0.002989382
238	0x3dfbd865	0.12297133
239	0xbd141643	-0.036154043
240	0xbb6ae8fc	-0.0035844436
241	0xbdaa055d	-0.08301804
242	0xbd4ab216	-0.049486242
243	0xbb522698	-0.003206646
244	0xbd9b7233	-0.07590141
245	0xbdcb9d67	-0.099421315
246	0x3da914ec	0.08255944
247	0x3e9aecd5	0.30258814
248	0x3dcb978a	0.09941013
249	0x3e036f99	0.1283554
250	0x3df5ffde	0.120116934
251	0x3c0dbe04	0.00865126
252	0xbdd58063	-0.104248784
253	0x3d823d11	0.06359304
254	0x3c0d0df9	0.008609288
255	0xbdd4dca6	-0.10393648

gru.weight_hh_l0 f4 [192, 64]
0	0xbcd71d8f	-0.026259212
1	0x3d19401d	0.03741466
2	0x3bcb1bf4	0.0061984006
3	0xbd66de70	-0.056364477
4	0x3d9f16f8	0.07768053
5	0xbdecb5c9	-0.1155811
6	0xbde349df	-0.11098074
7	0x3e020e3c	0.12700742
8	0x3c689705	0.014196162
9	0x3da96af0	0.0827235
10	0xbd92ca0e	-0.07167445
11	0xbd8c5475	-0.068520464
12	0x3dc0be92	0.094113484
13	0x3dfad049	0.122467585
14	0x3cff5be3	0.031171745
15	0xbd4cb98d	-0.049981643
16	0xbdb02f59	-0.08602781
17	0x3be87ba6	0.007094818
18	0x3b551bef	0.003251787
19	0xbe079717	-0.1324123
20	0xbc8d9b5d	-0.017285997
21	0xbdbab405	-0.09116367
22	0xbdbb1300	-0.09134483
23	0x3cea431e	0.028596457
24	0xbda469b8	-0.08027977
25	0x3ddfe661	0.10932613
26	0xbd1fc2b3	-0.03900404
27	0xbc86d66b	-0.016459664
28	0xbdcdcbfa	-0.10048671
29	0xbd14e20e	-0.036348395
30	0x3d1864ab	0.03720538
31	0x3ce73b8d	0.028226638
32	0x3dd968f7	0.106157236
33	0xbdfb52b3	-0.12271633
34	0xbdfe5f79	-0.12420554
35	0x3d8ef416	0.069801494
36	0x3c9ec4b9	0.019380914
37	0x3ddcba55	0.107777275
38	0x3dbd532f	0.09244382
39	0x3da982b0	0.0827688
40	0x3de6e566	0.11274223
41	0xbd8aa001	-0.067687996
42	0x3c15355e	0.009106962
43	0x3b3fa01c	0.002923972
44	0x3d7c781b	0.06163798
45	0xbc285465	-0.0102740275
46	0xbd8051f7	-0.062656336
47	0xbe049a74	-0.12949544
48	0xbdb633b4	-0.0889658
49	0x3ca8b906	0.020596039
50	0x3d1f71e6	0.03892698
51	0xbd9820c2	-0.07428123
52	0x3d20a3d2	0.03921873
53	0x3d82757e	0.06370066
54	0x3d57dd31	0.05270118
55	0x3de2ed1f	0.110803835
56	0xbdad8aaf	-0.084737174
57	0x3d83aa0f	0.064289205
58	0xbdb4dd94	-0.08831325
59	0x3d806118	0.06268519
60	0xbdaa483e	-0.0831456
61	0x3cf3948d	0.02973392
62	0x3d98accd	0.07454834
63	0xbd868036	-0.06567423
64	0xbdd37863	-0.10325696
65	0xbe0ea5f4	-0.13930494
66	0xbcaefb63	-0.021360105
67	0xbda90e79	-0.082547136
68	0x3dc7b78a	0.09751804
69	0x3db1f05b	0.08688422
70	0x3d87fd6d	0.06640134
71	0xbcc30b85	-0.023809204
72	0xbda622dc	-0.08112118
73	0x3d73d116	0.05952557
74	0x3d4a8012	0.049438544
75	0x3d926f21	0.071501024
76	0xbd2e1a5d	-0.04250561
77	0xbdd095fb	-0.101848565
78	0x3e30d3a1	0.1726823
79	0xbd3ea92b	-0.04654805
80	0x3c600292	0.013672488
81	0xbde3f67d	-0.11130998
82	0x3c8b07ed	0.016971553
83	0xbcf1f8a2	-0.029537503
84	0xbdf109e0	-0.11769462
85	0xbd8a013f	-0.06738519
86	0x3d8e5c74	0.06951228
87	0x3dd21d22	0.10259463
88	0xbc82b76a	-0.0159566
89	0x3d6f2f95	0.058394987
90	0x3db77ffc	0.08959958
91	0xbd5bc8ae	-0.05365818
92	0x3dba3649	0.09092385
93	0x3db794fb	0.08963963
94	0xbdea0349	-0.11426408
95	0x3cb5cfd9	0.022193836
96	0xbcb90e57	-0.022589846
97	0xbd5409a3	-0.051767003
98	0xbda123ca	-0.07868154
99	0xbd7dd572	-0.061971135
100	0xbdc59586	-0.0964766
101	0xbdb27b2e	-0.08714901
102	0xbc6a3509	-0.014294871
103	0xbc7e24f8	-0.015511744
104	0x3dfb1fb0	0.12261903
105	0xbd438353	-0.047732662
106	0x3d3e2279	0.046419594
107	0xbdc1c05e	-0.09460519
108	0xbd83db34	-0.06438294
109	0xbd250f48	-0.040297776
110	0x3d23fb3e	0.040034525
111	0x3d9d0f55	0.0766894
112	0xbc4f9ce3	-0.012671682
113	0x3d36877e	0.04456281
114	0xbddaa520	-0.10676026
115	0x3ca24301	0.01980734
116	0xbdf75ac8	-0.12077862
117	0x3da46ca2	0.080285326
118	0xbd3643bc	-0.04449819
119	0x3d860e6f	0.06545722
120	0x3d54b632	0.051931567
121	0xbd8434f9	-0.06455416
122	0xbdb69268	-0.089146435
123	0xbd9b7211	-0.07590116
124	0xbe038d51	-0.12846877
125	0x3de1827d	0.11011217
126	0xbcfc3e1e	-0.030791339
127	0x3dc33002	0.09530641
128	0xbd79f8dd	-0.06102835
129	0xbde16fb4	-0.11007634
130	0x3d9eee2c	0.077602714
131	0x3c9928c6	0.0186962
132	0x3d0576a0	0.032583833
133	0xbd965ccf	-0.073419206
134	0x3db4ad82	0.088221565
135	0xbda87384	-0.08225158
136	0xbc1ac122	-0.0094454605
137	0xbd71c207	-0.05902293
138	0x3d398263	0.045290362
139	0xbdc4f267	-0.09616547
140	0xbdd1e61e	-0.102489695
141	0xbd8d8284	-0.069096595
142	0x3db605bc	0.088878125
143	0x3e015ab1	0.12632252
144	0xbd3bf973	-0.04589219
145	0x3d88cb1e	0.066793665
146	0xbd88fdeb	-0.06689056
147	0xbcaae57e	-0.020861384
148	0xbdc4f5d7	-0.09617203
149	0xbd26b8ad	-0.040703464
150	0x3db2f840	0.08738756
151	0xbcf1bf1c	-0.029510073
152	0x3d55bf92	0.05218465
153	0x3d3ddf8f	0.04635578
154	0xbd423987	-0.047418144
155	0xbdcdde40	-0.100521564
156	0x3d35e626	0.04440894
157	0x3dc8e03b	0.098083936
158	0x3b68ba61	0.003551148
159	0x3de572e4	0.11203554
160	0x3d35ec1d	0.04441463
161	0xbd94ab92	-0.07259287
162	0xbd966a6b	-0.07344516
163	0xbd62e9d7	-0.05539879
164	0xbddf756c	-0.10911068
165	0xbc16014e	-0.0091555845
166	0xbde3528a	-0.110997275
167	0xbd3d749b	-0.04625378
168	0xbd9c6156	-0.07635753
169	0xbd9d8c7b	-0.0769281
170	0xbdd00a3a	-0.101582006
171	0xbda52936	-0.08064501
172	0x3e07a206	0.13245401
173	0x3c685f70	0.01418291
174	0x3df43853	0.119248055
175	0xbd8278c6	-0.06370692
176	0xbd6dd4b8	-0.058064193
177	0xbe0130ca	-0.12616268
178	0x3c4dbed6	0.012557706
179	0xbd87b3da	-0.06626101
180	0x3d78ed5a	0.06077323
181	0xbbba7adf	-0.005690917
182	0xbda30f0b	-0.079618536
183	0xbdc3d0bb	-0.095612966
184	0x3d77439a	0.060367204
185	0x3d3e320f	0.04643446
186	0x3df980eb	0.12182792
187	0xbcefc7f2	-0.029270146
188	0x3e002ae8	0.12516367
189	0x3d417594	0.047231272
190	0xbd62473e	-0.055243723
191	0x3d6577de	0.056022517
192	0x3d029655	0.03188165
193	0xbc841030	-0.016121
194	0xbd82e048	-0.063904345
195	0xbd8d9ba1	-0.069144495
196	0x3dadd85c	0.08488533
197	0xbcb2b758	-0.02181594
198	0xbc3a3202	-0.011364462
199	0x3e038eaa	0.12847391
200	0x3d953038	0.072845876
201	0x3d961957	0.07329052
202	0x3d67549b	0.05647717
203	0xbcf374ea	-0.029718835
204	0x3d95059b	0.0727646
205	0x3d9beb2b	0.07613214
206	0x3dd93d2a	0.10607369
207	0x3d36baa1	0.044611577
208	0xbd99b5b6	-0.07505362
209	0x3de0f9bb	0.10985132
210	0xbd9078b8	-0.07054275
211	0xbe12e329	-0.14344467
212	0x3d30254a	0.04300431
213	0x3ddf8b7b	0.10915276
214	0x3c73b08e	0.014873637
215	0x3db68050	0.089111924
216	0x3e0930fe	0.13397595
217	0x3d081049	0.033218656
218	0x3d952162	0.07281758
219	0x3d7052bc	0.05867265
220	0xbaf82ba0	-0.00189339
221	0xbb278aa7	-0.002556482
222	0xbd74f3f5	-0.059802968
223	0x3cf159f9	0.029461848
224	0x3b042ea5	0.0020169404
225	0xbdfefe6a	-0.124508694
226	0xbdd7f1dd	-0.10544179
227	0xbc41bc50	-0.011824682
228	0x3dc04730	0.09388578
229	0x3c1f445b	0.009720887
230	0xbdae716a	-0.08517726
231	0xbbe91428	-0.0071129985
232	0xbd80de9b	-0.062924586
233	0x3c3799cb	0.011206101
234	0xbd65041b	-0.05591212
235	0xbd95c1dd	-0.07312367
236	0x3d5471dd	0.0518664
237	0x3dbb70a8	0.09152347
238	0x3cb03ce5	0.021513412
239	0xbdaedc01	-0.08538056
240	0xbc847410	-0.016168624
241	0xbdf8dd21	-0.12151552
242	0xbdaeaf34	-0.08529511
243	0xbcfea617	-0.031085057
244	0x3d15f279	0.036608193
245	0xbcea7be0	-0.028623521
246	0xbd456391	-0.048190657
247	0x3d9135d3	0.07090344
248	0xbd97d095	-0.07412831
249	0xbd46c619	-0.048528764
250	0x3de6eed7	0.11276024
251	0xbdaccfbf	-0.08438062
252	0xbd08e0ef	-0.03341764
253	0x3db1b17a	0.08676429
254	0x3d934827	0.07191496
255	0xbd1e864e	-0.0387023

gru.bias_ih_l0 f4 [192]
0	0xbdb10d1b	-0.08645078
1	0x3d93b61a	0.072124675
2	0x3ccd34cf	0.025049595
3	0x3da8d0f1	0.082429774
4	0x3d9c16d0	0.07621539
5	0xbd5eda60	-0.054407477
6	0x3d87c2da	0.06628962
7	0x3c8b3418	0.016992614
8	0xbdcfa0fa	-0.10138126
9	0xbdaac6b1	-0.08338679
10	0x3d8e6b34	0.06954041
11	0x3da29760	0.07939029
12	0x3c0c0b3d	0.008547601
13	0xbd9a59fc	-0.075366944
14	0x3c421037	0.011844686
15	0xbddf3240	-0.10898256
16	0x3df1b329	0.1180175
17	0x3dbcc33b	0.09216925
18	0xbbc13ab0	-0.0058968887
19	0x3b95b5fe	0.0045688143
20	0xbdf1ba81	-0.11803151
21	0x3d3c5988	0.04598382
22	0xbcc83b75	-0.024442414
23	0x3d63ba72	0.05559773
24	0xbdc7175e	-0.09721254
25	0xbb90c088	-0.0044174828
26	0xbde42c86	-0.11141305
27	0xbd34ffa7	-0.04418912
28	0x3db41d1a	0.08794613
29	0x3deea646	0.11652808
30	0x3c09db2f	0.008414074
31	0x3d5b3451	0.05351669
32	0x3cdde402	0.027086262
33	0x3d61ecf5	0.05515762
34	0xbdb515be	-0.088420376
35	0x3cfff822	0.031246249
36	0xbd89541d	-0.067054965
37	0xbdb0a544	-0.08625272
38	0xbd7c020e	-0.061525397
39	0x3d1f026a	0.03882066
40	0xbdca5153	-0.098787926
41	0x3a527ecc	0.00080297585
42	0xbd63303e	-0.05546593
43	0x3d27a887	0.040932205
44	0x3d3b7975	0.045770127
45	0x3dcef4c1	0.10105277
46	0x3dcf5138	0.10122913
47	0x3cccbb0b	0.024991533
48	0xbd48b093	-0.04899652
49	0x3de8a0e6	0.11358814
50	0xbdebb702	-0.11509515
51	0x3d5eccbf	0.05439448
52	0x3d9b0ebf	0.07571172
53	0xbdd3f810	-0.103500485
54	0x3dccdbb0	0.100028396
55	0x3cfffe6a	0.031249244
56	0x3dfa38b5	0.12217847
57	0x3d90587e	0.070481285
58	0xbdd602a0	-0.104497194
59	0xbac74e89	-0.00152059
60	0x3dc88761	0.097914465
61	0x3d77c3fe	0.060489647
62	0x3d70eff4	0.058822587
63	0x3dfd24bb	0.123605214
64	0x3db0ac58	0.08626622
65	0xbe80dabb	-0.25166878
66	0x3d3a7811	0.04552466
67	0xbd41b679	-0.04729316
68	0xbe2d9a82	-0.16953471
69	0xbd4ec104	-0.050477043
70	0x3dc8dce6	0.09807758
71	0xbdc1d2dc	-0.09464046
72	0x3c5777a3	0.013151082
73	0xbe7768e4	-0.24161106
74	0x3d586b60	0.052836776
75	0xbe274842	-0.16336158
76	0xbde88fc6	-0.113555476
77	0x3d919938	0.07109302
78	0xbe1cb0ac	-0.1530177
79	0xbe087bc3	-0.13328461
80	0xbe3075fd	-0.17232509
81	0xbdae8fcc	-0.08523521
82	0x3d2855d2	0.04109747
83	0xbdcea568	-0.100901425
84	0xbe08e69d	-0.13369222
85	0x3d35d6e0	0.044394374
86	0xbe35e994	-0.17764884
87	0xbd24f5c4	-0.040273443
88	0xbc9df370	-0.01928112
89	0xbe88d597	-0.26725456
90	0xbc75eaf3	-0.01500963
91	0xbe97b29f	-0.29628465
92	0xbe141e78	-0.14464748
93	0xbe5c3977	-0.21506296
94	0xbdddd3cc	-0.10831413
95	0xbcf61fb8	-0.030044422
96	0xbe1958d9	-0.14975299
97	0xbdb7a0d1	-0.0896622
98	0xbe16f271	-0.14740922
99	0xbe273b19	-0.16331138
100	0xbe14494c	-0.14481086
101	0x3e2c8cc3	0.16850571
102	0xbd938f06	-0.07205014
103	0xbc8530ce	-0.016258623
104	0xbe05d29a	-0.1306862
105	0xbc25c485	-0.010117655
106	0xbe45391d	-0.19260068
107	0xbcd29402	-0.025705341
108	0xbda863b1	-0.082221396
109	0xbd817f01	-0.06323052
110	0xbdea8458	-0.11451024
111	0xbe91771d	-0.2841119
112	0xbe5dcb3a	-0.21659556
113	0xbd82888e	-0.06373702
114	0x3db8e78e	0.090285406
115	0xbda5a90c	-0.08088884
116	0xbe69adbd	-0.22820182
117	0xbe1855ab	-0.1487643
118	0x3cfb35e5	0.030665347
119	0xbe47273f	-0.19448565
120	0xbe551c88	-0.20811665
121	0xbe453f88	-0.19262516
122	0xbdb2eaa9	-0.08736164
123	0xbd82b12b	-0.06381448
124	0xbe51702a	-0.20452943
125	0xbe4fdb11	-0.20298411
126	0x3cad0a05	0.021122942
127	0xbe45d0c7	-0.19317923
128	0x3da346c1	0.079724796
129	0x3b4974cd	0.0030739785
130	0x3d0332df	0.032030936
131	0x3d79d3eb	0.060993116
132	0x3cf488e9	0.02985044
133	0xbd4660d4	-0.048432186
134	0x3d7194bc	0.058979735
135	0xbbec49a6	-0.007210928
136	0x3dd968eb	0.10615715
137	0x3b4a1c53	0.0030839636
138	0xbd9bac64	-0.0760124
139	0x3d3c587d	0.045982827
140	0xbd3a0422	-0.045414098
141	0xbda552dc	-0.08072445
142	0x3c13a642	0.009011807
143	0x3d58d5a6	0.052938126
144	0xbdc9a7f5	-0.098464884
145	0x3d53c494	0.051701143
146	0xbdfd1307	-0.12357145
147	0x3d1eaaf3	0.03873725
148	0x3cdfe7b5	0.027332166
149	0x3d6816f7	0.056662526
150	0xbd277a26	-0.040887974
151	0x3b175ff0	0.0023097955
152	0x3d12bc40	0.03582406
153	0x3bf92323	0.0076030656
154	0xbc6f0004	-0.014587406
155	0xbd85b35d	-0.065283515
156	0xbbcbedce	-0.006223417
157	0x3be2cb86	0.0069212345
158	0xbdb51e23	-0.08843639
159	0xbc2425f5	-0.010018815
160	0xbd203467	-0.039112475
161	0x3d1acd51	0.03779346
162	0xbccba8fb	-0.02486085
163	0xbdb809e1	-0.08986259
164	0x3d832378	0.064032495
165	0x3c697752	0.01424964
166	0x3d8ee962	0.06978108
167	0xbd958480	-0.07300663
168	0xbd944a89	-0.07240779
169	0xbdcabb6d	-0.0989903
170	0xbdcff648	-0.10154396
171	0xbdd3ddb6	-0.103450224
172	0x3dad5469	0.084633656
173	0xbd560527	-0.052251007
174	0x3dde03bc	0.10840556
175	0x3dd92a82	0.10603811
176	0x3c36d702	0.01115966
177	0x3dbcf9c4	0.092273265
178	0x3dd9b742	0.10630657
179	0x3cb1eb3a	0.02171861
180	0xbc82e3cb	-0.01597776
181	0x3d7b9d55	0.06142934
182	0xbc4f6ed9	-0.0126607055
183	0xbdc0cb23	-0.09413745
184	0xbc15c8e2	-0.0091421325
185	0xbd5fc49b	-0.054630857
186	0x3dcec3a8	0.10095912
187	0x3c1dce5b	0.0096317185
188	0xbd8ab9a2	-0.06773688
189	0xbdba4732	-0.09095611
190	0x3dfd9636	0.12382166
191	0x3c9e9670	0.019358844

gru.bias_hh_l0 f4 [192]
0	0x3daec799	0.08534164
1	0xbd3ca160	-0.046052337
2	0xbde60726	-0.11231832
3	0xbdcd1889	-0.10014445
4	0xbd1785ba	-0.036992766
5	0x3d25ec08	0.0405083
6	0xbdd77e64	-0.10522154
7	0xbc001fa8	-0.007820047
8	0xbd680470	-0.056644857
9	0x3df48725	0.11939839
10	0x3d9018e8	0.070360005
11	0xbb053b93	-0.0020329698
12	0xbcccbdf9	-0.02499293
13	0xbdfb85da	-0.122813895
14	0x3dd8868b	0.10572537
15	0xbdd6d066	-0.104889676
16	0xbb3e271d	-0.0029015013
17	0x3d3013b5	0.042987544
18	0xbdec782b	-0.11546358
19	0x3d9f5493	0.07779803
20	0x3bc750c6	0.006082627
21	0x3da76f45	0.0817552
22	0xbd2082c0	-0.039187193
23	0x3d23e5da	0.040014125
24	0x3dd2e3cc	0.10297355
25	0x3d1ac0fa	0.037781693
26	0x3b767059	0.0037603586
27	0x3cf83a4c	0.030301236
28	0x3dd4e256	0.10394733
29	0x3deaa6dc	0.11457607
30	0xbd77437e	-0.0603671
31	0x3cdf6df9	0.027274119
32	0xbd26e5fe	-0.04074668
33	0xbda8c6c6	-0.08241038
34	0xbd7a5bad	-0.061122585
35	0xbd4f81b0	-0.05066079
36	0x3d8c4d35	0.068506636
37	0x3ded8c7e	0.115990624
38	0xbde944be	-0.11390065
39	0xbd7807dd	-0.060554374
40	0x3d7a1d77	0.061063256
41	0x3d17952b	0.037007492
42	0xbd9b2763	-0.07575872
43	0xbc3cdd74	-0.011527408
44	0x3db057cf	0.08610498
45	0xbd0b91b8	-0.034074515
46	0x3ddcc8ca	0.10780485
47	0xbde67005	-0.11251835
48	0x3d4eab1d	0.050456155
49	0x3df2af04	0.11849788
50	0x3d08280a	0.03324131
51	0x3e01c769	0.12673725
52	0xbb1cd519	-0.0023930727
53	0xbd84b1bc	-0.06479213
54	0xbdcc9000	-0.09988403
55	0xbc390a24	-0.011293922
56	0x3c82b055	0.015953222
57	0xbdece4dc	-0.11567089
58	0xbd81f172	-0.0634488
59	0x3dc49fc9	0.09600789
60	0xbdeb3089	-0.11483867
61	0xbd828720	-0.06373429
62	0x3dc329e5	0.09529475
63	0xbd626910	-0.055275977
64	0x3a96a9a6	0.0011494651
65	0xbde6e088	-0.11273295
66	0xbe460d72	-0.19341066
67	0xbd7c5aa5	-0.061609883
68	0xbc9b3d71	-0.018950196
69	0xbd0e9279	-0.034807656
70	0xbdffde6f	-0.12493598
71	0xbe309c80	-0.172472
72	0xbda4b2bd	-0.08041904
73	0xbe03d254	-0.12873203
74	0x3cb54350	0.022126824
75	0xbe43789b	-0.19088976
76	0xbd912637	-0.07087367
77	0xbdd17190	-0.102267385
78	0xbe6b050f	-0.22951148
79	0xbcb10114	-0.02160696
80	0xbdf22184	-0.11822799
81	0xbe5366d9	-0.20644702
82	0xbd22f3cb	-0.03978328
83	0xbdc26224	-0.09491375
84	0xbe7255e5	-0.23665579
85	0x3c5f7872	0.013639556
86	0xbdfeca78	-0.124409616
87	0xbd64b44b	-0.055836003
88	0xbd8b02f2	-0.06787671
89	0xbe5deb00	-0.21671677
90	0xbe22084d	-0.15823479
91	0xbe95cdff	-0.29258725
92	0xbe503a8b	-0.20334832
93	0xbd2790c3	-0.04090954
94	0xbe255a32	-0.16147688
95	0xbe13dea8	-0.14440405
96	0xbe3e7989	-0.1860105
97	0xbe02bd27	-0.12767468
98	0xbe6a7d48	-0.22899354
99	0xbd916423	-0.07099178
100	0x3c5a858e	0.013337506
101	0x3e0dcb1c	0.13847011
102	0xbd9fb61d	-0.07798407
103	0xbc719abc	-0.014746364
104	0xbdf84142	-0.12121822
105	0x3994ecb0	0.00028405106
106	0xbe0ab8f6	-0.1354712
107	0xbd37b663	-0.044851672
108	0xbe09754c	-0.13423651
109	0xbe1845c5	-0.14870365
110	0xbe1746c0	-0.14773083
111	0xbda4e508	-0.08051497
112	0xbe8768a5	-0.26447025
113	0xbd6e7609	-0.058218036
114	0x3e769152	0.24078873
115	0xbe755c0e	-0.23960897
116	0xbe2af8ba	-0.16696444
117	0xbc722bca	-0.014780948
118	0x3cfaa2ae	0.03059515
119	0xbe17dbad	-0.14829893
120	0xbdbfcae0	-0.09364867
121	0xbdd70c1b	-0.10500356
122	0xbe3a5245	-0.18195446
123	0xbd1b7286	-0.037951015
124	0xbd817655	-0.06321398
125	0xbe2fc15d	-0.17163606
126	0x3d7be47c	0.061497197
127	0xbe2cafa5	-0.16863878
128	0x3d2ee4db	0.042698722
129	0xbd4bb89d	-0.049736608
130	0x3d3ca7c4	0.04605843
131	0x3db8a3e0	0.09015632
132	0x3dc779dd	0.097400405
133	0xbd017b61	-0.031611804
134	0x3b5e6422	0.0033934196
135	0x3d65ec82	0.056133755
136	0x3d3e5592	0.046468325
137	0xbd0bcd80	-0.034131527
138	0xbdace411	-0.08441938
139	0x3d048353	0.032351803
140	0x3d434439	0.047672484
141	0x3d7e657e	0.06210851
142	0x3d39ea63	0.045389544
143	0x3d3030a9	0.043015156
144	0xbdae0832	-0.08497657
145	0xbdaad31e	-0.08341049
146	0xbb820e43	-0.0039689853
147	0x3d34b9c8	0.044122487
148	0xbdf2fbe5	-0.11864451
149	0x3d46a0aa	0.048493065
150	0xbd8c542e	-0.068519935
151	0xbb37fd8a	-0.0028074705
152	0xbdad4c8e	-0.08461867
153	0x3d343497	0.043995466
154	0xbd3dbb6d	-0.04632132
155	0x3cf556de	0.029948648
156	0x3d2a14a8	0.041523606
157	0xbd69bfee	-0.057067804
158	0xbd97077b	-0.07374474
159	0xbd607f1b	-0.054808717
160	0xbdfea575	-0.12433902
161	0x3decc1dc	0.11560413
162	0xbd9953fd	-0.074867226
163	0x3cae2cf0	0.021261662
164	0x3d9971a4	0.07492378
165	0x3d90e9c8	0.0707584
166	0x3da4e551	0.08051551
167	0xbd46f069	-0.048569117
168	0x3ddab1d6	0.10678451
169	0x3c1ed05e	0.009693233
170	0xbddbd7da	-0.1073453
171	0xbd440550	-0.04785663
172	0xbdb25727	-0.08708029
173	0xbd8adb39	-0.06780095
174	0x3d4d4054	0.050110176
175	0x3dd714ad	0.105019905
176	0x3cdef684	0.027217157
177	0xbd86a5ea	-0.06574614
178	0x3dccc01c	0.099975795
179	0xbda5f306	-0.08102994
180	0xbd48e052	-0.049042054
181	0x3b4913df	0.003068201
182	0x3da34993	0.079730175
183	0x3bc8b00e	0.006124503
184	0x3da91c25	0.08257321
185	0xbd410359	-0.047122333
186	0x3b0e90f9	0.002175389
187	0x3a95d2e4	0.0011430648
188	0x3d1d3226	0.038377903
189	0x3d430dcb	0.047620576
190	0xbde37398	-0.11106032
191	0xbdcaf34a	-0.09909685

gru.weight_ih_l1 f4 [192, 64]
0	0xbdbcd004	-0.09219363
1	0xbdd1920c	-0.10232934
2	0x3dc65255	0.09683672
3	0xbd9d82aa	-0.07690938
4	0x3bef6914	0.0073062275
5	0x3d8f7ea6	0.07006578
6	0x3d9f45d4	0.077769905
7	0xbd4fcacd	-0.050730515
8	0x3dc3169d	0.095257975
9	0xbdc4cb70	-0.09609115
10	0x3d8d7f70	0.069090724
11	0xbd1aba5f	-0.037775394
12	0x3dd79ee1	0.105283506
13	0xbdc8e4c8	-0.098092616
14	0xbd2672bf	-0.040636774
15	0xbc44e0d5	-0.012016495
16	0x3d92eae7	0.0717371
17	0x3e1de0db	0.15417807
18	0xbd54fee2	-0.052000888
19	0xbdea3a9a	-0.114369586
20	0xbdae647d	-0.0851526
21	0xbdea78e9	-0.11448843
22	0x3df55865	0.119797505
23	0x3de309f0	0.1108588
24	0xbc819d9c	-0.015822224
25	0xbd82d3de	-0.06388067
26	0xbd4c50f8	-0.049881905
27	0xbd327901	-0.04357243
28	0x3db4279d	0.08796618
29	0xbc19ff09	-0.009399184
30	0x3ce462b5	0.027879098
31	0x3df3d6c5	0.119061984
32	0x3de7f6a7	0.11326342
33	0xbe13a98e	-0.14420149
34	0x3d59614b	0.0530713
35	0xbdbcb5df	-0.09214377
36	0xbc5df29c	-0.013546612
37	0xbc0c52a2	-0.008564623
38	0xbd9bf6b3	-0.076154135
39	0x3d97cdf1	0.07412327
40	0xbe06fa33	-0.13181381
41	0x3d75c939	0.060006354
42	0x3d62703f	0.055282827
43	0xbc71bb1e	-0.014754085
44	0x3dbf2fa1	0.09335256
45	0xbdbfc01c	-0.09362814
46	0xbe263b9a	-0.16233674
47	0x3d716661	0.058935527
48	0x3d4ebc0d	0.050472308
49	0xbd25fe7f	-0.04052591
50	0x3d985ea4	0.07439926
51	0xbbb27a09	-0.0054466766
52	0xbb71c922	-0.0036893566
53	0x3d5934ca	0.05302886
54	0x3d0e493c	0.03473781
55	0xbd6ebe31	-0.05828685
56	0x3dddde60	0.1083343
57	0xbd45ea58	-0.04831919
58	0x3d0d37df	0.03447711
59	0x3bca05cf	0.006165243
60	0x3e10fae3	0.14158206
61	0xbd0337fa	-0.032035805
62	0xbd770198	-0.060304254
63	0x3cfa68d4	0.030567564
64	0x3d5558c4	0.052086607
65	0x3dd29732	0.102827445
66	0xbe01e1fa	-0.1268386
67	0xbdcbafe5	-0.099456586
68	0x3d056d89	0.032575164
69	0xbd13b75f	-0.03606355
70	0xbc577ef5	-0.0131528275
71	0x3dd496b6	0.10380308
72	0xbdd1dc4e	-0.10247098
73	0x3cbf5e9e	0.023360547
74	0x3dd96528	0.10614997
75	0x3d9eb460	0.077492476
76	0x3d8c82e5	0.06860904
77	0xbd92025e	-0.07129358
78	0x3dd721aa	0.10504468
79	0x3d82f00d	0.06393442
80	0x3d30944d	0.04311018
81	0x3d1f2c46	0.03886058
82	0x3d20176e	0.039084844
83	0xbde2fa68	-0.110829175
84	0xbd7a3d08	-0.06109336
85	0xbddcb85e	-0.10777353
86	0x3c029be6	0.007971739
87	0x3b6a22af	0.003572624
88	0x3d1a1482	0.037617214
89	0xbb81b469	-0.003958274
90	0xbde22bd6	-0.11043517
91	0x3aab4ba9	0.0013068813
92	0xbdb3ae26	-0.087734506
93	0xbdcbdc3a	-0.09954114
94	0xbcd1c004	-0.025604255
95	0xba0d6cef	-0.00053949555
96	0xbc3667e0	-0.011133164
97	0xbce735ee	-0.028223958
98	0xbdc1c5b3	-0.09461536
99	0x3c55eb99	0.013056659
100	0x3d75c71f	0.06000435
101	0xbda46ac3	-0.08028176
102	0xbc1e77c3	-0.009672108
103	0xbd650b01	-0.055918697
104	0x3dd1f2d3	0.10251393
105	0x3d6a6f66	0.057235144
106	0x3df88771	0.121352084
107	0x3d9dd1dd	0.07706044
108	0xbdfcd4f4	-0.12345305
109	0xbd4d7d48	-0.050168306
110	0xbdb5e35b	-0.08881255
111	0xbb8c3bb7	-0.0042795795
112	0xbbe95aed	-0.007121435
113	0x3ba8e046	0.0051536886
114	0xbd67e3f5	-0.05661388
115	0xbdf958a8	-0.12175113
116	0xbdd183f4	-0.10230246
117	0xbdc6fd0e	-0.09716235
118	0xbdc19477	-0.094521455
119	0xbca1fd68	-0.019774154
120	0x3db2bf35	0.08727876
121	0xbdc9b4bd	-0.09848926
122	0xbe0655a0	-0.13118601
123	0x3b9bc976	0.0047542406
124	0xbce9f6f4	-0.02856014
125	0xbd9d0a2f	-0.07667958
126	0x3c9a1f1d	0.018813664
127	0x3d99e637	0.07514613
128	0xbc1d2214	-0.009590644
129	0x3e0d539a	0.13801423
130	0xbddf185e	-0.108933195
131	0xbd13549e	-0.03596937
132	0xbde9c503	-0.1141453
133	0x3daa7a3e	0.08324097
134	0xbd0a8b3b	-0.033824187
135	0x3d869cb4	0.065728575
136	0xbdae3209	-0.08505637
137	0xbd8f6091	-0.070008405
138	0xbda63657	-0.08115833
139	0xbc8ea9fa	-0.017415036
140	0x3b0a5ec0	0.0021113604
141	0x3de3a868	0.11116105
142	0x3da8f38f	0.0824958
143	0xbd0e6e23	-0.034773003
144	0xbd2cb24e	-0.042162232
145	0x3c207622	0.00979379
146	0xbdc595d5	-0.09647719
147	0xbe117826	-0.14205989
148	0xbd8c8917	-0.06862085
149	0xbcbdae68	-0.023154452
150	0xbbd5f65d	-0.006529613
151	0x3d82397c	0.063586205
152	0x3ddc38cc	0.10753021
153	0x3d0d2212	0.03445632
154	0x3e108b61	0.14115669
155	0xbd563201	-0.05229378
156	0x3ceccd86	0.028906595
157	0xbe0f9182	-0.1402035
158	0x3dc32a98	0.095296085
159	0x3d0ce6d2	0.034399815
160	0x3dff31f5	0.124607004
161	0xbde22afb	-0.11043354
162	0x3d2f280b	0.042762797
163	0xbc2af1fb	-0.010433669
164	0x3dc41af2	0.09575452
165	0xbbf1c2f8	-0.0073779784
166	0xbc1f1162	-0.009708734
167	0xbdf6eb2c	-0.12056574
168	0xbdb9fe24	-0.090816766
169	0xbdb230f3	-0.087007426
170	0x3ca17b61	0.019712152
171	0xbd757561	-0.059926394
172	0xbd63c0d6	-0.055603825
173	0x3c211f39	0.009834104
174	0x3bfb5f7f	0.007671296
175	0x3c574b33	0.0131404875
176	0xbc61debf	-0.013786017
177	0xbb9d5440	-0.004801303
178	0x3dec0a6f	0.115254276
179	0x3d7d27a3	0.06180538
180	0xbc9c2cce	-0.019064333
181	0x3d26062f	0.04053324
182	0x3d91b86a	0.07115252
183	0x3cb55638	0.022135839
184	0xbd1e82d5	-0.03869899
185	0xbdfd2af0	-0.12361705
186	0xbdb01050	-0.08596861
187	0xbdff4cea	-0.12465842
188	0xbcdf4c27	-0.027257992
189	0xbd66051c	-0.056157216
190	0xbcf43426	-0.029810023
191	0xbdddf570	-0.10837829
192	0xbde9512d	-0.11392436
193	0xbe0778d3	-0.13229685
194	0x3d563cb2	0.052303977
195	0x3dd05202	0.10171892
196	0x3db914ff	0.09037208
197	0x3dbf2735	0.0933365
198	0xbce1f2e6	-0.027581643
199	0xbdbbf1ce	-0.0917698
200	0x3d81405b	0.06311103
201	0xbc68b6f1	-0.014203773
202	0x3ca29c16	0.019849818
203	0x3d5c933b	0.053851347
204	0x3d876a6c	0.06612095
205	0x3dcf4952	0.101214066
206	0xbde5bc5c	-0.11217567
207	0xbdaba696	-0.08381383
208	0xbd4820ab	-0.04885928
209	0x3db48805	0.08815006
210	0xbb92995f	-0.0044738497
211	0xbde362a9	-0.11102802
212	0x3de6edd6	0.11275832
213	0xbdc2b100	-0.09506416
214	0xbdd2bdd5	-0.10290114
215	0x3de2b8fd	0.1107044
216	0x3d4d14e8	0.050068766
217	0xbdd8232b	-0.10553583
218	0xbda35b6b	-0.07976421
219	0xbcd223a0	-0.025651753
220	0xbc885cfd	-0.016645903
221	0x3decfef8	0.11572069
222	0x3dbc5973	0.091967486
223	0x3d90e036	0.07074015
224	0x3da2a165	0.0794094
225	0x3dd53355	0.104101814
226	0xbd8fd29a	-0.07022591
227	0x3d9d1537	0.07670062
228	0x3d04e4b8	0.032444686
229	0x3d4dcd24	0.050244465
230	0xbc1428be	-0.009042917
231	0xbdcc61e6	-0.0997961
232	0xbdb8c440	-0.09021807
233	0x3d663826	0.05620589
234	0x3dcc2170	0.09967315
235	0x3dad8d87	0.0847426
236	0x3d2b42ba	0.041811682
237	0xbc02cb4d	-0.007983041
238	0xbd283f92	-0.04107625
239	0x3de8ba30	0.113636374
240	0x3dae8767	0.0852192
241	0xbd17ac0b	-0.037029307
242	0xbe061e15	-0.13097413
243	0x3d59cbfe	0.053173058
244	0xbc2121ec	-0.009834748
245	0x3ba861e9	0.005138625
246	0x3d93b715	0.072126545
247	0x3de9dca8	0.1141904
248	0x3d75ab6b	0.05997793
249	0x3d0b9021	0.034073
250	0x3cf0a9f2	0.029377911
251	0x3da3fc37	0.080070905
252	0xbdbff1c7	-0.09372287
253	0x3d6109b1	0.054940883
254	0x3d6a5091	0.05720574
255	0x3d5cd9f7	0.053918805

gru.weight_hh_l1 f4 [192, 64]
0	0xbbeea85e	-0.0072832545
1	0x3cf5465d	0.029940778
2	0x3cbbefb8	0.022941455
3	0x3da090d2	0.07840122
4	0xbc980aa3	-0.01855976
5	0xbd819926	-0.06328039
6	0x3da23938	0.0792107
7	0x3ddd9b19	0.10820598
8	0x3be6db9c	0.0070452224
9	0xbbabaef2	-0.005239361
10	0xbcceeedf	-0.025260387
11	0x3dedeb17	0.116171055
12	0xbcbffbe0	-0.023435533
13	0x3d02220b	0.031770747
14	0xbdbfdaef	-0.0936793
15	0xbde5389c	-0.11192438
16	0xbca4fbde	-0.02013963
17	0xbd17c273	-0.037050676
18	0x3d265200	0.040605545
19	0xbc9b7aef	-0.018979518
20	0xbcbc36c1	-0.022975327
21	0xbdba2d23	-0.090906404
22	0x3d5328a9	0.05155245
23	0x3b814bbd	0.0039457963
24	0x3ddc6a7e	0.10762499
25	0x3cc90bff	0.024541853
26	0xbd0219e0	-0.031762958
27	0xbd747a29	-0.059686814
28	0xbd87b6da	-0.06626673
29	0xbc5e9f47	-0.013587779
30	0x3d308cdb	0.04310308
31	0xbdfc01b8	-0.12305015
32	0xbca04f2f	-0.019569008
33	0x3de0eb42	0.10982372
34	0xbd293d24	-0.041318074
35	0x3d9c692a	0.07637246
36	0x3dd7bc47	0.10533958
37	0x3d012c7c	0.031536564
38	0x3d2e97c2	0.042625196
39	0x3da3c27e	0.07996081
40	0x3d4bff78	0.04980418
41	0x3d1c79fb	0.038202267
42	0x3d818480	0.063241005
43	0x3da1fa2c	0.079090446
44	0xbdd16e32	-0.10226096
45	0xbbed9f55	-0.00725166
46	0x3cf12212	0.029435191
47	0x3d8f6e49	0.07003457
48	0xbce1df25	-0.027572224
49	0x3d8f023b	0.06982847
50	0xbb82ba08	-0.003989462
51	0xbc920139	-0.017822849
52	0xbdb07b72	-0.08617295
53	0xbde9fb14	-0.114248425
54	0xbd84fcb5	-0.064935125
55	0x3d784208	0.060609847
56	0xbd15105b	-0.03639255
57	0xbce720ec	-0.02821394
58	0x3da69b86	0.081351325
59	0x3cd78fe7	0.026313735
60	0x3dc45fc5	0.09588579
61	0xbdec4435	-0.11536447
62	0xbc557f23	-0.0130308
63	0xbdbe7815	-0.093002476
64	0x3e02d3d8	0.12776124
65	0x3d400b6d	0.046885896
66	0xbd9ce0e9	-0.07660086
67	0x3cf3f96d	0.029782021
68	0xbce45b00	-0.027875423
69	0x3dfd7928	0.12376624
70	0xbd94550c	-0.07242784
71	0xbd2c30e4	-0.042038813
72	0xbd80673a	-0.06269689
73	0xbd9fac20	-0.07796502
74	0x3d5918e4	0.053002253
75	0x3c53fe2c	0.012939017
76	0xbd82e62f	-0.0639156
77	0xbc884eb5	-0.016639093
78	0xbd43e610	-0.047826827
79	0xbd9bd3f5	-0.07608787
80	0x3d3ed3a4	0.046588555
81	0xbdbb6b9b	-0.091513835
82	0xbd99f873	-0.07518091
83	0xbdc966b3	-0.098340414
84	0x3c919b21	0.017774167
85	0xbd89b772	-0.067244425
86	0xbd5d4816	-0.054023825
87	0xbc69585b	-0.014242257
88	0x3d2d8174	0.042359784
89	0x3dbd9b1a	0.09258099
90	0xbc78abcf	-0.015177681
91	0x3d4b0e9d	0.049574483
92	0xbd150b04	-0.03638746
93	0x3d2e645c	0.04257618
94	0xbc0be78f	-0.008539095
95	0xbdeb4f64	-0.11489752
96	0x3b50c276	0.003185419
97	0x3d85c528	0.06531745
98	0x3dbd8b9d	0.09255145
99	0xbcb674d0	-0.022272497
100	0x3d27b46f	0.04094356
101	0xbdbf2038	-0.09332317
102	0xbc83c097	-0.016083045
103	0x3e0b62be	0.13611886
104	0xbd984fcc	-0.07437095
105	0xbd94e7f9	-0.07270808
106	0x3d522716	0.051306807
107	0xbda0fb03	-0.07860377
108	0xbdf15ee9	-0.11785681
109	0x3be2899e	0.006913378
110	0x3dd51865	0.104050435
111	0xbdf59309	-0.11990935
112	0x3d6aa448	0.057285577
113	0xbc10cb13	-0.008837479
114	0xbd5e6761	-0.05429781
115	0x3ce1b4c4	0.027552016
116	0xbd0abfbd	-0.033874262
117	0xbd88045f	-0.06641459
118	0x3d9bfcc6	0.07616572
119	0x3cc8cdda	0.02451222
120	0xbd95e287	-0.07318597
121	0x3d04e657	0.03244623
122	0x3c8dd179	0.017311798
123	0x3d377f0b	0.044798892
124	0xbb273960	-0.0025516376
125	0xbdf229ab	-0.11824354
126	0x3d85938f	0.06522285
127	0x3da3a281	0.079899795
128	0xbd211b2f	-0.039332565
129	0x3da598e6	0.08085804
130	0x3d5142df	0.051089164
131	0xbd26dae2	-0.040736087
132	0x3ce4c989	0.02792813
133	0x3d6bc5b5	0.057561595
134	0x3c26aac5	0.010172551
135	0xb9a9c192	-0.00032378413
136	0x3d0aecdc	0.033917293
137	0x3d850942	0.064959064
138	0x3c8aecb5	0.016958574
139	0x3d5681b5	0.052369792
140	0xbd4936b9	-0.049124453
141	0xbcfe7ccf	-0.031065373
142	0x3d983781	0.074324615
143	0xbda84d61	-0.08217884
144	0x3db0cf39	0.086332746
145	0xbd8034b3	-0.062600516
146	0x3d708191	0.058717314
147	0x3dae268e	0.085034475
148	0x3c7b66af	0.015344306
149	0x3d88776b	0.06663402
150	0x3c0e5f8d	0.008689773
151	0x3ddcc9ba	0.10780664
152	0x3d97fae8	0.074209034
153	0x3d49f01c	0.04930125
154	0x3d5122c0	0.05105853
155	0xbda8df70	-0.08245742
156	0x3dcb89c4	0.09938386
157	0x3dd1409b	0.10217401
158	0x3d9f2a24	0.077717096
159	0x3d826064	0.06366041
160	0xbded8884	-0.11598304
161	0xbdba1513	-0.09086051
162	0x3dce0da6	0.10061197
163	0x3dca3282	0.09872915
164	0x3dd3e530	0.103464484
165	0x3db88d8b	0.09011372
166	0x3d8e56a9	0.06950123
167	0xbd6b321e	-0.057420842
168	0x3daeb851	0.08531249
169	0x3a5cf9e7	0.00084295723
170	0xbd1d8ec1	-0.03846622
171	0xbdc38e06	-0.09548573
172	0xbd96a368	-0.07355386
173	0x3dbe9e8b	0.093075834
174	0xb9e0b1ef	-0.0004285718
175	0x3c1a9fb7	0.009437493
176	0x3e1b1405	0.15144356
177	0xbd7646ba	-0.060126044
178	0x3d59bd06	0.053158782
179	0xbdd4476a	-0.10365184
180	0x3bda7d80	0.006667793
181	0xbcd405cc	-0.02588167
182	0xbd86c21d	-0.06579993
183	0x3dc01397	0.093787365
184	0xbdc05760	-0.093916655
185	0xbde3f1dc	-0.111301154
186	0xbdc0e175	-0.094180025
187	0xbd94d5fb	-0.07267376
188	0x3d1200ee	0.035645418
189	0x3d9db79c	0.07701036
190	0x3dbbbda6	0.09167032
191	0x3cb5c2c6	0.022187602
192	0x3bf9b94c	0.007620966
193	0x3d166959	0.03672156
194	0x3deecfd8	0.11660737
195	0x3c102cad	0.008799714
196	0xbc9e3412	-0.019311938
197	0xbd06cc67	-0.032909777
198	0xbd207c83	-0.039181244
199	0xbc917894	-0.017757691
200	0x3d955c53	0.07293
201	0xbd9759c7	-0.073901705
202	0x3e0a30d2	0.13495186
203	0x3d06c73f	0.03290486
204	0x3e07aa8b	0.1324865
205	0x3d47ee87	0.04881146
206	0xbd0ef35f	-0.034900066
207	0xbded4cbe	-0.11586903
208	0xbdd034bc	-0.10166308
209	0x3de3d075	0.111237444
210	0xbe02c6c6	-0.12771139
211	0x3d043a4b	0.032282155
212	0x3db4de68	0.08831483
213	0x3d368619	0.04456148
214	0x3d82e1c1	0.063907154
215	0xbbe4202d	-0.0069618435
216	0x3dd3494f	0.10316717
217	0xbc7dc064	-0.015487764
218	0x3dd6003d	0.10449264
219	0xbdaed4ee	-0.08536707
220	0x3d94c326	0.07263784
221	0xbe06b806	-0.13156137
222	0xbba8c705	-0.005150678
223	0x3e0269e9	0.12735714
224	0x3ce2c24a	0.027680535
225	0x3cae729c	0.021294884
226	0xbcd56e52	-0.026053581
227	0xbd807758	-0.06272763
228	0x3de70e45	0.112820186
229	0xbdf56e1e	-0.11983894
230	0x3cc8c9c1	0.024510266
231	0x3dff950a	0.12479599
232	0xbcff80a2	-0.031189267
233	0xbdc338d8	-0.095323265
234	0x3dce8d9f	0.10085606
235	0xbd782fe9	-0.060592566
236	0xbc3315a9	-0.010930457
237	0x3d9db95e	0.077013716
238	0x3cdf88d2	0.02728692
239	0xbe048547	-0.12941466
240	0xbda564a1	-0.08075834
241	0xbd84ba2b	-0.06480821
242	0xbc86a370	-0.016435355
243	0xbe070391	-0.13184954
244	0xbdc22488	-0.09479624
245	0xbc25dcfc	-0.010123488
246	0xbdb7afe2	-0.08969094
247	0xbd88765f	-0.066632025
248	0xbcfd8caa	-0.030950863
249	0x3d74730b	0.059680026
250	0xbcad1fd6	-0.021133345
251	0x3d8669b3	0.06563129
252	0x3d752398	0.059848398
253	0xbd3a38aa	-0.045464195
254	0xbd8622bd	-0.065495946
255	0xbd5c0964	-0.053719893

gru.bias_ih_l1 f4 [192]
0	0xbd139566	-0.03603115
1	0xbe0adf50	-0.1356175
2	0xbd9d784c	-0.076889604
3	0xbda53871	-0.08067406
4	0x3d4dc741	0.05023885
5	0x3d8fc95f	0.0702083
6	0x3d285d81	0.041104797
7	0x3d9ab389	0.07553775
8	0x3dcf1fd1	0.101134904
9	0x3dcc7130	0.09982526
10	0x3dfd5a5f	0.123707525
11	0x3dcc4d70	0.099757075
12	0x3c87c59a	0.016573716
13	0x3c072610	0.008248821
14	0xbdbbb65c	-0.09165642
15	0x3da72b0f	0.0816251
16	0xbdbda4c6	-0.09259944
17	0xbd8aa0be	-0.067689404
18	0xbd37ba6a	-0.044855513
19	0x3d9f98ff	0.077928536
20	0x3dcc2959	0.09968824
21	0x3d293aae	0.041315727
22	0x3cf22f1b	0.029563477
23	0x3d9818c0	0.07426596
24	0x3db3f257	0.08786457
25	0x3d79eab9	0.061014865
26	0x3c3c6616	0.011498949
27	0xbd7e1600	-0.0620327
28	0xbde5ae68	-0.11214906
29	0x3dd2f41a	0.10300465
30	0xbe121635	-0.14266284
31	0xbd529751	-0.051413838
32	0x3d9c8eb5	0.07644407
33	0x3d88c5d1	0.066783555
34	0xbdff1d87	-0.12456804
35	0xbd47bf5c	-0.04876648
36	0x3d8e0f3d	0.069365
37	0xbc8976fc	-0.016780369
38	0xbd90fa8e	-0.070790395
39	0xbd53dbef	-0.051723417
40	0x3d53cf20	0.0517112
41	0x3d01f10b	0.031724017
42	0x3dcbf87f	0.09959506
43	0xbd178967	-0.03699627
44	0x3c9af3b7	0.01891504
45	0xbd37c86c	-0.04486887
46	0xbddc58b0	-0.10759103
47	0xbdc1d84d	-0.09465084
48	0xbc09a420	-0.008400947
49	0xbd4ac100	-0.049500465
50	0x3cbc248d	0.022966648
51	0x3d3f2e1d	0.046674836
52	0xbc5d410e	-0.01350428
53	0xbdb787f5	-0.089614786
54	0xbd2687a2	-0.040656693
55	0xbdf42081	-0.11920262
56	0x3caaafbe	0.020835754
57	0xbcd2db15	-0.025739232
58	0x3dae5d29	0.08513863
59	0xbdcbfcbc	-0.09960315
60	0xbd292f16	-0.04130467
61	0xbdf8b30c	-0.121435255
62	0x3d873f84	0.066039115
63	0x3c378bbb	0.011202748
64	0xbd33fc96	-0.043942057
65	0xbda47fb4	-0.0803217
66	0x3e080c78	0.13286006
67	0x3c0ac551	0.008469895
68	0xbdd6e21a	-0.10492344
69	0xbe2fcace	-0.17167208
70	0x3cef65f8	0.029223427
71	0x3cd2d7f6	0.025737744
72	0x3ccadb3a	0.024762738
73	0xbd856969	-0.06514246
74	0x3d2fee2c	0.042951748
75	0x3d102e38	0.035200328
76	0xbdaaca1f	-0.08339333
77	0xbdb89cbd	-0.090142705
78	0xbd3646d6	-0.04450115
79	0x3c99a1db	0.018753937
80	0x3c25fe4b	0.010131429
81	0xbd64dca9	-0.0558745
82	0x3c90975f	0.017650304
83	0x3d8dc9a3	0.06923225
84	0x3e020fa0	0.12701273
85	0x3dbec3cb	0.09314688
86	0xbdc7de1f	-0.09759163
87	0x3d0e2254	0.034700707
88	0xbcc70ea0	-0.024298966
89	0xbd5eada9	-0.054364834
90	0x3dcc8321	0.09985948
91	0xbd4a087a	-0.04932449
92	0xbd0effd6	-0.034911953
93	0xbd4c473c	-0.049872622
94	0xbc183448	-0.009289809
95	0x3d9f557f	0.07779979
96	0x3daaa067	0.083313756
97	0xbd1badfb	-0.038007718
98	0x3deb96e8	0.115033925
99	0xbd320ec4	-0.043471113
100	0x3c008073	0.007843125
101	0xbd75505a	-0.059891082
102	0xbdc2c183	-0.09509566
103	0xbdb8d64a	-0.090252474
104	0xbc9c1490	-0.019052774
105	0x3daf89c4	0.085711986
106	0x3cfef334	0.031121828
107	0xbcfc8b35	-0.030828098
108	0x3db76c5f	0.08956217
109	0x3dbe1c70	0.09282768
110	0xbd8f7d3a	-0.07006307
111	0xbd7205be	-0.059087507
112	0x3da5ef0d	0.08102236
113	0x3d81cede	0.06338285
114	0x3b8d98e8	0.0043212064
115	0xbd8764a1	-0.0661099
116	0xbcb4e54d	-0.022081995
117	0x3c99010f	0.018677263
118	0x3cdb5bd0	0.026777178
119	0x3c27b5d0	0.010236219
120	0xbd89f83f	-0.06736802
121	0x3d2d1c71	0.042263452
122	0xbd1cf5d6	-0.038320385
123	0x3dab54b9	0.08365769
124	0x3dbc6677	0.09199231
125	0xbdf3f9e5	-0.11912898
126	0xbd36cd7c	-0.04462956
127	0x3d68d46b	0.056843203
128	0xbdec7e6d	-0.11547551
129	0x3d1b6f76	0.037948094
130	0x3d73bac9	0.059504304
131	0x3d936e0b	0.071987234
132	0x3d6801dc	0.0566424
133	0x3d3919b9	0.045190547
134	0xbd6eeedd	-0.058333267
135	0x3c28e104	0.010307554
136	0x3da24abe	0.07924412
137	0xbd835575	-0.06412784
138	0xbd9fbed0	-0.078000665
139	0x3dc41b67	0.09575539
140	0xbd7e29ce	-0.062051587
141	0x3b357f7c	0.0027694395
142	0xbd78dfcf	-0.060760316
143	0x3d003d24	0.03130831
144	0x3dd111d3	0.10208478
145	0xbdb105ec	-0.08643708
146	0x3d806be5	0.06270579
147	0xbd459533	-0.04823799
148	0xbdab6e4d	-0.083706476
149	0x3d36bbac	0.04461257
150	0x3ab5fa69	0.0013883832
151	0x3d899f7e	0.06719874
152	0x3d4c768c	0.049917743
153	0x3d78bc47	0.06072643
154	0x3daf81b1	0.085696585
155	0xbd2c64d1	-0.042088334
156	0x3bbb50fb	0.0057164407
157	0x3d697ef6	0.057005845
158	0x3d50f6ab	0.05101649
159	0xbda88bea	-0.082298115
160	0xbddf6f1c	-0.10909864
161	0x3dd48747	0.103773646
162	0xbd79295d	-0.060830463
163	0x3d1ec800	0.038764954
164	0xbd654f6b	-0.055983942
165	0x3d8e67fd	0.06953428
166	0xbdaa0caa	-0.08303197
167	0xbd75b695	-0.059988577
168	0xbd7d017c	-0.061768994
169	0x3d1a83d1	0.037723366
170	0x3d940e31	0.07229269
171	0x3debed97	0.11519926
172	0x3d7a4607	0.06110194
173	0x3d8bf065	0.06832961
174	0x3d815066	0.06314163
175	0x3db03e30	0.08605611
176	0xbdc01a21	-0.09379984
177	0xbdf6be7d	-0.120480515
178	0x3dc6d506	0.097086
179	0xbcc76398	-0.024339482
180	0xbd106f1d	-0.035262216
181	0xbda7975d	-0.08183167
182	0x3cdccfb8	0.026954517
183	0xbd5c8788	-0.05384019
184	0x3d8893ea	0.06668837
185	0x3bf36bd7	0.007428627
186	0xbdbdf0f0	-0.09274471
187	0xbd10a5fe	-0.035314552
188	0xbce905cc	-0.028445147
189	0x3d8d246b	0.06891712
190	0x3dcb9ffb	0.09942623
191	0x3c2f7c87	0.010710842

gru.bias_hh_l1 f4 [192]
0	0x3d3b2526	0.045689724
1	0xbc9974a2	-0.018732373
2	0xbdcd3114	-0.100191265
3	0x3cfd17db	0.030895164
4	0x3d1f9fd9	0.038970802
5	0xbdc00e0d	-0.0937768
6	0x3dc9bfb9	0.09851021
7	0xbd8c596b	-0.068529926
8	0xbdfd72a3	-0.12375381
9	0x3d33ab97	0.043864813
10	0x3cc58b48	0.024114266
11	0x3c91416a	0.017731387
12	0xbc0d0db8	-0.008609228
13	0x3c539cbc	0.012915786
14	0x3dbec638	0.09315151
15	0x3d22bb5f	0.039729472
16	0xbdd0ff66	-0.102049634
17	0x3dd63607	0.10459524
18	0x3d8a91ed	0.067661144
19	0xbd1e3266	-0.038622282
20	0xbd9d57e5	-0.0768278
21	0xbcc729cb	-0.02431192
22	0xbd8cebcb	-0.068809114
23	0xbc6e57b9	-0.014547282
24	0x3c2acf1e	0.010425357
25	0xbd73477b	-0.05939434
26	0xbd81ec7a	-0.063439324
27	0xbd20dc64	-0.03927268
28	0x3d95b9cc	0.073108286
29	0xbdb498fc	-0.08818242
30	0xbdc43958	-0.0958125
31	0x3dfd0fb1	0.123565085
32	0x3cd975de	0.026545461
33	0xbd89c431	-0.06726874
34	0xbd0218e2	-0.03176201
35	0x3dbf3d54	0.09337869
36	0x3ddad6b9	0.10685486
37	0xbd44ca16	-0.048044287
38	0x3e01815c	0.12647003
39	0xbbb64228	-0.0055620857
40	0x3d244e31	0.04011363
41	0x3bad71d4	0.0052931104
42	0x3e023734	0.12716371
43	0x3d57a80d	0.0526505
44	0xbdf15c4d	-0.11785183
45	0xbd3865c8	-0.04501894
46	0xbde9a52c	-0.11408457
47	0x3d36b52c	0.044606373
48	0x3b526110	0.003210131
49	0xbd10e014	-0.035369948
50	0x3dbfebe1	0.09371162
51	0xbddf9934	-0.10917893
52	0x3de5f637	0.112286024
53	0x3db6bf1b	0.08923169
54	0x3df7a7b0	0.12092531
55	0xbc6a4072	-0.0142975915
56	0xbd31383d	-0.043266524
57	0x3d053ede	0.032530658
58	0xbdafa997	-0.085772686
59	0x3dd27eb8	0.10278076
60	0x3d0b87c1	0.034065012
61	0x3d79d53b	0.060994368
62	0xbddc8042	-0.10766651
63	0xbe0bfc17	-0.13670383
64	0x3dfa3c32	0.122185126
65	0x3dc87632	0.09788169
66	0x3df488d3	0.1194016
67	0x3dea17ac	0.11430296
68	0xbc93a0d1	-0.01802102
69	0x3d700ff3	0.05860896
70	0xbd7fca53	-0.06244881
71	0xba838dcd	-0.0010036767
72	0x3ad05e72	0.0015897288
73	0xbd0d307a	-0.03447006
74	0x3db0f7b6	0.08640997
75	0x3d11a127	0.035554077
76	0x3ced8695	0.028994838
77	0x3dc1c76b	0.09461864
78	0x3d10c407	0.035343196
79	0x3c819e72	0.015822623
80	0x3db80926	0.0898612
81	0x3deb8f8d	0.115019895
82	0xbdddf1c2	-0.10837127
83	0xbdf167f9	-0.11787409
84	0x3e44fc0e	0.19236776
85	0xbd6e3b78	-0.058162183
86	0x3d64777f	0.055778023
87	0xb9b7e90e	-0.0003507812
88	0x3e34b384	0.17646605
89	0x3e23d684	0.159998
90	0x3e1abec8	0.1511184
91	0x3e015276	0.12629113
92	0xbc0e5e28	-0.008689441
93	0x3e2ac5af	0.16676973
94	0x3db51edd	0.08843777
95	0x3d30ee43	0.043195974
96	0xbd29ec53	-0.041485142
97	0x3e0e87ed	0.13919039
98	0x3dc96000	0.09832764
99	0x3d74a627	0.059728768
100	0xbbd58737	-0.006516363
101	0x3b738d57	0.0037163103
102	0x3d1e33c4	0.038623586
103	0xbd3311be	-0.043718092
104	0xbc472fc3	-0.012157383
105	0xbd4d121f	-0.05006611
106	0xbd4922ae	-0.04910534
107	0xbdc0f57c	-0.094218224
108	0x3db7c987	0.08973985
109	0xbdf47c70	-0.11937797
110	0xbd7ef15d	-0.0622419
111	0x3d3b60b5	0.045746524
112	0xbccb050b	-0.024782678
113	0x3c2a57b6	0.0103968885
114	0xbd2d144f	-0.042255696
115	0xbd26ce86	-0.0407243
116	0x3d241b68	0.0400652
117	0x3c9fd2f6	0.019509774
118	0xbde4b738	-0.11167759
119	0xbd2ac22c	-0.041689083
120	0x397ee4a8	0.00024308509
121	0x3d5d12e3	0.05397309
122	0xbd807005	-0.06271366
123	0xbd28ee85	-0.041243095
124	0x3d059abc	0.03261827
125	0xbd8221cb	-0.06354102
126	0x3df54af4	0.11977187
127	0x3def3a4f	0.11681043
128	0x3dd05cf3	0.10173979
129	0xbd179cf1	-0.037014905
130	0x3ce9e56c	0.02855178
131	0x3ddc05ee	0.107433185
132	0x3dcd58f2	0.100267306
133	0x3dc5cde0	0.09658408
134	0xbdc48dad	-0.09597335
135	0x3c8706c1	0.016482713
136	0x3d8e2a76	0.069416925
137	0xbd064c21	-0.032787446
138	0xbda24ed0	-0.079251885
139	0x3d79dd9a	0.06100235
140	0xbdf8a6ab	-0.121411644
141	0x3dcb482d	0.09925876
142	0xbe00483c	-0.12527555
143	0x3d18dab0	0.03731793
144	0xbd920ea9	-0.071317025
145	0xbd061c2f	-0.03274172
146	0xbaa59187	-0.0012631872
147	0xbd361c46	-0.044460557
148	0xbb135979	-0.002248375
149	0x39818168	0.00024701213
150	0x3d09c5b8	0.033635825
151	0xbdc7c57a	-0.097544625
152	0x3ddc70d0	0.10763705
153	0xbd25b39d	-0.040454496
154	0x3dd04f4b	0.10171374
155	0xbd99b035	-0.07504312
156	0xbc6578af	-0.014005824
157	0xbdbf1136	-0.093294546
158	0xbd329c3c	-0.043606028
159	0x3d9f2cf4	0.07772246
160	0xbd8b5318	-0.06802958
161	0x3e0803fb	0.13282768
162	0xbcd0f67e	-0.025508162
163	0x3df238a9	0.11827213
164	0xbc6dadf7	-0.0145068085
165	0xbd220d40	-0.039563417
166	0x3d378da6	0.04481282
167	0xbca9416c	-0.020661078
168	0x3c0d0982	0.008608224
169	0x3d597310	0.053088248
170	0xbdddab33	-0.10823669
171	0x3d36722e	0.044542484
172	0x3c7ad989	0.0153106535
173	0x3cbaf4e3	0.02282185
174	0x3d1f2705	0.03885557
175	0xbd2a4ed0	-0.041579068
176	0x3d3ddd40	0.04635358
177	0xbdc63881	-0.09678746
178	0x3d9e23a2	0.0772164
179	0x3ddc6a13	0.107624196
180	0xbd7e9e10	-0.06216246
181	0x3cfbd2e9	0.030740218
182	0x3dbbbc6d	0.09166799
183	0x3bea8239	0.007156637
184	0x3c3a0f86	0.01135624
185	0x3dabc276	0.083867
186	0xba9914e6	-0.0011679202
187	0xbd353f0c	-0.04424958
188	0x3ded3d69	0.11583979
189	0xbce9035b	-0.028443983
190	0x3daacfab	0.08340391
191	0xbc5b152c	-0.013371747
