models/GRU_bbva.pt (torch, 233316 bytes, 11 tensors)

lstm.weight_ih_l0 f4 [256, 12]
00000000: d9fa b1bc 312a 20bd 7df8 08bd 1241 463d
00000010: 2069 98bc 2d50 e9bd 881e 463f 353e 333d
00000020: db4b dbbd d78f 00bd 7bce 083d a4b2 023d
00000030: b40a ab3c c62c c3bc 680e 283e 6b6f 513d
00000040: 6f9c 8a3c 849a 9f3d 5dfe 973f 1c2a 153e
00000050: 3e8c 8b3d 3d99 8ebd 666e 0b3e bf90 9bbc
00000060: ec29 20bd 1cbf 953d 0ba1 283e 5e93 813d
00000070: cf79 9ebd fae2 833c ae71 1a3f 382d c93c
00000080: 917d e73d 0f39 b73d 54dd 003e 0806 95bd
00000090: 65d7 443d a781 063d debe 1e3d acbc adbc
000000a0: 5988 bfbd 6d24 38be 637e 5bbc 3a58 8ebd
000000b0: bac2 953d ce4c bd3c 5d4a bbbd cd70 e9bd
000000c0: 23b0 2a3d 4e13 363e 47d4 dc3c a7d1 243d
000000d0: 562a c3bd a7f4 173b 7ffe dc3e fb86 e93d
000000e0: aaad 283e 70b0 61bd f4e8 5ebd 6ef3 0fbe
000000f0: 0533 c43d 1838 0f3e 7d1a 173e b4a0 943d
00000100: 7573 0e3d e4dc f3bd a5fd cc3e 45af 823d
00000110: 873f 863d fe5c d03d 4923 cb3c 47e4 92bd
00000120: eb78 89bd 3d11 4fbd 6b3b 503d aa09 9d3c
00000130: c7f3 81bd 99b7 0ebb f4a7 0dbf 2be7 7cbd
00000140: c014 b53d 576e bb3c 0c78 753e 781b d2bd
00000150: 448a 70bc accf ec3d 91c4 1b3d 01e3 373e
00000160: 21b0 4cbd 2700 dc3d db25 6d3f 029f b63d
00000170: 5e42 0d3e 9b18 90bd 2ee7 b03d 6fce 4bbd
00000180: 9e89 063e d6db e33c f4f8 84bd 8c8d cc3d
00000190: 55d2 f13d 0582 66bd b2b4 573f 5288 073e
000001a0: c3ad df3d ab15 bcbd 4200 cd3d ac0a e53d
000001b0: b5a1 fdbd eb6b 19bd 58b3 45bd 175f aebd
000001c0: dafb 743d 159d 1d3a 094d 70be c0f1 d9bd
000001d0: 8a4f 113e 4c6a dc3c d021 3ebc d441 cabd
000001e0: e922 2a3d 4337 a13c bfa6 333e 3e8d 353d
000001f0: b7c5 7c3d c97f dd3c 4454 a53e bee3 a53d
00000200: 6de4 13bd c2f7 463d 4041 09bb ce10 febc
00000210: cf8f c43d 7f65 94bb efa2 823b 3b63 983d
00000220: 945c 76bb dc25 c2bc 05ca 6e3f fe72 933b
00000230: bc78 c73d e129 933d a9e3 06bd c866 1fbe
00000240: 0712 0b3e ab5f 9dbd 222e fe3d ac3f 993d
00000250: ed53 8a3d 40d0 bebc 49d2 1a3f dbde 093e
00000260: f565 0a3e 5419 9c3d 5203 543e 2f6b 863d
00000270: 1f9a 7dbc 5ba9 2d3e 0a77 063e db58 003e
00000280: 43cc 973d fa42 853d bfb6 543f bc9e 363e
00000290: ebe7 103e 7447 15be ee9a c43d 7364 793d
000002a0: 59db f63c 54db 743d 3c78 443d 395b 033d
000002b0: b4de 95bd ac1e cf3d ee4b 5a3f a588 2dbd
000002c0: 42f7 66bb 49c9 0f3e acf6 903c 15c1 70bd
000002d0: 7f90 d93d 5a50 46bc aeca d3bc b12e 213e
000002e0: b792 14be e8b2 3bbc ac89 5c3f 951e edbc
000002f0: 2559 10bd 3be0 673d 29a9 243e 8e0e b33d
00000300: ec32 0e3e 6627 77bc 7fcb 96bd 8e36 6fbd
00000310: aa17 4ebd c3f6 23bd f54e 173f 992a 803d
00000320: 4b81 ec3d 5f1e 633d ccb0 b33d 2cb4 993d
00000330: 9a3a 7bbd d4fb d83d 0745 9e3d 613f 98bd
00000340: 219b 35bd 010a d23d b341 ef3e d7bf 6bbd
00000350: c729 073d 612b 3e3d 974c a13d fdbb 7b3c
00000360: 0f7c 59bc c73b 8ebd 3202 cc3d 61d8 19bd
00000370: 854d c23d 48ad 743d 5265 363f a9e5 083e
00000380: 8065 d03d 4c84 a9bd bd76 b83d 9558 e1bd
00000390: 4e9d a2bd d4f9 83bd fb8e 15bc 2f01 e43d
000003a0: 21a7 b43d 40d8 283d f692 543f 5b4f 7abd
000003b0: f1c3 08bd 639b c53d 0cae cc3d 683d c13d
000003c0: 5887 353d 0eef a8bd c691 d13c 4794 343d
000003d0: cc42 5fbc c3f1 e6bd d3e0 533f 3b89 393c
000003e0: afcf 9d3d 24fe b5bd 3fb0 b8bd 42c2 8abb
000003f0: 3869 093d b2dc 1c3c 9a6a 74bc 52f5 21bd
-0.021726059 -0.039102737 -0.033440102 0.0484019 -0.018604815 -0.113922454 0.77390337 0.043760497
-0.10707828 -0.031387176 0.03340004 0.031908646 0.020879127 -0.02382506 0.16411746 0.051131647
0.016920296 0.077931434 1.18745 0.14566845 0.068138584 -0.06962822 0.13616332 -0.018989919
-0.03910248 0.07311842 0.16467683 0.06326936 -0.07738077 0.016099442 0.6032971 0.024557695
0.11303247 0.0894643 0.1258443 -0.07276541 0.04805698 0.03283849 0.038756244 -0.02120813
-0.09352178 -0.17982645 -0.013396832 -0.06950422 0.07312532 0.023107912 -0.09145043 -0.11398468
0.041671883 0.17780802 0.02695669 0.040239003 -0.09529559 0.0023186596 0.43162915 0.114026986
0.16472498 -0.055099905 -0.05442138 -0.14057705 0.09580044 0.13986242 0.14756198 0.07257214
0.034778077 -0.11907366 0.40037265 0.06381086 0.06555086 0.10173987 0.024797099 -0.07172447
-0.067125164 -0.05055355 0.050837915 0.019169647 -0.06345325 -0.0021776913 -0.553344 -0.061743896
0.088418484 0.022879763 0.23971575 -0.102591455 -0.014681403 0.11563048 0.038029257 0.17957689
-0.049972657 0.107422166 0.9263589 0.08917047 0.13794848 -0.07035943 0.08637844 -0.049757417
0.13138434 0.027814787 -0.064927965 0.099879354 0.11807696 -0.05627634 0.84260094 0.13235596
0.10921814 -0.0918382 0.10009815 0.11183676 -0.12384359 -0.037456434 -0.04826674 -0.08514231
0.059810497 0.0006012482 -0.23466887 -0.10641813 0.14190498 0.026906155 -0.011604741 -0.09875837
0.0415372 0.019679671 0.17544077 0.044324152 0.061711993 0.027038472 0.32290852 0.08100079
-0.036106516 0.048576124 -0.0020943433 -0.031013872 0.09597742 -0.004528701 0.0039867084 0.07440802
-0.0037591802 -0.023699693 0.9327701 0.004499792 0.09739825 0.07185722 -0.032931957 -0.15566552
0.13581096 -0.07684263 0.12411143 0.074828476 0.06754289 -0.02329266 0.6047712 0.13463919
0.13515456 0.076220185 0.20704392 0.065634124 -0.01547864 0.16959135 0.13131347 0.12533896
0.07412007 0.065069154 0.8309135 0.1783399 0.1415097 -0.14578038 0.09599863 0.06088681
0.03013389 0.05977948 0.047966227 0.03206942 -0.07317868 0.10113272 0.8527211 -0.042366643
-0.0035242592 0.14041628 0.017695747 -0.058777887 0.106232636 -0.012104118 -0.025853481 0.15740468
-0.14509092 -0.011456229 0.8614757 -0.028945247 -0.035241265 0.056610327 0.16080154 0.087430105
0.13886613 -0.015085077 -0.073630325 -0.058401637 -0.050315537 -0.040030252 0.59104854 0.06258125
0.11548098 0.055448886 0.08773956 0.07505068 -0.061335184 0.105949074 0.0772801 -0.074339636
-0.044337396 0.10255814 0.46729812 -0.057556 0.032998826 0.046428088 0.078759365 0.015364644
-0.013274207 -0.069449954 0.09961356 -0.03755987 0.09487442 0.059735566 0.7124835 0.13368858
0.101756096 -0.08277187 0.090070225 -0.11003224 -0.0794016 -0.06444135 -0.0091283275 0.11133038
0.0882094 0.041221857 0.83036745 -0.061110836 -0.03338999 0.09648778 0.09994134 0.094355404
0.044318527 -0.08248721 0.025582206 0.04408672 -0.013626765 -0.11276581 0.8276493 0.011324222
0.07705628 -0.08886364 -0.09017991 -0.004234583 0.03354761 0.009574102 -0.014917994 -0.039540596

lstm.weight_hh_l0 f4 [256, 64]
00000000: 367e 89bd 9a83 5bbd 5d35 94bd 5b32 b33d
00000010: 4fa3 7cbd 8262 0f3c 18af 04be 4996 b63d
00000020: b68f b13d faca 993d 0b17 7d3e 4e7d e6bd
00000030: 2aa6 97bb 6539 59bd 371b 2abd 33cd b5bd
00000040: 1b64 453c 1b9a 133d 3b77 4c3d a664 0cbd
00000050: 8d4a 673d 8fe0 41bd 9a93 88bd 0fd6 f83c
00000060: 0f4f 0a3e d511 9abd b842 c0bd 0595 d5bd
00000070: 075b 423d 6fce d8bd dd24 05be 6f7a 39bd
00000080: 5394 acbd a0ce 25bd c24f e83d bdcd 9abd
00000090: e7c3 73bc a330 11be e31c c5bc d422 9bbc
000000a0: 18df e9bc 3f8f 43bd 52f9 983c 2c48 3dbd
000000b0: 2df9 49bc 1c19 c63d 155a b0bd cd85 a63d
000000c0: 64b9 98bd 5d52 bb3d d274 df3b 9f40 8ebc
000000d0: 4702 ccbd 7705 24bd ca30 1fbd 5a2b 3d3d
000000e0: a785 053e 8cf9 5b3d bc27 853d 6b6f 12bd
000000f0: 367b c03d 4ff1 cfbd 128a e2bd 9645 773d
00000100: 9ba6 14bd 9834 5abe a30b 94bd c945 6ebe
00000110: 2c31 023b ffe8 183e 4e24 653d 3c8e 3a3e
00000120: ea39 c2bc 8023 f03d 8a00 7a3e 7c06 e8bb
00000130: f775 493b 0a4f 43be 22c0 49be 65ba 553e
00000140: 6f55 193d 665b b5bc 63f4 a43d 6793 d73b
00000150: 3127 ff3d 7246 223e 719b 8bbd 46fc 2abe
00000160: e578 b1bc 7e9d e2bd 6569 98be 6c4a 27bc
00000170: d6ee 31bd 6c32 923d 99ed 82bd a0a0 1dbd
00000180: 6084 52bd e67a 45bc 1703 0d3e 3566 82bd
00000190: 4dfe 01be 02db 4ebc cacd 8b3d d9b1 13be
000001a0: 2f53 d83d 0002 e3bd ca8a f0bc da79 163d
000001b0: 9f1e d23d 033a 3abe 0603 c73c 9225 f5bd
000001c0: 93b6 703e 9bb3 4abd 9f29 a83b b4b6 6b3d
000001d0: 2f6e aa3c 89c5 04be e5d0 fdbd 0a83 d83d
000001e0: a588 183d 468c b83d 73c9 09be 869e bd3e
000001f0: 4497 6d3d e25e 8bbd 343e 8ebd 939c 1b3e
00000200: 110a 303c ec44 25bd a374 22be 7b74 38bc
00000210: f00b a4bd 5be3 6e3d 1cc6 0a3e 2ed2 393d
00000220: d849 013e 4825 573d 7e17 47bd 0b01 ad3d
00000230: aec5 b63c 7ed4 19bc af98 0d3b b1ca a63d
00000240: ff4e 7fbd d3cd 90bd 2422 e23c 4123 043d
00000250: 3b3c b63d 0ca3 fc3d 7c47 d63a 4222 15bd
00000260: d6e0 3d3d 72f6 f3bd dc87 22be 4248 a93d
00000270: 7851 e2bc b281 1f3c 5b1e 8fbd bf7d bfbc
00000280: e631 b33d 6c60 bebd 595b aebd 111e a23c
00000290: e872 393c 1de2 96bd 14ac a3bd 6f29 fbbd
000002a0: 8875 2cbe 2d4f dfbd 3e65 cbbc 7f8d cc3c
000002b0: 4253 42bd 2101 d8bd 3c26 6c3d 0926 9f3b
000002c0: 72d3 b3bb cc7a d83c 9c9f 9e3d f4b2 f13d
000002d0: ac4c dbbd 4ac6 c93d c8a4 02be acf5 9f3d
000002e0: f50e 81bb 0042 b8bd 2886 6b3d d686 613c
000002f0: 33f6 86bc 3d08 2ebd 990f 893d 7b27 1a3d
00000300: c812 ba3d c4a5 95bd a2e6 4bbd cf9c 2d3e
00000310: abe0 f43d 2060 963c 2635 f9bd 3ea0 0f3e
00000320: 090d 1fbd 7886 37bd 682d fd3c 083f b5bd
00000330: 291b 293d 852b acbd 29bd f1bc 506d 44bd
00000340: 071f 73bd d03e e8bd c0c6 1a3d 53e4 eb3c
00000350: 8246 2c3c f435 d73d 9c2e c43c 7e79 1bbd
00000360: 687b 983d 3458 e9bd f900 f8bd 14e9 93bc
00000370: cf20 34bd fbb7 d53d e18b ce3d b08f cbbd
00000380: 81e9 b83d 8479 4ebc fc8c 0cbd e9ab 573d
00000390: 1079 2e3c 3bbd 75be 2264 e23d 90ec b9bc
000003a0: 5022 d2bd 3179 dbbd 9d11 fcbb ebe2 c93d
000003b0: b92b 29bd bb4e 91bd 0d3b ff3c b055 10bd
000003c0: c439 ea3d 6a37 9dbc 5033 db3c e5c7 d6bd
000003d0: c8a9 a43c 3258 b53d 3ab4 65bc 5b36 a63d
000003e0: 8d42 103e dee9 c83c 6940 9b3c 7a87 753d
000003f0: 3da5 013e 04e5 e3bc 6c89 db3d 596d 67bd
-0.06713526 -0.053592302 -0.07236741 0.08749839 -0.06167918 0.008751513 -0.12957418 0.08915383
0.08669989 0.07509418 0.24715821 -0.11254369 -0.0046279626 -0.05303325 -0.04152986 -0.08877029
0.012047793 0.03603564 0.049918395 -0.034275673 0.05646758 -0.047333296 -0.06668778 0.030375509
0.13506721 -0.075229324 -0.093877256 -0.10428814 0.04745009 -0.10586249 -0.13002343 -0.045282777
-0.08426728 -0.040480256 0.113433376 -0.07558773 -0.01487825 -0.1417871 -0.024061626 -0.018937506
-0.028548762 -0.047744032 0.018673573 -0.046211407 -0.012327475 0.09672758 -0.08610932 0.08130989
-0.074572355 0.09146569 0.006819346 -0.017364798 -0.09961372 -0.040044274 -0.03886489 0.04618392
0.13039266 0.053704783 0.06501719 -0.035750788 0.093985006 -0.10153448 -0.11061491 0.060369097
-0.0362917 -0.21309125 -0.07228782 -0.23268808 0.0019865735 0.14932631 0.055942826 0.1821832
-0.023709256 0.11725521 0.24414268 -0.007080851 0.0030740479 -0.1907312 -0.19702199 0.20871885
0.03743499 -0.022138309 0.080544256 0.006578851 0.12458647 0.15847185 -0.068167575 -0.16697797
-0.021664092 -0.110651955 -0.2976791 -0.010210615 -0.043440662 0.071385235 -0.063929744 -0.038483262
-0.051395774 -0.012053227 0.1377071 -0.06367151 -0.12694664 -0.012625458 0.068263605 -0.14423312
0.10562741 -0.11084366 -0.029363055 0.0367373 0.10259747 -0.18186192 0.024293434 -0.119700566
0.23507147 -0.04948769 0.0051319147 0.057547286 0.020804493 -0.12965979 -0.12393359 0.10571869
0.03723969 0.0901113 -0.13455753 0.37035006 0.058005586 -0.06805207 -0.06945458 0.15196447
0.0107445875 -0.040348932 -0.15864806 -0.01125824 -0.080100894 0.05832229 0.13552135 0.04536646
0.12625825 0.05252579 -0.04860639 0.084474646 0.022311058 -0.009389041 0.00216059 0.08144129
-0.062331196 -0.07070508 0.02760417 0.032260183 0.08898207 0.12335786 0.0016348208 -0.036409624
0.046357 -0.1191224 -0.15872139 0.08265735 -0.027626738 0.009735512 -0.06988212 -0.02337539
0.08749752 -0.09295735 -0.08513517 0.019789727 0.0113189 -0.073673464 -0.07991806 -0.12263762
-0.1684171 -0.109037735 -0.02482855 0.024969814 -0.047442682 -0.1054709 0.05765365 0.004856829
-0.0054878527 0.026425742 0.07745287 0.11801711 -0.107079834 0.09852274 -0.12758172 0.0781053
-0.0039385506 -0.089969635 0.05750099 0.013765058 -0.016474819 -0.042488325 0.06692428 0.037635308
0.090856135 -0.07307008 -0.049780495 0.16954349 0.119569145 0.018356383 -0.121683404 0.14025971
-0.03883079 -0.044805974 0.03090544 -0.08849913 0.041285668 -0.08406738 -0.029509144 -0.04795581
-0.05935576 -0.113401055 0.0377872 0.028795397 0.010514857 0.105083376 0.023948006 -0.03795766
0.07445413 -0.113937765 -0.121095605 -0.018055476 -0.0439766 0.10435482 0.100852735 -0.099395156
0.09028912 -0.012602214 -0.03431414 0.05265418 0.010648981 -0.23997967 0.11054255 -0.02269581
-0.10260451 -0.10716475 -0.0076925294 0.09857734 -0.041301463 -0.07095095 0.031156087 -0.035237968
0.11436799 -0.019191463 0.026757866 -0.104873456 0.02010049 0.088547125 -0.01402002 0.08115836
0.14087887 0.024525579 0.018951612 0.059943654 0.1266069 -0.027819164 0.107195705 -0.056500766

lstm.bias_ih_l0 f4 [256]
00000000: 2585 a33c 6518 0d3e 0dd0 cbbb ebce e73d
00000010: a370 723d c46b 153d b86e 4c3d de9c 89ba
00000020: 7a31 bebd e188 503c abcc 083d 45c7 b23d
00000030: d51e 9cbd 2561 d93d a912 943c 076c cdbd
00000040: 626f fc3d ee17 eebd 9fcb d9bd 2812 9c3c
00000050: 0c9e 923d 80c1 2b3e 0bd1 07be d99e a2bd
00000060: 6c97 a9bd cba0 883c 7d87 4cbd 2a2f ad3d
00000070: 2905 39ba 7f64 453d 7dd3 3cbd 4b12 a43d
00000080: c271 14be d38d a23d 9f03 4f3b f4eb f3bc
00000090: 557e d5bd fa44 e33d 0f90 b53d 9f56 92bd
000000a0: 435b 00bc 1a57 2cbd 7797 bf3d 42b8 c1bd
000000b0: a34d b9bd e66f 4b3d 9dbe dd3c 7bc0 cebc
000000c0: 5e67 c83b 0566 0fbb d37a 58bc d485 3c3d
000000d0: 5d48 233c db22 cf3d a371 da3d 295b f53c
000000e0: 2010 3fbd 734c 093e f4a9 80bd 265c 8e3e
000000f0: 0c06 0bbe 9c0f 36bd 6eb6 dfbd cb6e 80bd
00000100: 8682 193d 5cbf 49bc f28a bd3d 9282 08be
00000110: da1f a83d 00fd 9c3d 3024 acbd 09f3 1d3d
00000120: 96dc 0abe 4fce 03bd 8d8b e1bd f9a6 e5bb
00000130: af79 663c 45b9 8a3c 5fcc 793a 2857 f6bd
00000140: 320a 00be 2732 443c 2093 9bbd c905 a9bc
00000150: a1e3 983d 1ad9 993d a7bf 533c 5270 61bd
00000160: 16da cbbd 1d82 bb3d 10c6 a9bd 4d5f babd
00000170: 8a22 c63d 58ff cd3d 5a2d 96bd 3fd0 643d
00000180: 6867 e3bd 7d2a c8bd 1d2d 08be cb88 b4bd
00000190: ba73 02be 4835 e23d e15e 073d 4661 0d3e
000001a0: 3f91 9e3c f716 a6bd 6424 d5bc 0a76 f0bd
000001b0: cb81 fbbc 350e 89bb 760d 8abd d1af bb3d
000001c0: 5771 833d 0792 d4bd 9143 e13d 5c78 c13c
000001d0: 5f1c e3bb ce11 8a3d 26ee b43d 5d80 843d
000001e0: 31d6 a13d 5219 17be 78f5 b0bd 1cae bfbe
000001f0: b9d9 9dbd 5fba ffbd 1c10 a23d 2594 46bd
00000200: 7c92 f0bb 3e19 7b3c bf36 c53d 5722 bb3d
00000210: 8c26 07be cc57 c6bd 8bd3 05be e390 a63d
00000220: 671d 0bbd bb8b 9b3c 9f6d a7bd bab3 41bc
00000230: 9b0b 213d 6192 f23c 3f18 cb3d 55b3 a8bd
00000240: 9332 57bd 6e93 75bc 8d8f a7bd 631e aa3d
00000250: de6b 6fbd ee02 813d 6a7e 44bc 03a9 293d
00000260: b2e3 d43d 5612 21ba 7950 e33d 5252 08bd
00000270: f664 10bc 69a6 54bd aac9 c7bc e616 073e
00000280: 1114 fcbc d8a8 543d 5b1e c6bd e5b5 5f3d
00000290: a36f 3e3d 2ae1 25bd 82ef ea3b 54a6 e53d
000002a0: 5637 a43b c6d7 493c e51b f0bd 01da 4b3d
000002b0: e1ca 3d3d 74bc 62bd bc12 2e3d 11b2 8fbd
000002c0: 67e4 eabd ca59 4c3d bb02 32bc c935 9fbd
000002d0: 80af 083e 2f69 303d cd8a d23d d8c8 433d
000002e0: 5be4 35bd 2340 c9bd 8675 0fbb fbc4 61bd
000002f0: 45b5 20bb 0380 483d 8c51 fa3d b505 a53d
00000300: 1548 81bd 0bfa 073d cc4d 023d 7e24 45bc
00000310: ab17 8e3d 9391 dc3b caab cc3d 9319 febc
00000320: 2fb4 d3bd 905a 87bd ba23 013e d4bf d1bd
00000330: c55c 21bd 8b18 e1bd f3c2 4d3d 402f ca3c
00000340: dbf2 bd3d d339 68bd 3447 11bd bcbb c4bd
00000350: aa47 213d 52e4 61bd 731c 49bd 7bc2 b1bd
00000360: 1624 243c e566 ec3d 9813 c33d 2e5d 803d
00000370: d8e1 a03d 4942 ffbd 80fb c83d 53cd 27bd
00000380: bd05 0b3d 9035 723d ca61 e1bc 7fe1 bbbd
00000390: fd68 6a3d df0d a3bd c1a4 c83d c8b8 1b3e
000003a0: e4db a73d aa88 cd3d 7512 283a ff16 ee3d
000003b0: 4461 b5bd e8f2 7bbd 7597 44bd bfb4 03be
000003c0: 9d7e 123e 2252 ba3d 2981 bc3d ed7c 083e
000003d0: 8a93 c7bd 934a 103d 79bd cc3d f02b c43d
000003e0: b146 683d 97c2 bd3b 180a 363d 527c 4c3e
000003f0: c2ee cf3b bb4c fd3d a36e fc3d 55f5 953b
0.01996095 0.13778837 -0.00621987 0.11318763 0.05918945 0.036479726 0.049910277 -0.001049902
-0.09286781 0.012727947 0.03339831 0.08729414 -0.07623068 0.10614232 0.018075304 -0.1003037
0.12325932 -0.11625658 -0.10634541 0.019051626 0.07159051 0.16773033 -0.13263337 -0.07940454
-0.082808346 0.016678235 -0.0499339 0.084562615 -0.0007057959 0.048191544 -0.04610013 0.080113016
-0.1449652 0.07937207 0.0031587852 -0.029775597 -0.104244865 0.110971406 0.088653676 -0.07145428
-0.0078342585 -0.042075254 0.093550615 -0.094589725 -0.09048011 0.04966726 0.02706843 -0.025238266
0.006115838 -0.0021880877 -0.013212877 0.046026066 0.009965983 0.1011407 0.10666206 0.029950695
-0.046646237 0.1340807 -0.06282416 0.2780468 -0.13576525 -0.04444848 -0.109234676 -0.06271132
0.037477992 -0.01231369 0.09255017 -0.13331059 0.082092 0.076654434 -0.0840534 0.038561855
-0.1356071 -0.032179173 -0.11012945 -0.00700843 0.014067098 0.016934047 0.000952905 -0.120283425
-0.12503889 0.011974848 -0.07596421 -0.020632641 0.07465292 0.07512112 0.012924111 -0.055038758
-0.09953706 0.091556765 -0.082897305 -0.091002084 0.096745566 0.100584686 -0.07332869 0.05586266
-0.111037076 -0.09773729 -0.1329846 -0.08815154 -0.12739459 0.11045319 0.033049468 0.13806638
0.019356368 -0.08109849 -0.026018329 -0.11741264 -0.030701539 -0.004182602 -0.06740849 0.09164394
0.06418102 -0.10379415 0.109992154 0.023616962 -0.0069308723 0.06741677 0.08834486 0.06469796
0.07902182 -0.14755753 -0.086405694 -0.37437522 -0.07707543 -0.12486719 0.07913229 -0.048481125
-0.007341681 0.015325842 0.096295826 0.09137409 -0.13198298 -0.09684715 -0.13068978 0.08133104
-0.033963587 0.018987527 -0.081752054 -0.011822635 0.03931771 0.029610815 0.09916734 -0.0823733
-0.052538466 -0.014988763 -0.08181677 0.08306577 -0.05845248 0.06299387 -0.01199303 0.041420948
0.10394992 -0.0006144395 0.11099333 -0.03328163 -0.008813133 -0.051916514 -0.024388153 0.13192329
-0.030771287 0.051918834 -0.096737586 0.054616828 0.046493184 -0.040497936 0.007169665 0.11213365
0.0050114794 0.012319511 -0.117240705 0.04976845 0.04633606 -0.055355504 0.042498335 -0.07016385
-0.114693455 0.049890317 -0.010864909 -0.077739306 0.13348198 0.04306906 0.102803804 0.04779896
-0.04440723 -0.09826686 -0.0021890118 -0.055119496 -0.0024522108 0.048950206 0.12222585 0.08057729
-0.06312577 0.033197444 0.031812474 -0.012032626 0.06938108 0.006731221 0.09993704 -0.031018054
-0.10337102 -0.0660907 0.12611285 -0.102416664 -0.039395113 -0.10991009 0.050234746 0.024680734
0.09274837 -0.05669577 -0.035468295 -0.0960612 0.039374985 -0.055149384 -0.049099397 -0.08679672
0.010018369 0.11543063 0.095252216 0.062677726 0.07855576 -0.12463815 0.09813595 -0.040967297
0.03394102 0.059133112 -0.02751245 -0.09173869 0.05722903 -0.0796163 0.09797049 0.15207207
0.08196238 0.10035832 0.0006411442 0.1162548 -0.088564426 -0.06151095 -0.047996003 -0.12861918
0.14306112 0.09097697 0.09204323 0.13328905 -0.09744938 0.03522737 0.099970765 0.09578693
0.05670804 0.005791019 0.04444322 0.199693 0.006345601 0.12368151 0.1232579 0.004576365

lstm.bias_hh_l0 f4 [256]
00000000: 49ab dd3b c00b fe3d d337 983d a37a 783d
00000010: 1a3c bebc 354e f0bd 3097 f7bc 5378 683c
00000020: ea48 f3bd 5f21 e5bd a1f9 243d 17bd 6b3b
00000030: 3372 8a3d 1c40 59bc be7e ff3d 2f37 9e3d
00000040: 1bb3 273d ac5c 3e3d 93b0 733c 5eb0 643d
00000050: 3cc4 b23d 5268 773d 7af0 a3bd 5fd2 803d
00000060: 3904 183d 8530 9e3d af14 ed3d ec30 0abd
00000070: f73b cebb 3311 a13d 1fa5 7f3d 43ac ac3d
00000080: fbcf 033d 9d31 eabd 8186 c0bd 130b e1bd
00000090: 0e56 df3d 8122 82ba 67ad 813d 8cde 4dbd
000000a0: ce76 d43a 7494 a53d 5dff c53d 9e7b df3d
000000b0: b647 013d e004 593d cc3a 893d 18ab 2cbd
000000c0: 5c85 ee3c e485 c1bc 0ad1 99bc 6f71 1cbd
000000d0: df4b 543d 4b29 993d d028 a4bc 00e0 633b
000000e0: 4951 343c 0ff2 cc3d cadd 433a 38c9 893e
000000f0: 018f b9bc 0e32 053e 358d 933c b05a cfbd
00000100: d0c2 eab9 5ac1 4cbd 66b7 c83d 708d 893d
00000110: f2d3 f7bd 88a0 943c d5a5 553d 49d5 debd
00000120: 8001 e5bd 08cf e6bb 6d42 b63c a5ab db3b
00000130: fe25 e33d 1e38 d8bd fe87 a1bd 50b9 7dbd
00000140: 4b86 debc eb43 f7bc a89d 5e3c df3d c03d
00000150: 1693 a5bd ec49 1bbe 2725 0abe 807d fa3d
00000160: 3907 03be c145 f5bd df6e 09be 7e1c e7bc
00000170: 8773 b83c a8bc ddbd cc80 b03d 7c91 72bd
00000180: 7007 1cbe 58d4 8e3d c3a8 f9bd 4797 e53d
00000190: a582 843d 2563 033e 4ad4 b93c 499d 9a3d
000001a0: 94ec 113e c974 a4bd 3522 83bd b025 e3bd
000001b0: 0af8 913b 1d99 17bd 8ec3 ab3d f59a 01bd
000001c0: a5c4 03be 8ee2 26bd ee30 adbd 671b f6bd
000001d0: 9e72 813d 1076 8c3c 01a9 47bd 2d76 2d3d
000001e0: d1d1 57bd 6f0e 4fbd 0247 a83d d2a5 99be
000001f0: 1ea1 e7bd a2e8 6b3d 9063 d13d d681 8abd
00000200: dd7c 143d 2744 d83d a4c8 a23d 4f13 483d
00000210: 683a fd3b 292c 9a3d b4f2 61bc 0368 02be
00000220: 4fb4 3ebd e4fd 053e 3e1d d2bd 92ba 6bbd
00000230: e402 01be 8904 ecbc 375c 14bd ace8 cabc
00000240: d3ec 07bd 4d55 903d 314f 313b 18dd c43d
00000250: 19d8 213d aad2 bcbd f3dd d53a 2868 903d
00000260: 585d d73d 6090 583d a4dc 1dbd 597a 093d
00000270: 6f36 1e3d 4aee 4f3d c6d0 363d 88a6 b93c
00000280: f6b6 d3bb f07b 8ebb 6ea0 c7bc 25a6 a5bd
00000290: 58a0 7dbc 7499 efbd b832 f8bd 0020 5c3c
000002a0: 4f7f 9bbd e579 933d 8fc4 aebc 534f 8dbd
000002b0: 832f f2bc de1b 113e fa14 c3bc 7546 02bc
000002c0: 874b 03bb fef8 05be b287 833d 6168 a0bc
000002d0: d34f 3cbd 4d5a f73d c7bf 22bd 350a d6bb
000002e0: a603 9dbd 39b6 29bd 985e a0bd 41b4 ae3c
000002f0: ca21 dd3c 1cfa 3dbd a1b8 633c d780 0abe
00000300: b354 c63c 7e95 e0ba 4f31 913d a3ac ffbb
00000310: 2ec0 a8bd f7f0 833d b0d2 153e cf67 96bd
00000320: a167 ce3d ea97 4a3d a50f f03d e67e be3d
00000330: 3ade adbd ebbd d03d ac37 cb3d ebbc ab3d
00000340: 9c0f fd3d 9c3e b03d 6773 b73d c7e1 ed3d
00000350: ca3b 7dbc 4ca3 f53d ae28 fdbd 5575 e93d
00000360: 2df8 9bbd 8aa9 18bd 3d55 31bb 41ef 07bd
00000370: 45b5 813d 5369 d73d fcba b73d 6cbe a3bd
00000380: 4cc6 893b 3b30 f2bd 8b33 a93d 9340 eabd
00000390: c6d1 bbbd 29d5 87bd 4b15 a73d f42b 163e
000003a0: 46b5 2f3c 3512 113d 0ab3 2f3d 5995 1fbd
000003b0: f6ac b5bd d37b dc3d 77cb 493d 7590 d6bd
000003c0: 5272 64bd c67c c8bd 4154 aa3c 50f6 36bd
000003d0: 14c9 d03d 9cbf ab3d 53e0 98bd 65e9 72bd
000003e0: 0492 32bb 90b1 dc3c 23ea f93d d714 aa3e
000003f0: 93a9 e9bd bf21 cc3d 6910 1b3c 3789 333d
0.0067648035 0.12404585 0.074325226 0.06066383 -0.023222018 -0.11733667 -0.030223459 0.014188844
-0.11879142 -0.11188006 0.040277127 0.003597086 0.06760063 -0.013259914 0.12475346 0.07725369
0.040942293 0.046475098 0.014873642 0.05583226 0.08728835 0.060402222 -0.08004852 0.06290125
0.037113402 0.07724098 0.11576211 -0.03373806 -0.0062937695 0.078646086 0.06241333 0.08431294
0.032180768 -0.11435244 -0.094006546 -0.1098844 0.109050855 -0.0009928496 0.06331902 -0.050261065
0.0016209723 0.08084956 0.09667847 0.1091225 0.03156253 0.052983165 0.06700668 -0.042155355
0.029116325 -0.023623414 -0.018776435 -0.038194116 0.05183017 0.07478579 -0.020038992 0.0034770966
0.011005708 0.100071065 0.0007471709 0.2691133 -0.022651197 0.13007376 0.018011669 -0.10124719
-0.00044777105 -0.049989082 0.098006055 0.0671643 -0.12100972 0.018142954 0.052160103 -0.10880525
-0.11181927 -0.007043723 0.022248471 0.006703811 0.11091231 -0.105575785 -0.078872666 -0.061944306
-0.027163645 -0.030183753 0.013587393 0.09386801 -0.08084695 -0.15164918 -0.13490735 0.122309685
-0.12795724 -0.11976195 -0.134212 -0.028211828 0.022516025 -0.10826999 0.08618316 -0.059220776
-0.15237212 0.06974095 -0.12190392 0.112104945 0.06470231 0.1283079 0.022684235 0.07549531
0.14250404 -0.080300875 -0.06403009 -0.11091173 0.0044546174 -0.037011255 0.083869085 -0.03164192
-0.12867983 -0.040743403 -0.08456598 -0.12016945 0.063206896 0.01714614 -0.04874516 0.04234903
-0.05269033 -0.050550874 0.08216669 -0.30009323 -0.113100275 0.057594903 0.10224068 -0.067630455
0.03625189 0.10559874 0.079484254 0.04884654 0.00772791 0.07527954 -0.013790775 -0.1273499
-0.046558674 0.13085133 -0.10259484 -0.057550974 -0.12598759 -0.028810756 -0.036220755 -0.02476915
-0.033184838 0.0704752 0.0027055258 0.09612483 0.039512727 -0.092198685 0.0016316756 0.07051116
0.10515851 0.05287206 -0.038540497 0.033563945 0.03862613 0.05076436 0.044632696 0.022662416
-0.0064610196 -0.0043482706 -0.024368491 -0.0808833 -0.015480123 -0.11699191 -0.12119049 0.013435364
-0.075926416 0.07200984 -0.02133396 -0.068998955 -0.029563671 0.14170787 -0.023813713 -0.007951369
-0.0020034031 -0.13083264 0.06422366 -0.019581022 -0.045974564 0.120777704 -0.039733674 -0.0065319785
-0.076667115 -0.041433547 -0.07830542 0.021326186 0.026993651 -0.0463811 0.013898999 -0.13525711
0.02421031 -0.0017134396 0.07089483 -0.0078025623 -0.0823978 0.06442445 0.14631152 -0.07344019
0.100783594 0.049461283 0.11721734 0.09301548 -0.08489652 0.10192474 0.09922728 0.083856426
0.12356493 0.08605692 0.08957558 0.11615329 -0.015456149 0.11994037 -0.12361275 0.113993324
-0.07615695 -0.03727106 -0.0027058863 -0.033187155 0.063334025 0.10518136 0.08971211 -0.079953045
0.004204547 -0.118256055 0.08261784 -0.11438098 -0.091708705 -0.06632454 0.08158358 0.14665204
0.010724371 0.035417754 0.042895354 -0.03896079 -0.0887088 0.10765805 0.049266305 -0.10476772
-0.055773087 -0.09789424 0.020792129 -0.044668496 0.101946026 0.08386156 -0.074646614 -0.059304614
-0.0027247677 0.026940137 0.12202861 0.33219025 -0.11409297 0.09967374 0.009464362 0.04383203

lstm.weight_ih_l1 f4 [256, 64]
00000000: a2fa 943d 7164 273b cf4d b0bd 9dff 46be
00000010: f278 bd3d 0215 d4bd 2e30 413e 5c47 fb3c
00000020: bcdb e9bd 2dfc 1f3d bee6 db3b 082a d43c
00000030: 8b6a d0bc 42f5 bfbd 5ad4 3b3d 402a c0bd
00000040: 2cd6 d3bd 1541 d13d 0e62 b93d a20c d2bd
00000050: 72eb 153d e6e3 e2bc c779 c6bd 3140 6bbd
00000060: c900 9dbd 7357 d73b dff4 223d 181a 9ebd
00000070: be5b 49bc 6172 31bd 5b98 8d3b 4afa 893d
00000080: dfdf c53c ca36 4b3d d5e5 023e c123 f53d
00000090: 9cd1 7b3c a5c8 9f3c 4304 5abd 1da3 95bb
000000a0: f52d 273d 9b44 2ebb 070d cd3d 7bb2 dc3b
000000b0: 0de5 83bd c7a6 d03d e427 3e3d a51e 31bd
000000c0: ffe5 96bc c957 d6bd 49a5 c23d 1ab6 0f3d
000000d0: bc25 353c 1915 9c3d 5b4d 6a3c 483c cbbd
000000e0: 331b febd 253b 293d 9abc 853d c7d7 9dbb
000000f0: 5360 c73d 4699 593d 4cf7 ca3c 5a1e 17bd
00000100: fdc5 fabd 6b74 f6bc a766 bb3d 9d98 0bbe
00000110: 256c c8bd 6215 be3c be89 8f3d 5bff 8fbc
00000120: f163 d63c d967 67bd 307d f33d c448 203d
00000130: 6a29 58bd 26c8 c13b 20d9 dabd 894f e1bc
00000140: 4ab3 2bbd 60af b53c e085 db3d b0f9 0bbe
00000150: 370d bdba ca80 853d e1dc 91bd a39c a3bd
00000160: 84f7 a8bd 58e1 403d fffa e5bc 61f0 ae3d
00000170: 89b8 1abe 88a1 35bd 1338 683d fe37 513d
00000180: 7577 3b3b 19bc 633d c4ee e13d c0ed a1bd
00000190: 0eb6 1f3d d207 823b 69ed 8abd ed75 d23d
000001a0: 5db5 0abe 368d b5bd 967e bbbd a1a4 723d
000001b0: 8626 adbc b03c c1bd b96f 9ebd 9eb2 893d
000001c0: 2388 25bd d87d 5cbc 9232 89bc 1311 763d
000001d0: 9af5 a33d e6f2 e73c 9de2 0f3b b6a4 593c
000001e0: b521 bf3c ae0e aebc 213c df3b 12b1 c03d
000001f0: 5241 cd3b 7d40 ca3d 66e3 d4bd 3f2d 233d
00000200: 40e1 e6bd f86e 51bc 4228 ec3d 39c6 ffbd
00000210: 648f 5fbd a80c aabd 0dd8 b5bd f6a2 8e3c
00000220: 2bb1 5fbd 3e64 a63d a65f 0abc 07cd 09bd
00000230: b0ad e7bd 4a4c ef3d 2e5b d83d 4f38 d13d
00000240: 6335 2c3d 46a6 0bbd b429 033d 9f7d ad3c
00000250: b9a1 3abd db89 2dbc bd2b 323b 19fe 733d
00000260: 6a81 17be e070 89bd c293 d0bc af12 713a
00000270: d915 5f3d 3fc1 d7bc d695 b9bd f39d debd
00000280: a362 20bd 6f44 f53d 1f4b b73d 0004 8fbc
00000290: 4896 69bd 75fc 9a3d 525d 353d 9d9f 89bd
000002a0: f750 f2bd 2fa9 ebbd 2b11 a33d f492 a3bd
000002b0: c714 803d a006 8bbc 36eb 783d 6aa5 1ebc
000002c0: c4c7 e8bd c6ba bdbd 08cb 773d 2877 c63d
000002d0: 16ee 00be b599 b8bd b238 db3d ca42 1bbd
000002e0: 6fd6 b13c da0d 083e fd3a be3d f8ff 1f3d
000002f0: 0ef7 cdbd 94cc 05bd 7266 aabd 12b5 7b3d
00000300: 48dc f2bd 1c7e 823d e8a5 49bd afdc 12bd
00000310: 5cc2 86bd 6dbb 7e3d 7b37 d1bc 1976 d1bd
00000320: e94e fe3d 3a0a 403c e5e0 ba3d 4848 163e
00000330: 7f49 a53d af62 d53c c840 46bd 0b80 81bd
00000340: b29e e53d 9c2d b73c ac11 9bbd 5adc 7f3d
00000350: b811 74bc 95bc 3bbd 59e8 1ebd 441a 82bd
00000360: 6069 8dbd ebdd 0abe 2437 2c3e 7f25 aabd
00000370: e859 dfbd d510 27bd 4c0f eeba b07e adbd
00000380: b4bd e43c c914 d5bd 082b 9ebd 0e10 52bd
00000390: 253c 9bbd 8e8d 97bc 3f4e 89bc cafb 843d
000003a0: 44a7 793d 49dc 52bd edd9 91bd d27b c83d
000003b0: 85e0 3c3d 0ae8 c2bd 7814 a73c c669 7dbd
000003c0: ad6c 023d aab8 debd f362 debc 3a04 1fbd
000003d0: 1dbf da3d 9bb8 003d 5f35 d7bd a820 3d3c
000003e0: 021a 4e3d 7d84 053e 8692 8d3d 522d 553c
000003f0: 7a37 80bc 4cfa 903d 02f0 c8bd 07db 9ebd
0.07274367 0.0025542045 -0.08608591 -0.19433446 0.09251584 -0.103555694 0.18866035 0.030673675
-0.11418864 0.039058853 0.006710856 0.025898948 -0.025441429 -0.09372951 0.04585681 -0.093830585
-0.103435844 0.102174915 0.090519056 -0.10256316 0.03660149 -0.027696561 -0.09691196 -0.057434265
-0.076661654 0.006571704 0.03978431 -0.07719821 -0.012289939 -0.04332197 0.0043211407 0.06737192
0.024154602 0.049612798 0.12782986 0.1196971 0.015369799 0.019504854 -0.05322672 -0.0045665638
0.040815312 -0.0026591185 0.100122504 0.0067351437 -0.06440172 0.1018806 0.04642476 -0.043242116
-0.018420218 -0.104659624 0.09504182 0.035085775 0.01105636 0.076212116 0.01430067 -0.09923607
-0.124075316 0.04131617 0.065301135 -0.0048169824 0.09735169 0.05312469 0.024776123 -0.03689418
-0.122447945 -0.03008481 0.09150439 -0.13632436 -0.09786252 0.023203555 0.07008694 -0.017577818
0.026170703 -0.05649552 0.11889112 0.039131895 -0.05277387 0.005913752 -0.106859446 -0.027503746
-0.04191903 0.022178352 0.10718894 -0.13669467 -0.0014423494 0.06518705 -0.071222074 -0.079888605
-0.08250335 0.047089905 -0.028073786 0.085419424 -0.15109457 -0.0443435 0.0566941 0.05107879
0.0028605137 0.055599306 0.11031869 -0.07906675 0.03899198 0.0039682174 -0.06783564 0.10276399
-0.13545747 -0.088648245 -0.09155004 0.059239034 -0.021136533 -0.09435403 -0.07736153 0.06723522
-0.040413033 -0.013457738 -0.016747747 0.060074877 0.08005829 0.028314065 0.002195514 0.013283899
0.023331502 -0.021247234 0.006812588 0.094087735 0.0062638903 0.098755814 -0.10394935 0.039838072
-0.11273432 -0.012782805 0.11531116 -0.1248898 -0.054580107 -0.08303195 -0.08879099 0.01741169
-0.05461232 0.081245884 -0.008445656 -0.033642795 -0.11312425 0.11684473 0.10564266 0.10215818
0.0420431 -0.034094118 0.032022193 0.021178065 -0.045564387 -0.010591949 0.0027186715 0.0595685
-0.14795461 -0.06710982 -0.025461081 0.00091962045 0.054464195 -0.026337264 -0.09061782 -0.1086997
-0.039156567 0.11975943 0.08949875 -0.017457962 -0.057028085 0.075676836 0.04427845 -0.06719897
-0.11831849 -0.115068786 0.07962259 -0.079870135 0.06253963 -0.016970932 0.06077119 -0.0096829925
-0.11366227 -0.0926414 0.06049636 0.09690696 -0.12590823 -0.09013692 0.10704173 -0.037905492
0.021708695 0.13286534 0.09288595 0.03906247 -0.100568876 -0.032665804 -0.08320321 0.06145198
-0.118584216 0.0637171 -0.049230486 -0.03585499 -0.0658004 0.062190462 -0.02553915 -0.102276035
0.12417395 0.011721188 0.091249265 0.1467601 0.08070659 0.026048033 -0.048401624 -0.063232504
0.11211909 0.022360615 -0.0757173 0.062466003 -0.014896803 -0.045834143 -0.038795803 -0.06352666
-0.06904864 -0.13561217 0.1681791 -0.08307933 -0.1090582 -0.040787537 -0.0018162518 -0.08471429
0.027922489 -0.10404355 -0.07723051 -0.051284842 -0.07579831 -0.018500116 -0.016760943 0.064933375
0.060950533 -0.05147961 -0.07121644 0.09789242 0.046112556 -0.09516914 0.020395502 -0.06186845
0.031841923 -0.108750656 -0.027146792 -0.03882239 0.10680983 0.031426053 -0.105082266 0.01154343
0.05031777 0.13038822 0.06912713 0.0130112935 -0.015651453 0.0707899 -0.09811403 -0.0775662

lstm.weight_hh_l1 f4 [256, 64]
00000000: 4a3d 393d 07d7 f5bb d753 63bd e6ab fe3b
00000010: c96a f0bd 18e9 973d 93ba 6d3c 242d 85bd
00000020: cc7f 553d 301a ee3d 75e0 f03d 49a4 ddbd
00000030: f42e 25bc 8811 e9bb 55cb 0e3d bb5c 84bd
00000040: 20d2 8d3d 3f00 8f3d 58c9 873d 9d44 2ebd
00000050: 9067 263c 237a 633d 1438 eabd 256a 5b3c
00000060: 62e8 8d3d 33b1 ae3d 9d94 633b 7b5a e33d
00000070: 2f2a e53c e51b 453d a769 803d 48af 803c
00000080: be31 273d 48b6 193d 1efc b0bc e51d 8bbd
00000090: 4b44 a0bd a0b8 a83c 8969 aebd d6b2 0fbc
000000a0: 850f 8a3c 07ea ae3d 5148 8ebd 5d52 ce3d
000000b0: 8d78 503d efb5 66bd 93ff e9bd 0bf4 9f3b
000000c0: b0ab c53c 80ab 913d 9084 afbd 1628 af3d
000000d0: 6d83 87bd 8ff5 d5bb 1174 c9bd a0bd c4bd
000000e0: 8494 91bd 3c77 a03c 1fe1 033e a161 d43d
000000f0: 7881 07be cc2d f9bd 43de eebd a0e4 c0bd
00000100: 0ea6 72bd 017e 6c3d df21 d13d 91be 3d3d
00000110: 0608 ec3d 3ef3 b23d 047b c23d 686a 86bd
00000120: 898f e1bd 086c 493b f703 0c3d a9a1 0fbd
00000130: 3a7e 15bd 77cd b9bc c8a0 6b3d 07a9 5fbc
00000140: 5aca cfbd 2fbf 863d edb6 7fbd 4b81 bf3d
00000150: c49f 93bd 85ce b03c 964d 92bd 4578 8f3d
00000160: a619 cebd f127 de3d 2857 d73d 58a8 e5bc
00000170: 142c 233d 04d8 353d d9a9 99bd 1160 163c
00000180: 6789 a6bd d3b4 fa3d ddfe f0bd ab07 513d
00000190: ba51 cc3b 44ca ad3d fb38 b83d d3af bbbc
000001a0: 4e6c de3d 1623 94bd 992b c8bd fa88 a7bd
000001b0: 3cad e6bd 2c35 c93d a745 cabd 0256 413d
000001c0: 092d 97bd fff0 95bd 741e b7bd 1c9a 0abd
000001d0: 0721 16bd af4d c83c 0717 ab3d 9278 22bd
000001e0: c924 7cbb 9788 023e d5b9 723c cc18 47bd
000001f0: 7382 d4bd 271c 11be 6764 7fbd d00c 003d
00000200: cd0a be3d a95d 0fbd 6d0d fcbd bb85 d4bd
00000210: 451f b7bd e050 fa3d 002b 0c3e dac2 af3c
00000220: 98f4 86bd 268a 2a3d a4e1 a4bb 5506 eabc
00000230: 21d3 8d3d 7195 9e3d 7116 d4bc 06fe 90bd
00000240: 5f2b c2bd 09fc 413d e90c 84bd 1d57 503d
00000250: 5a11 df3c 04be 95bd 83ff 963d b8f7 79bd
00000260: 06cf d4bd 49aa 99bd 8618 b7bd c274 bebc
00000270: 08c8 55bd 6d59 3d3d 9367 18bd b6dc c63c
00000280: d166 263d 80d8 073e 8356 7d3d 8e15 143d
00000290: b467 53bd 4334 4dbd ecb0 923d 4b1f bebd
000002a0: 28d2 833d 4d35 65bd eb50 843d 4b20 003d
000002b0: d359 c8bd 2317 cabd c235 6f3c 4dac 2f3d
000002c0: 72c8 ad3d 0c8f c53d e8a2 903d 4edb 073e
000002d0: ab38 f5bc 6f1c d7bd e709 4bbd 96a3 bd3d
000002e0: 4f12 8fbd 4bf1 133e df06 dbbd 78cc c4bc
000002f0: 4319 863d 5485 673d 0c72 803c 9e67 733d
00000300: 6810 9d3d 37f3 d43c 88e1 493c 3a09 c33d
00000310: 6e04 0a3d dba1 29bd 04bd 153d 6d70 993d
00000320: 75e3 b13d c94f a5bd d514 063d a3d1 1c3d
00000330: 1647 a4bd 9693 eabc 88e5 fa39 5558 8d3d
00000340: 9ac5 8a3d a682 48bc 91e1 e33b 2d63 6abd
00000350: f64d cb3d 3309 c2bc 5afa b4bd f461 e7bd
00000360: eabb 6a3d 2d21 acbd 3889 10be 333b debd
00000370: ca5e 7fbd 9fd2 4bbc 652c 8abd b536 1ebd
00000380: 6b8d 0aba 8650 8d3d fc0c 93bd 0ceb 15bd
00000390: 5085 053e 5ebc 09be 7b52 883d d193 a43d
000003a0: 78ec 8dbd 2223 b2bd 802a 883d 9fcc a73c
000003b0: 20b0 b33d 5f13 c9bd 5843 3ebb e394 9d3b
000003c0: af95 583d 32af 03be c6c9 da3d 755d 98bc
000003d0: e39f ed3d 3e83 0f3e 8fcd 1d3d 4cc6 b4bd
000003e0: d972 a9bd 5c80 cb3d f889 2d3d 60dc a9bd
000003f0: a2dc 9abd 61a6 a73d 9698 d6bd a317 6cbd
0.045224465 -0.00750244 -0.055499878 0.0077719567 -0.11739118 0.07417506 0.014509815 -0.065027505
0.05212383 0.116260886 0.11761562 -0.108223505 -0.010081995 -0.0071126856 0.03486188 -0.064629994
0.06924844 0.06982469 0.066302 -0.042545903 0.010156527 0.0555364 -0.11436477 0.013392006
0.06929089 0.08529892 0.0034726032 0.11101242 0.027974216 0.048122305 0.062701516 0.01570858
0.040818922 0.037527353 -0.021604594 -0.06792811 -0.07825526 0.020595849 -0.08516223 -0.008770665
0.016853103 0.08540731 -0.06947387 0.10074303 0.050896216 -0.05632585 -0.114257 0.004881387
0.024129719 0.07112789 -0.08570206 0.08552568 -0.06616864 -0.006529517 -0.09836591 -0.096064806
-0.07108405 0.019588105 0.12878846 0.10370184 -0.13232982 -0.12166938 -0.11663487 -0.09418607
-0.059240393 0.057737354 0.102115385 0.046324316 0.11524968 0.08737801 0.094961196 -0.06563264
-0.11013705 0.0030734558 0.03418347 -0.03506628 -0.036497332 -0.022680981 0.05752638 -0.013651139
-0.101460174 0.06579434 -0.06243031 0.093508326 -0.07208207 0.021582851 -0.071437046 0.070053615
-0.10063486 0.10847462 0.105146706 -0.028034374 0.039836958 0.04439546 -0.07503099 0.009178177
-0.08131676 0.12241521 -0.11767361 0.051032703 0.0062353285 0.08485845 0.08995243 -0.022910988
0.10860501 -0.072332546 -0.097739406 -0.08180423 -0.112635106 0.09824595 -0.098765664 0.047201164
-0.07381637 -0.07321357 -0.08941355 -0.033838376 -0.03665259 0.024451105 0.083540015 -0.039665766
-0.0038474074 0.12747417 0.014814814 -0.048607633 -0.10376444 -0.14170896 -0.06235161 0.03126222
0.09279404 -0.03500143 -0.12307248 -0.103770696 -0.08941511 0.12222457 0.13688278 0.021455217
-0.06589621 0.041635655 -0.0050317813 -0.028567472 0.06925035 0.077433474 -0.025889607 -0.07079701
-0.09480929 0.0473595 -0.06447775 0.050864328 0.027229954 -0.07311633 0.07372954 -0.06102726
-0.10391049 -0.075031824 -0.08940224 -0.023249034 -0.052192718 0.04622786 -0.03720815 0.024275165
0.040625397 0.13266182 0.061850082 0.03615337 -0.05161257 -0.05009867 0.071626514 -0.092833124
0.064365685 -0.055959035 0.064607464 0.031280797 -0.097827576 -0.09867694 0.014600219 0.04288893
0.084854975 0.09646425 0.07062322 0.13267252 -0.029934248 -0.1050347 -0.04956999 0.09259717
-0.06985914 0.14447515 -0.1069467 -0.02402328 0.06547787 0.056523636 0.015679382 0.05942499
0.07669145 0.02599488 0.012321837 0.09523244 0.03369563 -0.041414123 0.036557212 0.07492147
0.08685962 -0.080718584 0.03273471 0.038285863 -0.08021371 -0.028634828 0.0004785473 0.069016136
0.06775971 -0.01223818 0.00695438 -0.057223488 0.09926979 -0.023686027 -0.08836813 -0.1129798
0.057308115 -0.08404765 -0.14114845 -0.10851135 -0.062346257 -0.012440353 -0.06746749 -0.03862639
-0.0005285355 0.06900124 -0.07180211 -0.03660111 0.13039136 -0.13450763 0.06656357 0.08036006
-0.069298685 -0.08698107 0.06648731 0.020483313 0.087738276 -0.09818148 -0.002903184 0.0048090084
0.052877124 -0.128598 0.106830165 -0.018599251 0.116027616 0.14014909 0.038526114 -0.088268846
-0.082738586 0.09936592 0.042367905 -0.08293986 -0.075616136 0.08186031 -0.10478322 -0.05763973

lstm.bias_ih_l1 f4 [256]
00000000: 124a 06be 4256 d13c f149 6bbd 7919 09be
00000010: 4b58 b23d f5bc 913d 812f 45bc 5547 bebd
00000020: 7853 aebd e87a ae3c 1d7b e73c f24f 6f3d
00000030: 3fea f63d ab0d 773d 225c b8bd 0027 d13c
00000040: d4e0 eebd 0793 693d 93b7 80bd d092 abbd
00000050: 20c4 033e ee6b 8b3d feb7 e53d 61d6 c53d
00000060: 0691 aa3d c76b 033e f683 10bd 387a e8bb
00000070: b871 383c fdce ffbb 1c29 0d3e 3355 dbbd
00000080: 84d4 673b fb05 c83c 6db9 3c3d b804 033e
00000090: bdfd a23d 3128 b7bd 1acb 293d 6edf 1fbd
000000a0: 0a7b b43d 8f1e b8bc cf1c 9d3d 2d27 1c3d
000000b0: 8ea5 493d 048a b63d 8df0 0fbe 969f bd3c
000000c0: 8c7a 8c3c e6a6 e2bd 62ae d33c 9968 5abc
000000d0: 687a e23b bc16 2c3d 2dff b73d 575e b5bd
000000e0: 89a5 95bd 32cc 16bd 5606 c43c f52d fcbd
000000f0: 2ca6 063e de37 0fbe 1f14 943d a24d c0bd
00000100: f207 4e3b b3e9 933d cbc6 03be a894 173d
00000110: c571 c33d 55fc 47bd b480 94bb a291 4c3c
00000120: 4209 9d3d 35dd 953d 6349 69bd 73ca 9b3d
00000130: 2288 473c 07bb dcbd 6734 7f3d 922b cb3d
00000140: e902 883d 715c e9bc e87d e23c 9a32 92bc
00000150: 12af b9bd 43db e73d c2b8 053d 9ddb 23bc
00000160: 7309 f13d a441 9e3d c0fd 8cbd b043 273d
00000170: 988c f0bc 8240 1ebe d025 083c e3fd fa3c
00000180: e9ce bdbc 9ead e93d 2cee 523d 3a3f 1d3d
00000190: 511f e2bb aaac 07bd 6b53 29bd 0194 6cbd
000001a0: c26d 903b 2cf8 213d 2d59 953d 3a8c 2abd
000001b0: e13d 5bbd 220a e5bd ebc1 0dbe 8f9c ea3c
000001c0: 12a1 2a3d 6d94 683d 4c74 fdbd e89e a53d
000001d0: b788 9abb 636c ca3c 49c2 b23d 6ed0 c83d
000001e0: 4481 0cbc 7d26 d83d 9af9 ee3d 29b3 dabd
000001f0: 455f a9bd be18 9cbd 2074 a6bd 26fc acbd
00000200: 9e19 3bbd 1012 9b3d 0f6d 2abc 8b4d a0bd
00000210: ec7d 413d 7417 9dbd a21d eebb 927d e6bd
00000220: 5c55 873d 0555 aabd 1be5 d8bd 941e c43c
00000230: 1b01 1bbd e441 b13d 734a afbc 74d0 88bd
00000240: 9ebb a93d 9b44 a0bd 58c6 373d 6423 263c
00000250: daf3 48bd 985a 03bd 8e69 9b3c 81a1 353d
00000260: df1f 5bbd 3d1f 663d b1ba e23d d86b de3c
00000270: 3fdf ca3c 05f7 c83d 2abf 72bd 5fa2 5c3d
00000280: afd8 0fbe 689d 223c de41 0b3b a038 06be
00000290: f5e5 0d3c 8bf8 2d3d 55a8 a03d 9b20 f83d
000002a0: b111 223b 95a5 8fbc 4f6d a2bd 9e8d 963c
000002b0: 5a4b 133c 1be9 873d 29a1 9c3d c019 143d
000002c0: bbc3 3bbc 807b efbc 5937 d0bd a97b c0bd
000002d0: 9330 73bc fa89 bebd 69c0 d23d 55e4 df3d
000002e0: a932 d63c 2778 9a3d b52e 84bd 0d7f 11bd
000002f0: 2c61 ba3d e81e b0bd 45be e5bc 0428 293d
00000300: d370 b6bd 59fd 743d 9d24 e7bd 1cb1 af3d
00000310: cc6a 00be 479b 823c f06f bc3d 3bdf 7cbd
00000320: 21e9 6e3d 9358 d3bd 8d2c 66bb 5ce9 8fbd
00000330: 7dc4 be3c 97be fd3d aaef 23bd 7a0d 9ebd
00000340: 239f 5f3c 248f 17bd f7ec 583d 1453 92bd
00000350: b932 523c 2e67 efbd 8c72 d8bc e994 b7bd
00000360: e6b1 fbbc 6225 143e 3723 29bd dd83 ffbd
00000370: 85bb b43d 4d81 11bd 57c8 a6bd c953 893d
00000380: 90c7 e53d 84da 00be 5d94 493d 1836 d33d
00000390: 846f f3bd 9194 c3bc b5ab 593d 756b cabc
000003a0: ed7c d1bd 3150 403d bf28 44bd fcd3 aebc
000003b0: b45d 0dbe 6230 d8bc 25ed 9ebd 0330 b6bd
000003c0: a2fa fb3c e8db 0dbe eee4 e13d c9ce 43bd
000003d0: 7964 d33d 3f90 67bd 060b f13a 6448 75bd
000003e0: b838 7abd 8dad e33d 78a4 b23d 5adc babd
000003f0: e3e1 9fbd d872 84bc d426 71bd 4950 ec3d
-0.13114193 0.025553826 -0.057443563 -0.13388623 0.08708247 0.07116119 -0.012035252 -0.09290949
-0.08512014 0.02129884 0.028256947 0.05842585 0.12056398 0.06031577 -0.09001948 0.025531292
-0.11663976 0.05702498 -0.06285014 -0.08377612 0.12867785 0.06807695 0.11216734 0.0966003
0.08328442 0.12834083 -0.035282098 -0.0070946477 0.011257581 -0.0078066573 0.13785213 -0.1070961
0.0035374472 0.024416914 0.046075273 0.12794769 0.07958553 -0.08943213 0.04145346 -0.03903144
0.0881253 -0.022475509 0.076715104 0.0381233 0.04923015 0.08913043 -0.14056607 0.023147386
0.017148279 -0.110669896 0.025839988 -0.013330602 0.0069115646 0.04201387 0.08984218 -0.088558845
-0.07306964 -0.03681583 0.023928802 -0.12313453 0.13149327 -0.13986155 0.072304 -0.09389807
0.0031437841 0.07222309 -0.12868802 0.037007004 0.09543184 -0.048824627 -0.004531944 0.012485893
0.076677814 0.073175825 -0.056954753 0.076069735 0.012178453 -0.1077786 0.062305834 0.0992042
0.0664118 -0.028486462 0.027647927 -0.017846394 -0.09066595 0.11321118 0.032646902 -0.01000109
0.117693804 0.07727364 -0.068843365 0.040836036 -0.029363915 -0.15454295 0.008309796 0.03063864
-0.023169952 0.11410068 0.05149667 0.038390376 -0.006900706 -0.03312365 -0.04133932 -0.057758335
0.0044076154 0.039543316 0.072923996 -0.041637637 -0.05352581 -0.11183573 -0.13843505 0.028639106
0.041657515 0.056782175 -0.123756975 0.080869496 -0.0047160047 0.024709886 0.08728463 0.0980538
-0.008575741 0.10554216 0.116687015 -0.10678703 -0.08270124 -0.07621907 -0.08127618 -0.08446531
-0.045678727 0.075718045 -0.010401978 -0.0782729 0.04723923 -0.07670489 -0.007266716 -0.112544194
0.06608078 -0.083169974 -0.105905734 0.023940362 -0.03784285 0.08655146 -0.021397805 -0.06680384
0.08287738 -0.078255855 0.04486689 0.010140274 -0.04906068 -0.03206882 0.01897123 0.044343475
-0.05349719 0.056182135 0.11070765 0.027151033 0.024764655 0.0981274 -0.05926434 0.053865787
-0.14047502 0.009925224 0.0021248977 -0.13107538 0.008660783 0.042473357 0.07844607 0.12115594
0.0024729783 -0.01753501 -0.07931005 0.018378075 0.008990133 0.06636258 0.07647926 0.03615737
-0.01146024 -0.029233694 -0.10166807 -0.09398586 -0.014843124 -0.09303661 0.102906056 0.10932223
0.026147204 0.075424485 -0.06454221 -0.035521556 0.09100565 -0.08599645 -0.02804483 0.041297927
-0.08908238 0.059811924 -0.1128628 0.08578703 -0.1254074 0.015943183 0.09201038 -0.061736327
0.058327798 -0.103196286 -0.003512177 -0.07026932 0.023287052 0.12389868 -0.040023483 -0.07717414
0.013648781 -0.037001744 0.052960362 -0.07144752 0.012829476 -0.11689602 -0.026421808 -0.08963949
-0.030724477 0.14467385 -0.04129335 -0.12476323 0.08824829 -0.0355237 -0.081436805 0.06705434
0.11219704 -0.12583357 0.049213756 0.10313052 -0.11886504 -0.023874553 0.05314227 -0.024709443
-0.10228906 0.046951476 -0.04789042 -0.021341316 -0.13805276 -0.026390258 -0.077600755 -0.08895876
0.03075916 -0.13853419 0.11029993 -0.047804628 0.10321898 -0.05653405 0.0018390126 -0.05988349
-0.061089247 0.111170866 0.08722776 -0.0912406 -0.07806756 -0.016168043 -0.05887492 0.11538751
