models/GRU_bbva3.pt (torch, 232303 bytes, 11 tensors)

lstm.weight_ih_l0 f4 [256, 11]
-0.05527837 -0.08457808 -0.064604156 0.024921356 -0.083636016 0.46315604 0.015937412 0.13660629
0.060425833 0.10052582 -0.10641582 0.12587248 0.11713264 -0.016895682 0.03105106 -0.028686475
0.28605005 0.075150564 0.13302658 -0.08068979 0.13917908 -0.12648854 0.021845007 0.04840468
-0.11469261 -0.17856507 0.012753999 -0.58271134 0.098540336 -0.074757114 -0.03825204 0.076345444
-0.10231098 0.040718224 0.12537375 -0.005388825 0.07592808 -0.0063314033 0.49540246 -0.043995608
0.1412247 -0.09825451 -0.08107383 -0.14247134 0.040193528 -0.018490914 -0.029538082 -0.019963471
-0.079047464 0.35996827 -0.03065292 0.00026473717 0.005118936 0.11618405 -0.008715503 -0.058228448
0.13513009 -0.04255326 -0.09024787 0.040175226 0.72391576 -0.081122346 0.034251034 -0.06410734
0.10591702 -0.17738532 -0.048836578 -0.062404394 -0.014545809 -0.009067487 0.10544757 0.5392317
0.070614904 0.10421407 0.00863859 -0.112885796 -0.039353427 -0.026854305 0.08611054 -0.01524938
-0.16534041 -0.06698379 0.8170519 -0.021304308 0.036243934 0.07581316 -0.01099686 -0.031106576
0.097411685 -0.08015109 0.06429772 -0.2058906 0.06408625 0.97915477 0.012339161 -0.027359866
0.06759205 -0.051792473 -0.021066386 0.01773096 0.026391752 0.20470895 0.1476864 -0.017945241
0.69309175 0.17374548 0.06763435 -0.14157544 0.30227208 -0.20389873 0.07838339 0.017160734
0.0071881562 -0.07355935 -0.10183196 0.48477343 0.029961335 -0.121654324 0.07965971 0.005935372
0.05801236 -0.07693891 -0.07050106 0.035743173 -0.07704645 -0.03281478 0.50459903 -0.07226751
-0.096537426 -0.011375887 0.029035602 0.009394847 0.09362945 0.020643637 0.08999304 -0.10624951
-0.037718076 0.42797363 -0.008669802 0.10673518 -0.0905249 0.033132687 0.033861175 0.039240014
0.09722074 0.040066 -0.05375932 -0.0075898333 0.39621428 0.011441166 -0.028899284 0.083398074
0.13394938 -0.08249218 0.13637245 -0.03048037 0.14121051 0.10759239 -0.06451425 0.502123
0.009766227 0.018398281 -0.009420991 0.2890317 -0.114666484 0.034074575 -0.039308008 0.184532
0.07148187 -0.054644223 0.14426385 0.1777945 0.03828136 0.11735287 0.2563431 -0.08235107
0.0053933132 0.15395884 -0.07133267 -0.19822091 0.0578685 0.44989103 0.060110975 0.0822554
-0.026933739 0.19198588 -0.03626433 0.09697602 0.04695265 -0.024220755 0.09626184 0.056325324
0.7649447 0.006476387 0.03373966 -0.15370595 0.103935756 0.029938325 0.1010411 0.1614678
0.16595225 0.05008264 -0.014949715 1.1244261 -0.03463301 -0.060121026 0.029710447 0.10288778
-0.024951877 0.10518335 -0.040075198 -0.053496 -0.017322939 -0.03533376 0.43249336 0.116030544
0.11881085 0.07824253 0.149996 0.012862631 0.0782822 -0.043909222 0.06849317 -0.06279505
0.032567896 -0.66217124 0.08863547 0.13322274 -0.11398233 0.2820815 0.024426203 0.18265939
0.091236874 0.14585392 -0.12763073 -0.0916718 0.3892493 0.007936808 -0.068846904 -0.01308596
0.0769837 -0.009442472 -0.28410408 -0.11656411 -0.19312859 0.13296019 -0.18481012 -0.12765577
-0.31691957 -0.02062077 0.07059833 -0.054508675 0.12166296 0.13189076 -0.06913628 -0.106290095
00000000: 926b 62bd 4637 adbd 2f4f 84bd df27 cc3c
00000010: 5c49 abbd ca22 ed3e 2d8f 823c 85e2 0b3e
00000020: 1481 773d 7be0 cd3d 8af0 d9bd b7e4 003e
00000030: 3de3 ef3d d068 8abc cb5e fe3c e6ff eabc
00000040: 2775 923e 8ae8 993d 1f38 083e b040 a5bd
00000050: f684 0e3e 3686 01be 4df4 b23c fc43 463d
00000060: f6e3 eabd c3d9 36be 26f6 503c 922c 15bf
00000070: 84cf c93d 421a 99bd 2cae 1cbd 005b 9c3d
00000080: 6b88 d1bd 27c8 263d fa61 003e be94 b0bb
00000090: 2e80 9b3d a977 cfbb 64a5 fd3e bd34 34bd
000000a0: 359d 103e a939 c9bd 090a a6bd 02e4 11be
000000b0: f8a1 243d 427a 97bc d9f9 f1bc 6f8a a3bc
000000c0: a3e3 a1bd c34d b83e d51b fbbc 6ccc 8a39
000000d0: bfbc a73b e7f1 ed3d 78cb 0ebc f480 6ebd
000000e0: 8b5f 0a3e 544c 2ebd e0d3 b8bd c78e 243d
000000f0: 8b52 393f 7923 a6bd d04a 0c3d b64a 83bd
00000100: 06eb d83d 7fa4 35be dd08 48bd c09b 7fbd
00000110: 8b51 6ebc cc8f 14bc e5f4 d73d 170b 0a3f
00000120: 8c9e 903d 306e d53d df88 0d3c ab30 e7bd
00000130: 0f31 21bd 8ffd dbbc b95a b03d 89d8 79bc
00000140: ff4e 29be cc2e 89bd 502a 513f 5f86 aebc
00000150: 8574 143d ee43 9b3d 2d2c 34bc 38d3 febc
00000160: c77f c73d 4126 a4bd 86ae 833d fcd4 52be
00000170: a73f 833d e3a9 7a3f 312a 4a3c cc21 e0bc
00000180: b36d 8a3d 5824 54bd 6a93 acbc 8540 913c
00000190: 8433 d83c 399f 513e 1b3b 173e e601 93bc
000001a0: 766e 313f 56ea 313e e183 8a3d 27f9 10be
000001b0: 68c3 9a3e d4ca 50be 7987 a03d ab94 8c3c
000001c0: a08a eb3b 49a6 96bd 468d d0bd 3934 f83e
000001d0: 7971 f53c e725 f9bd a124 a33d 827d c23b
000001e0: 5e9e 6d3d 2692 9dbd dc62 90bd 6f67 123d
000001f0: 87ca 9dbd ca68 06bd 672d 013f fd00 94bd
00000200: 6ab5 c5bd ee61 3abc 12dc ed3c d8ec 193c
00000210: ccc0 bf3d d81c a93c 454e b83d 5899 d9bd
00000220: 457e 1abd 5c1f db3e c90b 0ebc f997 da3d
00000230: 1e65 b9bd 24b6 073d 04b2 0a3d 23ba 203d
00000240: ab1b c73d 3f1c 243d bc32 5cbd 23b4 f8bb
00000250: 99dc ca3e ba73 3b3c 31be ecbc 9ccc aa3d
00000260: 072a 093e a9f1 a8bd 38a5 0b3e f8b1 f9bc
00000270: 7d99 103e 6659 dc3d 0c20 84bd 228b 003f
00000280: 8602 203c feb7 963c 805a 1abc f7fb 933e
00000290: 43d6 eabd c891 0b3d 6f01 21bd f5f5 3c3e
000002a0: 1665 923d 9fd2 5fbd e7b9 133e c30f 363e
000002b0: eacc 1c3d b456 f03d 673f 833e aea7 a8bd
000002c0: 64ba b03b 63a7 1d3e dd16 92bd 6cfa 4abe
000002d0: 8507 6d3d 1e58 e63e ed36 763d 8575 a83d
000002e0: 25a4 dcbc f297 443e e889 14bd 5d9b c63d
000002f0: 6c51 403d 9b6a c6bc ed24 c53d 62b5 663d
00000300: 6ad3 433f df37 d43b 9932 0a3d 1865 1dbe
00000310: 45dc d43d 3841 f53c a3ee ce3d d157 253e
00000320: 63ef 293e 7423 4d3d a6ef 74bc 32ed 8f3f
00000330: 58db 0dbd 7741 76bd 5363 f33c d4b6 d23d
00000340: e167 ccbc 5e6a d73d e425 24bd 9f1e 5bbd
00000350: d6e8 8dbc 22ba 10bd c56f dd3e 6ca1 ed3d
00000360: 1a53 f33d 9f3d a03d 8d98 193e c9bd 523c
00000370: 6b52 a03d 28da 33bd 2646 8c3d b19a 80bd
00000380: ea65 053d 0e84 29bf 8386 b53d 8b6b 083e
00000390: 916f e9bd fd6c 903e 7619 c83c 100b 3b3e
000003a0: 66da ba3d bb5a 153e a1b1 02be 6dbe bbbd
000003b0: af4b c73e 6309 023c 9bff 8cbd 7f66 56bc
000003c0: a1a9 9d3d 99b4 1abc 1776 91be 2ab9 eebd
000003d0: 80c3 45be b726 083e dd3e 3dbe 32b8 02be
000003e0: 4843 a2be e4ec a8bc db95 903d 7d44 5fbd
000003f0: 6e2a f93d 5f0e 073e 5297 8dbd 9fae d9bd

lstm.weight_hh_l0 f4 [256, 64]
-0.06212589 0.051232345 -0.008829776 0.0426359 0.07022562 0.01914211 -0.04515051 -0.009604577
-0.093810916 -0.071430415 -0.05150662 0.0125255305 0.09143442 -0.080351695 0.1175643 0.079721265
0.028696112 0.007370325 -0.13888821 -0.04279648 -0.033235602 -0.106028296 0.0938776 0.099727266
-0.048662942 0.061780434 -0.039306957 -0.057022456 0.02745139 -0.009651725 -0.123021975 0.103261754
0.031906273 -0.013223338 0.03442903 0.06474459 0.10930516 -0.058203585 -0.010080914 -0.046514485
-0.044362374 0.11564951 0.052813485 0.053795744 -0.062346473 0.028321654 -0.03758719 -0.12964058
0.011776832 -0.035679832 -0.09480834 -0.016323594 -0.026025949 0.025157362 -0.009693269 -0.022344984
-0.10432788 0.051596783 -0.112325475 0.064800136 0.074313626 -0.05613929 0.038357172 -0.014959305
-0.0811129 0.12898421 0.069702685 -0.028045366 -0.029434089 0.0061566355 -0.13614106 0.015723081
0.08380469 -0.069193095 -0.11784192 -0.12833439 -0.08813731 -0.17278156 0.021901732 0.020911891
0.16436411 -0.09002267 0.24533924 0.011595009 0.23980881 0.0424944 0.20367284 0.1328338
-0.17755722 0.09817724 0.1529527 -0.13208976 -0.3946585 -0.1288774 0.09686714 -0.023701066
0.00034268852 0.021792663 -0.030913558 -0.113526255 -0.15465923 -0.052791823 0.083194524 0.11693214
0.14965506 -0.08941174 0.06835009 0.045463968 0.0029849692 0.200617 0.11048294 0.024658244
-0.032598246 0.09562852 -0.082607366 -0.077619016 -0.102332 0.0012297685 0.030467473 -0.07298851
-0.065939575 0.059544276 -0.024400475 0.11747249 -0.036417447 0.17989728 0.0011913895 -0.14110115
0.11396129 0.08021968 -0.007836334 0.122744456 -0.03092583 0.0104824705 0.0028288318 0.02029382
0.05458535 -0.025143046 -0.107086346 0.031106845 -0.074524164 0.019443598 -0.052178483 -0.00030370936
0.1357058 -0.04940105 0.04073726 -0.015427745 -0.15785977 -0.006727883 0.08953278 0.015131274
0.031873237 0.09980711 0.03822274 -0.054743715 0.0384304 -0.107153915 0.011696965 0.016619619
-0.08240172 0.06397262 -0.017037058 -0.05334201 -0.13608569 -0.00559236 0.0055787764 -0.09968961
-0.013931353 -0.09474643 -0.020021742 0.05096958 -0.0134939775 0.052170794 -0.041592326 -0.117187396
0.058188323 -0.025480527 -0.006266461 0.045266267 0.055444267 -0.10906015 -0.040872525 0.018285278
-0.076166786 0.085314035 0.02932381 -0.021463547 -0.08849287 -0.02547235 -0.11278583 0.028227547
0.011556935 0.042156205 -0.040676482 -0.02041338 0.11094449 0.07912706 -0.020289194 -0.14009999
0.02137343 -0.027885102 -0.08115642 -0.059658304 -0.10393637 0.0917149 0.07384051 -0.027461534
-0.0247184 -0.04206839 0.022692587 -0.04383458 0.08200308 0.048056636 -0.15879822 0.030562984
-0.0737021 0.12020647 -0.010020693 0.046817876 -0.09743972 -0.15294859 -0.06487125 0.03956215
0.052631844 -0.044084575 0.09115964 -0.02128177 -0.038745575 0.11903935 -0.062542655 0.19376045
-0.05876114 -0.032302707 0.09465627 0.10084672 0.0624224 0.047323972 0.13903108 0.020819206
0.042672977 0.0042317295 -0.097288996 -0.057565987 -0.06836819 0.07583067 0.034379825 -0.10717239
-0.036420953 0.048961494 0.12121079 0.033941854 0.03333942 0.08069536 0.14106767 0.025940878
00000000: b877 7ebd 02d9 513d c4aa 10bc fba2 2e3d
00000010: 73d2 8f3d eacf 9c3c beef 38bd 845c 1dbc
00000020: f01f c0bd 1c4a 92bd 9bf8 52bd e237 4d3c
00000030: f841 bb3d 6e8f a4bd 8dc5 f03d e744 a33d
00000040: 1c14 eb3c c482 f13b b638 0ebe 5d4b 2fbd
00000050: 0e22 08bd 5d25 d9bd e642 c03d cf3d cc3d
00000060: cb52 47bd 7b0d 7d3d 5500 21bd 6190 69bd
00000070: bde1 e03c 4522 1ebc f2f2 fbbd e67a d33d
00000080: 27b0 023d b3a6 58bc 7405 0d3d d098 843d
00000090: 62db df3d e266 6ebd 6b2a 25bc f985 3ebd
000000a0: 52b5 35bd a6d9 ec3d f452 583d ed58 5c3d
000000b0: 045f 7fbd d002 e83c 06f5 19bd 80c0 04be
000000c0: 9df3 403c 0425 12bd e02a c2bd 0fb9 85bc
000000d0: 5f34 d5bc d016 ce3c 84d0 1ebc d40c b7bc
000000e0: dba9 d5bd 2657 533d e60a e6bd efb5 843d
000000f0: be31 983d 50f2 65bd 691c 1d3d df17 75bc
00000100: 851e a6bd 7014 043e 48c0 8e3d 65bf e5bc
00000110: c21f f1bc 9abd c93b 9068 0bbe b1cd 803c
00000120: cba1 ab3d 1cb5 8dbd 1b57 f1bd 176a 03be
00000130: 5681 b4bd a6ed 30be 436b b33c 6a4f ab3c
00000140: 114f 283e ce5d b8bd 363a 7b3e fef8 3d3c
00000150: 7190 753e 9c0e 2e3d 9d8f 503e 9505 083e
00000160: 8fd1 35be 2611 c93d a29f 1c3e 8a42 07be
00000170: ae10 cabe 70f8 03be 4762 c63d bd28 c2bc
00000180: e0aa b339 8786 b23c 6e3e fdbc 7480 e8bd
00000190: fd5e 1ebe 3d3c 58bd e461 aa3d 1e7a ef3d
000001a0: 2d3f 193e 811d b7bd 22fb 8b3d 6d38 3a3d
000001b0: 799f 433b 8b6e 4d3e e144 e23d 1600 ca3c
000001c0: bd85 05bd e3d8 c33d 0d2e a9bd b8f6 9ebd
000001d0: 7193 d1bd 2f30 a13a ec96 f93c 007b 95bd
000001e0: 540b 87bd b3e4 733d 81e3 c7bc 6b95 f03d
000001f0: 762a 15bd fe36 383e 6628 9c3a d27c 10be
00000200: 8964 e93d 374a a43d f863 00bc 7261 fb3d
00000210: 2b58 fdbc abbe 2b3c ec63 393b 3a3f a63c
00000220: e394 5f3d caf8 cdbc 1650 dbbd c8d3 fe3c
00000230: 20a0 98bd 2e48 9f3c 1bb9 55bd 2e3b 9fb9
00000240: 76f6 0a3e c158 4abd 1ddc 263d a7c4 7cbc
00000250: fea5 21be 9375 dcbb f65c b73d 2ae9 773c
00000260: 838d 023d ac67 cc3d 738f 1c3d f23a 60bd
00000270: 3269 1d3d 8373 dbbd a1a4 3f3c de25 883c
00000280: 3cc2 a8bd 1404 833d 4d91 8bbc 277d 5abd
00000290: 0c5a 0bbe 1e40 b7bb 2bce b63b 112a ccbd
000002a0: 5440 64bc 6b0a c2bd a304 a4bc 7ac5 503d
000002b0: d815 5dbc 0bb1 553d b75c 2abd f2ff efbd
000002c0: e156 6e3d 8abc d0bc e356 cdbb 1f69 393d
000002d0: 8719 633d ee5a dfbd f369 27bd 02cb 953c
000002e0: 55fd 9bbd 20b9 ae3d 7d38 f03c 52d4 afbc
000002f0: c03b b5bd 64ab d0bc 42fc e6bd 753d e73c
00000300: 4c59 3d3c fcab 2c3d 629c 26bd f639 a7bc
00000310: dd36 e33d 5e0d a23d 8635 a6bc 5f76 0fbe
00000320: 5517 af3c 4c6f e4bc 5635 a6bd 445c 74bd
00000330: 97dc d4bd 06d5 bb3d b139 973d 03f7 e0bc
00000340: 3e7e cabc e74f 2cbd cee5 b93c e38b 33bd
00000350: 3bf1 a73d 09d7 443d 009c 22be 395f fa3c
00000360: 20f1 96bd cf2e f63d d52d 24bc 1ac4 3f3d
00000370: 7a8e c7bd 8e9e 1cbe 38db 84bd ec0b 223d
00000380: 7d94 573d 0792 34bd e8b1 ba3d 1b57 aebc
00000390: aeb3 1ebd e7ca f33d 5d16 80bd 2469 463e
000003a0: 85af 70bd d84f 04bd 26db c13d ba88 ce3d
000003b0: a1ae 7f3d c8d6 413d 2a5e 0e3e 0a8d aa3c
000003c0: dcc9 2e3d 52aa 8a3b 743f c7bd 50ca 6bbd
000003d0: 9f04 8cbd 1c4d 9b3d dcd1 0c3d 337d dbbd
000003e0: 232e 15bd d98b 483d 5d3d f83d 9d06 0b3d
000003f0: ea8e 083d 9c43 a53d 0b74 103e f781 d43c

lstm.bias_ih_l0 f4 [256]
0.03991534 0.023065312 -0.049108904 -0.10238331 -0.06387158 0.0394021 -0.056715585 -0.028705228
0.05409946 0.11400908 -0.08700801 -0.10164833 0.024576196 0.086384684 0.054622233 0.036411148
-0.04398384 -0.02688914 0.057403147 -0.035780784 0.119575545 -0.08854548 0.030422071 0.08085744
0.20916124 -0.0077657327 0.09622696 0.060438707 0.34570947 0.061372254 0.08245524 -0.0024999662
0.03198772 0.010520813 -0.07424723 0.16012588 0.12866375 0.13338596 0.14745958 0.018835785
-0.09920729 0.07743855 0.07798691 0.08154385 0.018394623 -0.066970505 0.0038325663 -0.03187168
-0.057401657 0.059855517 -0.009448661 0.1276402 -0.07189615 0.09953285 0.010861927 0.11378553
0.11479775 -0.057012875 -0.030871322 0.06810117 -0.012450627 0.11840109 0.048376564 0.11079795
-0.037754532 -0.040972885 -0.14050181 0.030936891 0.063685276 -0.10064687 -0.045830257 -0.03744321
-0.08687062 -0.09571658 0.035772223 -0.09483872 0.05243768 -0.043966595 0.011621128 -0.018341735
0.06585551 0.003232382 -0.18804337 0.11035832 0.08063019 0.05307452 0.07777018 0.024010219
0.06385914 -0.053506933 -0.18371579 -0.11778983 -0.49965677 0.026191818 0.026714692 -0.07981919
0.070428215 -0.07987054 -0.11535983 0.01720233 0.18674168 0.07584203 -0.015050833 0.005688561
0.10376988 0.122854754 0.09246007 0.07398054 0.0138699645 -0.0707181 0.04142359 -0.16285801
0.0037569522 0.014696774 0.051340327 0.04179877 -0.08908653 -0.025367375 -0.1153007 -0.06492256
-0.1294475 -0.056418017 -0.029847307 -0.13159819 -0.025074452 0.09195898 -0.040340785 -0.10241006
-0.014512053 -0.106956966 0.09887835 0.038668014 -0.032911435 0.010957582 -0.108271055 0.044390056
0.00087972207 0.08661175 -0.029545687 -0.0035309363 -0.04507036 0.11184163 -0.12699464 -0.08429298
-0.007153582 -0.03721482 -0.061809346 -0.02840511 -0.0803009 0.010786599 0.049731754 -0.05136662
0.029017456 -0.12560196 0.03845015 -0.11148458 0.06775899 0.061573185 -0.009360687 0.03979115
0.08898631 -0.048964664 0.022469554 0.1415523 0.011782848 -0.1038094 0.0069355993 -0.116162986
0.019284168 -0.059337307 -0.12763917 -0.0751433 -0.009510398 -0.1127107 -0.10104642 -0.088158764
-0.091661 0.06322134 -0.029866694 0.13481148 -0.06626539 0.038350504 -0.05327775 0.101100825
-0.105753906 0.029844983 0.040433638 -0.07565901 -0.016904412 -0.10855726 0.0723387 -0.057367057
0.041434024 -0.05724583 -9.866192e-05 -0.05768679 0.062311545 -0.040945392 0.0775665 -0.053171538
-0.064525664 0.09174088 -0.1068183 0.0039491244 -0.07733136 -0.06724697 -0.08928577 0.005671209
-0.1188487 0.012983478 0.08354943 -0.08047261 -0.0022033334 0.05228546 0.116234995 -0.13423485
-0.027121589 -0.099615276 0.1422832 -0.10702515 0.34201065 0.03127174 -0.07419073 -0.07740315
0.08867405 0.058125596 0.0073618307 0.069030985 0.10318184 0.03464257 -0.013917631 -0.055599973
0.086440206 -0.10299812 0.0057309885 -0.07963234 0.058842823 -0.10173004 0.08990094 -0.050625872
-0.027022768 -0.088084646 0.1170918 0.12209816 0.04270032 0.016642278 0.09260627 -0.08938555
-0.12071867 0.10879166 0.072084144 0.008527665 -0.028843025 0.14444882 -0.15533324 0.08759038
00000000: 447e 233d 77f3 bc3c 6b26 49bd 57ae d1bd
00000010: 1acf 82bd 1964 213d 9a4e 68bd 3a27 ebbc
00000020: 6597 5d3d 987d e93d 4131 b2bd 002d d0bd
00000030: 0554 c93c 74ea b03d 90bb 5f3d db23 153d
00000040: 6628 34bd 9d46 dcbc 901f 6b3d df8e 12bd
00000050: 06e4 f43d 5557 b5bd b537 f93c 9698 a53d
00000060: 5d2e 563e b077 febb a412 c53d 948e 773d
00000070: d500 b13e 7961 7b3d 4bde a83d 79d6 23bb
00000080: 8e05 033d 7d5f 2c3c ef0e 98bd 0af8 233e
00000090: 6ec0 033e 5496 083e a5ff 163e 814d 9a3c
000000a0: 312d cbbd 1a98 9e3d 9ab7 9f3d 7600 a73d
000000b0: 52b0 963c d527 89bd cb2b 7b3b e18b 02bd
000000c0: 001e 6bbd 0f2b 753d 8ece 1abc 1db4 023e
000000d0: 4a3e 93bd e1d7 cb3d 39f6 313c 6308 e93d
000000e0: 151b eb3d 5586 69bd dbe5 fcbc a078 8b3d
000000f0: b7fd 4bbc 457c f23d 8126 463d 09ea e23d
00000100: 7fa4 1abd 2fd3 27bd b5df 0fbe 5d6f fd3c
00000110: 6d6d 823d f21f cebd 82b8 3bbd 0d5e 19bd
00000120: 39e9 b1bd 0e07 c4bd e585 123d ce3a c2bd
00000130: e5c8 563d 5116 34bd 8b66 3e3c 6841 96bc
00000140: 41df 863d 5fd6 533b 718e 40be 8b03 e23d
00000150: 7121 a53d ab64 593d f945 9f3d 14b1 c43c
00000160: 95c8 823d 162a 5bbd fe1f 3cbe cb3b f1bd
00000170: 03d3 ffbe 3990 d63c c5d8 da3c 3e78 a3bd
00000180: ab3c 903d 2a93 a3bd c641 ecbd e7eb 8c3c
00000190: 3639 3f3e 1153 9b3d c597 76bc 1c67 ba3b
000001a0: 4e85 d43d 469b fb3d b55b bd3d 1c83 973d
000001b0: d93e 633c a7d4 90bd c8ab 293d 40c4 26be
000001c0: 3337 763b bdca 703c 3c4a 523d 3035 2b3d
000001d0: 0073 b6bd 3ecf cfbc c622 ecbd 1ef6 84bd
000001e0: e38d 04be 9416 67bd 5782 f4bc adc1 06be
000001f0: f068 cdbc fd54 bc3d 613c 25bd 5ebc d1bd
00000200: f6c3 6dbc 410c dbbd bb80 ca3d 5a62 1e3d
00000210: 24ce 06bd 6e87 333c 37bd ddbd 59d2 353d
00000220: 269d 663a 8061 b13d cc09 f2bc 4867 67bb
00000230: b39b 38bd 390d e53d e20a 02be cca1 acbd
00000240: 9868 eabb 916e 18bd cc2b 7dbd d5b1 e8bc
00000250: cc74 a4bd 46ba 303c 86b3 4b3d ce65 52bd
00000260: 04b6 ed3c cd9d 00be e87d 1d3d 0752 e4bd
00000270: 3ac5 8a3d 2a34 7c3d 915d 19bc 0bfc 223d
00000280: 743e b63d 2c8f 48bd 1212 b83c 16f3 103e
00000290: d90c 413c 069a d4bd 0644 e33b dce6 edbd
000002a0: d5f9 9d3c ad0b 73bd d8b3 02be bbe4 99bd
000002b0: 80d1 1bbc ded4 e6bd 6df1 cebd 958c b4bd
000002c0: c3b8 bbbd 317a 813d ffaa f4bc 050c 0a3e
000002d0: 26b6 87bd 6b15 1d3d c539 5abd f30d cf3d
000002e0: 8195 d8bd 777d f43c be9d 253d 1cf3 9abd
000002f0: 1f7b 8abc 4553 debd 5026 943d b8f9 6abd
00000300: b9b6 293d 9a7a 6abd b7e8 ceb8 fc48 6cbd
00000310: 643a 7f3d 5bb6 27bd 2fdb 9e3d 66ca 59bd
00000320: 0826 84bd a4e2 bb3d 8ec3 dabd a867 813b
00000330: e75f 9ebd c8b8 89bd 75db b6bd 8dd5 b93b
00000340: f266 f3bd a7b8 543c f71b ab3d d3ce a4bd
00000350: cd65 10bb 4729 563d 9d0c ee3d dc74 09be
00000360: 182e debc 1803 ccbd b0b2 113e 0030 dbbd
00000370: 051c af3e cc16 003d 4ff1 97bd 8b85 9ebd
00000380: be9a b53d 1b15 6e3d 833b f13b 1e60 8d3d
00000390: 0051 d33d 5ee5 0d3d c606 64bc ccbc 63bd
000003a0: 9007 b13d aef0 d2bd 04cb bb3b 4816 a3bd
000003b0: 2c05 713d d757 d0bd fc1d b83d 135d 4fbd
000003c0: da5e ddbc b965 b4bd d3cd ef3d 9a0e fa3d
000003d0: 88e6 2e3d 6355 883c 5ba8 bd3d c50f b7bd
000003e0: 5a3b f7bd 29ce de3d daa0 933d 9fb7 0b3c
000003f0: 3548 ecbc 64ea 133e ad0f 1fbe 9662 b33d

lstm.bias_hh_l0 f4 [256]
-0.11735368 0.03963153 -0.13119644 -0.09778414 0.11052941 -0.08946023 0.06946842 0.026538149
0.0903455 0.012113798 -0.00042689228 -0.053819697 -0.05893846 -0.075083375 0.005053912 0.0044686347
-0.15442325 -0.008023901 -0.086399436 -0.0027760481 0.1799957 0.040846054 -0.074217714 0.03254854
0.1742004 0.024674302 0.099223204 -0.006844087 0.43294686 -0.039710894 -0.053473294 0.054759063
-0.09009391 0.023249349 0.005911559 0.12127042 0.12878728 -0.053149994 0.020316476 0.055371907
-0.09284392 -0.005825051 0.042205706 -0.10067105 0.021869091 0.12853383 -0.083255276 -0.031970054
-0.04963408 0.031881686 0.02819948 0.09800034 0.055377103 -0.090117805 -0.00014999199 -0.08708278
0.08382975 0.007918277 -0.08120329 -0.033816557 -0.06643855 0.14222078 -0.019764941 -0.055104
0.044177696 -0.043139916 0.0011478584 0.042469785 -0.12887447 -0.034954738 -0.024675684 0.11911679
0.059671927 -0.09471168 -0.0710461 -0.11901477 0.09404971 -0.06071047 0.0391329 0.034119345
-0.0019991777 -0.0749764 -0.06681917 -0.080023244 0.041509215 -0.026737716 -0.029488208 -0.06497418
0.092026524 0.09451003 -0.17661144 0.09167061 -0.32882458 -0.09260335 -0.14464757 0.075790025
-0.02783274 0.01109062 -0.08911984 -0.024643607 0.12864083 -0.048310664 -0.059613526 -0.014559831
-0.046849858 -0.022889452 0.04214012 0.03698627 -0.096943095 -0.03864668 -0.013062251 -0.04395713
-0.12207475 -0.043140396 -0.025844945 -0.10512241 -0.094854146 -0.03026825 0.08584055 -0.22457509
0.03456945 0.0049646804 0.092487596 -0.0016722619 0.102870084 -0.0069839377 0.003712216 0.038217284
0.037193935 -0.0048726574 0.034630638 0.028788151 0.05074327 0.05341118 0.08994342 0.1240437
-0.05825852 -0.05746843 0.105904885 -0.048773687 0.089854844 -0.03464694 0.04606133 -0.014595192
-0.039897878 0.08445497 -0.00801178 0.09676149 -0.052470338 -0.07722611 0.08024094 0.082933396
0.062318496 -0.031287212 -0.055145986 -0.05807444 0.0033001462 0.124842934 -0.020573894 0.03611174
-0.044482987 0.036660373 -0.08298953 -0.0247171 -0.081669 -0.0433171 -0.009489519 -0.037952375
0.0057839067 -0.004776162 -0.07003187 -0.028793834 0.028243532 0.008088759 -0.091501266 0.04359489
0.11322228 -0.1700596 0.049620174 -0.0008913775 -0.013273306 0.10201377 0.04529182 0.04229116
0.08279639 -0.007764953 -0.10634132 0.06004945 0.048316747 -0.11388636 -0.1187658 0.053285696
-0.026801145 0.17387533 -0.064843476 0.046426643 0.07558415 -0.07096387 -0.046578575 -0.06724327
0.07033242 0.030229514 -0.12566458 -0.0061088004 0.109404676 0.124321066 0.0485285 0.078477085
0.022438325 0.004010053 0.1239702 -0.043574423 0.050704516 -0.058821786 0.022601793 0.1028348
0.1458905 0.11445497 0.11565882 -0.050574 0.2206971 -0.03984582 0.06404198 -0.009491793
-0.13540797 -0.044935588 0.07015158 -0.07427498 -0.04851656 0.121442124 -0.053325236 0.13045374
0.05710527 -0.05216993 -0.035792943 0.01888014 0.10244421 0.10257279 0.024063349 -0.057550743
0.02587223 0.024478927 -0.014526078 0.08590302 -0.012144004 -0.034209877 -0.07588978 -0.057883237
0.12195984 0.09605629 0.10475299 -0.026482478 -0.13394898 0.029817607 -0.14045723 -0.09500432
00000000: 2057 f0bd ac54 223d 5c58 06be 0d43 c8bd
00000010: 3e5d e23d ed36 b7bd 7645 8e3d 8866 d93c
00000020: 1007 b93d f478 463c 83d0 dfb9 0b72 5cbd
00000030: 7469 71bd 50c5 99bd 499b a53b a06d 923b
00000040: 2121 1ebe ae76 03bc 30f2 b0bd 5cee 35bb
00000050: cb50 383e 314e 273d 75ff 97bd 9e51 053d
00000060: 9761 323e c321 ca3c 8935 cb3d 5d44 e0bb
00000070: 36ab dd3e e4a7 22bd d006 5bbd 0a4b 603d
00000080: 2883 b8bd 6b75 be3c c0b5 c13b a05c f83d
00000090: d0e0 033e cfb3 59bd bd6e a63c a7cd 623d
000000a0: f424 bebd 12e0 bebb e4df 2c3d a02c cebd
000000b0: cf26 b33c 5f9e 033e be81 aabd 08f3 02bd
000000c0: 1b4d 4bbd 5f96 023d 9902 e73c 67b4 c83d
000000d0: 1ad3 623d af8f b8bd 2b47 1db9 7558 b2bd
000000e0: efae ab3d a9bb 013c e94d a6bd 3b83 0abd
000000f0: ef10 88bd 53a2 113e 16ea a1bc bbb4 61bd
00000100: acf3 343d 7bb3 30bd bd73 963a ccf4 2d3d
00000110: abf7 03be b32c 0fbd a924 cabc 81f3 f33d
00000120: 8d6a 743d 33f8 c1bd 9e80 91bd 04be f3bd
00000130: 229d c03d 8bab 78bd d249 203d bac0 0b3d
00000140: a304 03bb 3a8d 99bd 7dd8 88bd 3ae3 a3bd
00000150: 9105 2a3d 0e09 dbbc 4191 f1bc 2f11 85bd
00000160: 6778 bc3d 798e c13d a1d9 34be cdbd bb3d
00000170: b25b a8be d3a6 bdbd 7e1e 14be cd37 9b3d
00000180: 7d01 e4bc 6fb5 353c 7684 b6bd 64e1 c9bc
00000190: 6cba 033e 67e1 45bd 502d 74bd 5b8c 6ebc
000001a0: a3e5 3fbd a982 bbbc 1e9b 2c3d ea7e 173d
000001b0: 1a8a c6bd fb4b 1ebd 0d03 56bc 640c 34bd
000001c0: 5402 fabd fcb3 30bd c7b8 d3bc 6b4a d7bd
000001d0: e442 c2bd 1ff5 f7bc 2ccd af3d 03f7 65be
000001e0: b298 0d3d c2ae a23b 236a bd3d cc2f dbba
000001f0: 8dad d23d 84d9 e4bb a648 733b ba89 1c3d
00000200: ab58 183d d0aa 9fbb dbd8 0d3d 21d5 eb3c
00000210: 2dd8 4f3d aec5 5a3d 4134 b83d a00a fe3d
00000220: 7ca0 6ebd 0464 6bbd a9e4 d83d ebc6 47bd
00000230: d105 b83d f3e9 0dbd ceaa 3c3d ac20 6fbc
00000240: f56b 23bd baf6 ac3d d743 03bc e32a c63d
00000250: 23eb 56bd b928 9ebd 5d55 a43d fcd8 a93d
00000260: ae41 7f3d 0527 00bd c2e0 61bd 77df 6dbd
00000270: 4447 583b a7ad ff3d 958a a8bc e7e9 133d
00000280: cb33 36bd 3029 163d 6af6 a9bd 847b cabc
00000290: 1442 a7bd 456d 31bd ed79 1bbc f373 1bbd
000002a0: ed86 bd3b 5a81 9cbb de6c 8fbd 0ce1 ebbc
000002b0: fb5e e73c b786 043c 0465 bbbd 8e90 323d
000002c0: 15e1 e73d 1b24 2ebe 863e 4b3d 55ab 69ba
000002d0: 4878 59bc 98ec d03d ea83 393d 7f39 2d3d
000002e0: 2791 a93d 2671 febb 7ac9 d9bd 69f6 753d
000002f0: c8e7 453d 403d e9bd 7c3b f3bd 1a42 5a3d
00000300: 138e dbbc 600c 323e a8cc 84bd dd29 3e3d
00000310: ddcb 9a3d 8155 91bd 2dc9 3ebd d7b6 89bd
00000320: 720a 903d e3a3 f73c 37ae 00be 552c c8bb
00000330: 8f0f e03d 0b9c fe3d d2c5 463d 98b8 a03d
00000340: 94d0 b73c c366 833b 17e4 fd3d 187b 32bd
00000350: 8aaf 4f3d 1def 70bd 6527 b93c 0d9b d23d
00000360: 5264 153e 5e67 ea3d 88de ec3d af26 4fbd
00000370: 6cfe 613e 5f35 23bd 7128 833d 7783 1bbc
00000380: 63a8 0abe 610e 38bd a2ab 8f3d 7b1d 98bd
00000390: 4db9 46bd a6b6 f83d 906b 5abd aa95 053e
000003a0: 37e7 693d 23b0 55bd 9f9b 12bd 86aa 9a3c
000003b0: 45ce d13d af11 d23d 8020 c53c 54ba 6bbd
000003c0: 00f2 d33c 0888 c83c c9fe 6dbc eced af3d
000003d0: a5f7 46bc a81f 0cbd 1a6c 9bbd f916 6dbd
000003e0: 15c6 f93d 29b9 c43d bc88 d63d c8f1 d8bc
000003f0: ec29 09be 0e44 f43c 05d4 0fbe a091 c2bd

lstm.weight_ih_l1 f4 [256, 64]
0.08472943 0.037685614 0.07060138 0.0678222 0.060405537 -0.016594002 0.08686555 0.08082188
-0.10816009 0.10247304 0.058639064 -0.07539041 -0.11328466 -0.09627961 -0.014166355 -0.041336965
0.0794078 0.06908236 -0.027064482 0.05366189 0.159978 0.09513746 -0.010753022 0.076297835
0.01629568 0.10445791 0.031984236 0.08844419 -0.07105342 -0.14425373 -0.06441913 0.1166966
0.08290559 0.07373981 0.096850485 -0.077171646 0.057446487 -0.099133626 -0.009385651 0.078741506
-0.08894877 0.023986703 0.11163397 0.03722588 0.005142433 0.034638766 -0.05335615 0.094986215
0.0735082 -0.06373324 0.12653507 0.04316208 0.13117447 0.0958897 -0.11614368 -0.09920759
0.073876195 -0.09302518 -0.040890653 -0.054006815 0.013684677 -0.07886639 0.13288641 -0.02606282
-0.08196484 0.12479137 0.009152417 -0.061077584 -0.038338415 -0.06635172 0.06625389 -0.023882888
0.20280768 -0.17391205 -0.08866293 -0.13436148 -0.075462535 -0.034067925 0.10734371 0.079533085
-0.051793937 -0.048319455 0.028057039 -0.14187637 0.13702586 0.15502104 -0.1620143 -0.053294756
-0.17131095 0.1281863 0.11913066 0.091164894 -0.18538134 -0.16869824 -0.065636456 0.022323454
-0.11957822 -0.047087166 0.03980455 0.022615502 0.09588504 0.024096243 0.08507329 0.19299638
0.041689 -0.017507872 0.09168708 -0.03876399 0.039274145 0.15052755 0.058494873 0.021680966
0.009275323 0.0016461415 -0.099548504 -0.127963 -0.009504407 -0.0019728357 -0.003672994 -0.12971081
-0.04245575 -0.087959565 0.038735006 0.10401079 0.044767536 0.03436337 0.09868952 -0.113375746
0.093882546 0.037412725 -0.0031486994 0.0017634757 0.113793984 -0.0040404117 0.056555662 -0.11508707
0.16429728 -0.1364452 -0.02244873 -0.05145898 0.122325145 0.034177646 0.029901387 -0.059538838
0.111787915 0.02258748 0.07911059 -2.852189e-05 0.11446721 0.08387714 -0.106917016 -0.09391496
-0.1360578 0.11101059 -0.04565816 -0.11343579 0.008605012 0.092328064 0.023883812 -0.10470488
-0.0053575695 -0.049027923 -0.06414627 0.08443414 -0.007627728 0.06334108 -0.098280735 0.1653887
0.085281365 -0.058235265 0.019490669 0.12503546 -0.08898455 -0.028401729 -0.035817478 0.096684724
-0.078652754 0.12407044 0.0011760745 -0.030273058 -0.021411827 0.013130794 0.021551928 0.06738328
0.013178158 -0.1054606 -0.074581146 0.017075751 0.028642176 0.052686278 0.044685595 -0.02980177
-0.0035692 -0.08431031 -0.070186764 -0.13942556 -0.030044196 0.05650862 0.13825224 0.02880506
0.016985685 0.14156654 -0.030841356 0.1252767 -0.047447894 0.06359367 0.09037617 -0.0037467398
0.06578675 -0.014860478 -0.009965024 0.16521014 -0.029409152 -0.06440598 -0.07081355 -0.2019052
0.02653346 0.039113868 0.07562962 0.1394125 -0.0900077 -0.13119587 -0.043925628 -0.059030145
0.07467724 -0.011821473 0.04517645 0.04524756 0.15459011 0.071690254 0.028391866 0.02433093
-0.12200994 0.018110005 0.028041322 -0.06331988 -0.111938514 -0.11905527 -0.0033072724 -0.11455582
-0.05432146 -0.098599024 0.111852944 0.15752429 0.08385744 0.079034045 -0.0045554945 -0.18776917
0.012846106 0.113387205 0.060365666 -0.13593052 -0.100257844 0.10519415 0.024610685 -0.058189116
00000000: a086 ad3d 3b5c 1a3d 7597 903d 5ee6 8a3d
00000010: cc6b 773d 25f0 87bc 91e6 b13d f185 a53d
00000020: 0a83 ddbd 63dd d13d 842f 703d 4a66 9abd
00000030: ca01 e8bd 3f2e c5bd 001a 68bc f350 29bd
00000040: 8fa0 a23d 0d7b 8d3d 55b6 ddbc 92cc 5b3d
00000050: 46d1 233e 6ed7 c23d 712d 30bc 0a42 9c3d
00000060: 857e 853c 07ee d53d e701 033d 3a22 b53d
00000070: 7584 91bd 40b7 13be 2dee 83bd a1fe ee3d
00000080: 68ca a93d e604 973d 8c59 c63d 2b0c 9ebd
00000090: 024d 6b3d 9206 cbbd 46c6 19bc 3a43 a13d
000000a0: c62a b6bd c37f c43c 5aa0 e43d 2a7a 183d
000000b0: db81 a83b 61e1 0d3d fa8b 5abd 2288 c23d
000000c0: 788b 963d 9386 82bd 6992 013e b9ca 303d
000000d0: 9a52 063e d261 c43d bddc edbd 592d cbbd
000000e0: 674c 973d fc83 bebd f57c 27bd 4036 5dbd
000000f0: b235 603c b484 a1bd 6013 083e b281 d5bc
00000100: 2fdd a7bd 9e92 ff3d 05f4 153c 7d2c 7abd
00000110: be08 1dbd 69e3 87bd 1fb0 873d 0ca6 c3bc
00000120: d1ac 4f3e 0016 32be e994 b5bd 0e96 09be
00000130: 1a8c 9abd cf8a 0bbd 05d7 db3d 3ee2 a23d
00000140: e125 54bd 9fea 45bd e0d7 e53c 0a48 11be
00000150: 8250 0c3e d6bd 1e3e 14e7 25be 9a4b 5abd
00000160: 236c 2fbe 4543 033e c7fa f33d a9b4 ba3d
00000170: 9bd4 3dbe 3bbf 2cbe 686c 86bd addf b63c
00000180: 6de5 f4bd 79de 40bd 190a 233d 2544 b93c
00000190: 605f c43d 7c65 c53c e83a ae3d d8a0 453e
000001a0: 16c2 2a3d ab6c 8fbc 70c6 bb3d fdc6 1ebd
000001b0: eddd 203d e523 1a3e 5298 6f3d 489c b13c
000001c0: 86f7 173c 58c3 d73a 16e0 cbbd bc08 03be
000001d0: 5fb8 1bbc b14a 01bb 9db6 70bb e9d2 04be
000001e0: 15e6 2dbd 2524 b4bd 99a8 1e3d 9c03 d53d
000001f0: 2a5e 373d 9bc0 0c3d bb1d ca3d 8b31 e8bd
00000200: 7e45 c03d 163e 193d 695a 4ebb 6d24 e73a
00000210: d20c e93d 6e65 84bb e9a6 673d c5b2 ebbd
00000220: 8c3d 283e 4ab8 0bbe 66e6 b7bc a7c6 52bd
00000230: 9b85 fa3d dcfd 0b3d c1f3 f43c ffde 73bd
00000240: 10f1 e43d 6109 b93c bc04 a23d 4b42 efb7
00000250: c96d ea3d c7c7 ab3d 4ff7 dabd 7d56 c0bd
00000260: bc52 0bbe 8559 e33d 0d04 3bbd 0651 e8bd
00000270: 09fc 0c3c 7f16 bd3d fca7 c33c 836f d6bd
00000280: 8d8e afbb 81d1 48bd 1f5f 83bd ceeb ac3d
00000290: 05f2 f9bb f8b8 813d 6947 c9bd a85b 293e
000002a0: ffa7 ae3d 1a88 6ebd e5aa 9f3c 4c09 003e
000002b0: 883d b6bd beaa e8bc 59b5 12bd a402 c63d
000002c0: b214 a1bd a518 fe3d 8326 9a3a 34ff f7bc
000002d0: db67 afbc 8b22 573c ab8d b03c 3f00 8a3d
000002e0: 33e9 573c bafb d7bd 00be 98bd 72e2 8b3c
000002f0: ffa2 ea3c 91cd 573d 3e08 373d d722 f4bc
00000300: 3de9 69bb e2aa acbd 14be 8fbd 93c5 0ebe
00000310: 3f1f f6bc 9575 673d ff91 0d3e 97f8 eb3c
00000320: 9025 8b3c d2f6 103e 03a7 fcbc 8948 003e
00000330: b958 42bd 663d 823d 2417 b93d dd8b 75bb
00000340: 34bb 863d 5d79 73bc 5744 23bc d92c 293e
00000350: 76eb f0bc 48e7 83bd b206 91bd 3dc0 4ebe
00000360: b35c d93c dd35 203d b4e3 9a3d 27c2 0e3e
00000370: f555 b8bd 3658 06be 5ceb 33bd 98c9 71bd
00000380: 61f0 983d daae 41bc f10a 393d 8155 393d
00000390: df4c 1e3e 57d2 923d 0f96 e83c a951 c73c
000003a0: 59e0 f9bd 6f5b 943c eab6 e53c daad 81bd
000003b0: 0540 e5bd 40d3 f3bd d3be 58bb 3e9c eabd
000003c0: 2e80 5ebd 49ee c9bd 2813 e53d 0c4e 213e
000003d0: 73bd ab3d 9adc a13d 4246 95bb 9046 40be
000003e0: 7978 523c 8d37 e83d fd41 773d 5f31 0bbe
000003f0: fc53 cdbd 0870 d73d 599c c93c b657 6ebd

lstm.weight_hh_l1 f4 [256, 64]
0.1096144 -0.082701825 -0.07067707 0.062715694 -0.016877342 -0.048150074 -0.06612757 -0.0550816
0.14788482 0.08883711 -0.0012285848 -0.08555903 -0.081705004 0.14927699 0.048360318 0.042162616
-0.115921155 -0.108123004 -0.062341146 0.13781148 -0.010706634 0.018251393 -0.003988688 -0.09378357
-0.008909988 -0.13848524 0.079505995 -0.14903489 0.05235413 0.15597564 0.05953397 0.053575095
0.0680326 0.026624104 0.07316652 -0.043611005 -0.02093621 0.06344548 0.024392871 0.03555208
0.11186318 0.038071077 0.08768981 -0.023272373 -0.035777673 0.030799273 0.15033963 0.11800473
-0.1270982 0.08143348 0.05377135 -0.107732765 0.036386434 0.09749032 0.10807129 0.06232683
-0.05373949 -0.117721654 -0.029531466 0.056928474 -0.031590097 0.08685687 -0.019477507 -0.056575857
-0.0023897907 0.00045221255 0.08437174 0.047761142 0.019965235 -0.015192648 0.05886142 -0.033189166
-0.12904492 -0.017763095 0.04424348 -0.02984611 0.04819308 0.09695714 -0.060986787 0.08977559
-0.084387764 -0.09472781 0.09232032 -0.11597007 -0.14122595 -0.13121903 0.11985945 0.078780696
-0.13285209 0.038743075 0.07007347 -0.06638104 0.086821765 0.06867644 0.0049449094 0.09743468
0.08410897 0.071247905 -0.037078686 0.09698839 0.074250355 0.047064394 -0.04370785 0.048437424
0.051532544 0.014527456 0.035754822 -0.11324565 0.122529246 -0.015539714 0.106769904 0.026385289
-0.036895897 0.07827432 0.021908145 -0.08216803 -0.018332219 -0.13246486 0.053167924 0.06320978
-0.03811107 -0.012039945 -0.05698663 -0.10429621 0.06767482 0.077728376 0.05695025 0.015227108
0.0030759808 -0.04023601 0.029918337 0.012543775 -0.013616171 0.081470236 0.017818201 -0.07713598
-0.036372673 0.11466772 -0.07407699 -0.10268657 0.07074902 0.08747533 0.10637006 -0.114952624
-0.014269799 -0.055757187 0.021099605 -0.049076147 0.054579146 0.11637069 0.08286848 -0.08106346
0.0927458 -0.11074827 -0.120894246 0.03706926 -0.017670633 0.09817461 -0.08676263 -0.076998614
-0.052257042 0.09546024 -0.010026748 -0.053746466 0.09955734 0.088833995 0.03278428 0.020694861
-0.093747094 0.070385 -0.11723958 -0.037681665 0.11587604 -0.047077008 -0.06308715 -0.10798307
0.11759272 -0.10124375 0.05659377 0.044770055 -0.044149745 -0.0031827088 0.071902856 0.00038636167
0.017634064 0.046873495 -0.020028023 0.11822028 0.042873867 -0.018314727 -0.08965561 0.03243094
0.09117748 0.12791117 -0.008680577 0.15317412 -0.023385078 -0.08463435 0.1322311 -0.041565564
-0.0236716 0.01784748 0.06763079 0.042013597 0.011987642 0.040570334 0.03306048 0.05274909
-0.08488229 -0.06232572 -0.00770062 0.11629603 0.017266372 0.1256511 0.0074712024 0.14386529
0.067961864 -0.06690317 -0.03321451 0.00794547 0.10477927 0.0039293882 -0.06444499 0.07114064
0.058799136 -0.078502715 -0.015045554 0.14796631 0.094970316 0.056596503 0.029158069 0.122528434
0.08228758 0.14565983 0.1019811 -0.09584298 0.04015937 0.019864012 0.12044213 0.018473603
-0.06330144 0.14235964 -0.060729768 0.012677777 0.09846714 0.097252704 -0.109007426 -0.06397044
0.04534693 -0.14055945 -0.034190357 0.120331116 -0.03692192 0.05000766 0.12923689 0.070046216
00000000: 847d e03d 935f a9bd 24bf 90bd 1671 803d
00000010: 5a42 8abc 0339 45bd e46d 87bd 3e9d 61bd
00000020: 1e6f 173e 3bf0 b53d 7708 a1ba 9339 afbd
00000030: f454 a7bd 11dc 183e 7815 463d b5b2 2c3d
00000040: 1268 edbd 986f ddbd 6e59 7fbd 741e 0d3e
00000050: e16a 2fbc f283 953c 8ab3 82bb 9a11 c0bd
00000060: 33fb 11bc 13cf 0dbe 0ad4 a23d 9a9c 18be
00000070: 4971 563d 14b8 1f3e e4d9 733d 8f71 5b3d
00000080: ad54 8b3d cb1a da3c 54d8 953d 74a1 32bd
00000090: 6a82 abbc b4ef 813d 8fd3 c73c 0f9f 113d
000000a0: 8618 e53d 6bf0 1b3d b796 b33d b4a5 bebc
000000b0: 9c8b 12bd c24e fc3c a2f2 193e 77ac f13d
000000c0: 0826 02be 99c6 a63d 593f 5c3d ffa2 dcbd
000000d0: f109 153d 01a9 c73d 7b54 dd3d 6b4a 7f3d
000000e0: f11d 5cbd 0d18 f1bd f9eb f1bc d52d 693d
000000f0: 9e64 01bd 04e2 b13d 4b8f 9fbc 16bc 67bd
00000100: 099e 1cbb f116 ed39 17cb ac3d 30a1 433d
00000110: 228e a33c 96ea 78bc ac18 713d 5df1 07bd
00000120: 5a24 04be e983 91bc a738 353d d47f f4bc
00000130: 1b66 453d 7791 c63d 48cd 79bd 44dc b73d
00000140: 7ed3 acbd a700 c2bd 7012 bd3d b781 edbd
00000150: 899d 10be 485e 06be df78 f53d c657 a13d
00000160: 610a 08be 0fb1 1e3d ae82 8f3d c8f2 87bd
00000170: 9ccf b13d 3ca6 8c3d e808 a23b d58b c73d
00000180: 5341 ac3d 6cea 913d d2df 17bd d9a1 c63d
00000190: 9210 983d 98c6 403d 0107 33bd 5266 463d
000001a0: ca13 533d 9104 6e3c a673 123d 56ed e7bd
000001b0: 9df0 fa3d 499a 7ebc 2eaa da3d f625 d83c
000001c0: 2720 17bd 494e a03d b678 b33c b647 a8bd
000001d0: 732d 96bc dea4 07be 9cc6 593d 2174 813d
000001e0: 5a1a 1cbd 3143 45bc d06a 69bd 4099 d5bd
000001f0: 1999 8a3d 0e30 9f3d aa44 693d 1f7b 793c
00000200: 6596 493b 84ce 24bd 4d17 f53c 6884 4d3c
00000210: 5c16 5fbc ded9 a63d 7af7 913c 78f9 9dbd
00000220: 83fb 14bd e9d6 ea3d adb5 97bd 564d d2bd
00000230: dde4 903d 4426 b33d 8cd8 d93d 486c ebbd
00000240: e0cb 69bc a661 64bd 14d9 ac3c 1204 49bd
00000250: 628e 5f3d c253 ee3d f3b6 a93d 9904 a6bd
00000260: 83f1 bd3d fdcf e2bd 6797 f7bd f0d5 173d
00000270: 01c2 90bc c50f c93d 9bb0 b1bd 73b1 9dbd
00000280: 7b0b 56bd a980 c33d 3b47 24bc 4125 5cbd
00000290: b8e4 cb3d 99ee b53d cf48 063d 4588 a93c
000002a0: 7afe bfbd 0326 903d 4e1b f0bd 1758 1abd
000002b0: 6b50 ed3d d2d3 40bd d633 81bd 3a26 ddbd
000002c0: 74d4 f03d e258 cfbd dece 673d ce60 373d
000002d0: 5dd6 34bd fe94 50bb ce41 933d 9690 ca39
000002e0: 5075 903c 6cfe 3f3d cf11 a4bc 791d f23d
000002f0: 829c 2f3d c408 96bc 5c9d b7bd 4ed6 043d
00000300: 42bb ba3d 25fb 023e fb38 0ebc add9 1c3e
00000310: 1092 bfbc c654 adbd 9767 073e a740 2abd
00000320: f1ea c1bc e134 923c 0382 8a3d 7316 2c3d
00000330: d167 443c 142d 263d 6d6a 073d 6e0f 583d
00000340: c4d6 adbd 4149 7fbd 7c55 fcbb 9d2c ee3d
00000350: 3572 8d3c afaa 003e fdd0 f43b 6c51 133e
00000360: 972f 8b3d 8704 89bd f00b 08bd b72d 023c
00000370: 8496 d63d 19c2 803b bcfb 83bd 2fb2 913d
00000380: 5dd7 703d 08c6 a0bd a181 76bc 7b84 173e
00000390: cc7f c23d bcd1 673d e7dc ee3c 30f0 fa3d
000003a0: 6486 a83d da27 153e 78db d03d 5349 c4bd
000003b0: 277e 243d dab9 a23c 5daa f63d f455 973c
000003c0: 2fa4 81bd bac6 113e c7bf 78bd 73b6 4f3c
000003d0: 24a9 c93d 6d2c c73d 493f dfbd ef02 83bd
000003e0: b4bd 393d d1ee 0fbe 300b 0cbd 2970 f63d
000003f0: 703b 17bd d5d4 4c3d ad56 043e 6474 8f3d

lstm.bias_ih_l1 f4 [256]
-0.025051568 0.108833656 -0.09539357 -0.16740711 -0.078350805 -0.013285584 0.08964158 -0.020018809
0.09117135 0.07502662 -0.15306199 -0.04460679 0.05671979 -0.034520425 0.04914085 -0.06372739
-0.058418017 -0.14243588 -0.07130276 -0.015410155 0.062697455 0.060060687 -0.029809413 -0.042081416
-0.04736498 -0.13311273 0.039712094 -0.15105747 -0.032594226 -0.03773899 -0.07023838 -0.08133513
-0.08232015 -0.09995105 0.08582681 -0.11554593 -0.026549347 -0.09265854 -0.08644901 0.044091552
0.05731089 0.041615177 0.111417376 -0.042747304 -0.1329715 -0.07418093 0.052384008 0.030452875
-0.09177719 -0.013073814 -0.023255566 0.08597534 0.08410964 0.025422553 0.03487848 0.06633781
-0.00799607 0.09520517 0.07484791 -0.07733803 0.0045875227 0.042776577 -0.03959205 0.001437613
-0.02303588 0.023691319 0.054119952 -0.04754278 -0.011487928 -0.062409867 0.12424119 -0.0747417
0.02958114 -0.07493512 -0.13434409 -0.064317115 -0.12811746 0.0017855231 -0.06572534 0.01364016
-0.10219458 0.065356776 0.016646102 0.0053470437 0.11439222 -0.0031881789 -0.07699076 -0.021841303
0.08109361 -0.06451152 0.14770351 0.09950188 -0.10004517 0.057553895 0.10612998 -0.0018297519
0.04836598 0.028768178 0.00832458 0.029774087 0.04955457 -0.0038404146 -0.0720137 0.13845822
-0.029513715 -0.033580504 -0.1658842 -0.07960685 -0.0210857 -0.025232697 -0.05823672 -0.036188103
-0.16795196 -0.07502426 0.012241008 0.12626581 0.11591172 0.09169003 -0.13100702 0.07603626
0.07994387 0.0048674056 -0.0042369314 -0.028292453 0.11279601 0.012752534 -0.17379376 -0.03857866
-0.054626312 -0.039912835 0.09224827 0.07159161 -0.08540016 0.06552957 0.027117865 0.080918334
-0.10512366 -0.09800503 -0.036078367 0.104820244 0.014129357 -0.055843845 0.11417166 0.064110324
0.0896458 -0.03507568 -0.08336902 -0.07174327 -0.07925209 0.019940516 0.068461 0.00093299267
-0.11549923 0.029532084 -0.061866097 0.0134289395 -0.08028433 -0.08250095 0.09396262 -0.028136395
0.07773998 0.012319734 -0.04676432 -0.08854169 -0.14831524 0.038250938 -0.028843107 -0.14881743
-0.09500098 -0.03915161 0.047924224 -0.006880157 0.04861278 0.09109173 -0.11443623 -0.1271784
-0.037436698 0.10704429 0.077371664 -0.040418975 0.037325274 -0.05057756 0.0233105 -0.13321841
0.065222844 -0.035493597 0.06606302 -0.07725553 -0.054725483 0.067646116 0.056460373 -0.07351791
0.021563958 0.1400575 -0.053324975 -0.038547635 0.056783438 -0.0590645 -0.08367837 -0.12319263
-0.067156635 0.036176402 -0.049820047 -0.06814412 -0.06920868 -0.044481225 -0.03370967 -0.16823833
-0.068695545 -0.06071633 0.101419896 0.0734388 0.03892007 -0.10215846 -0.0556562 0.10464989
0.016740993 -0.06093506 0.13139696 -0.14889012 -0.15290461 0.051187113 0.02939811 0.05995389
-0.13348462 -0.004708629 0.015367942 0.04760769 0.055775486 0.036845893 -0.13929877 0.08506677
-0.10830295 -0.038918197 0.07318161 -0.017386686 0.049577627 0.03639104 -0.11355951 0.086774655
0.080711804 -0.086216144 0.099037044 -0.008497083 0.108237505 0.10038899 0.058349855 0.12331667
-0.033732485 -0.019219974 0.05137432 -0.011603126 0.043130375 -0.076706104 -0.077493586 0.083902135
00000000: f238 cdbc 2ee4 de3d b45d c3bd c56c 2bbe
00000010: 6376 a0bd c7ab 59bc 0196 b73d 7cfe a3bc
00000020: 0bb8 ba3d 8ea7 993d 48bc 1cbe 9cb5 36bd
00000030: 0353 683d 4a65 0dbd ea47 493d 8183 82bd
00000040: bb47 6fbd b6da 11be 2e07 92bd e07a 7cbc
00000050: 8667 803d 3202 763d df32 f4bc 905d 2cbd
00000060: c801 42bd b44e 08be 26a9 223d cfae 1abe
00000070: 8681 05bd 3394 1abd 24d9 8fbd 0893 a6bd
00000080: 7897 a8bd 23b3 ccbd f7c5 af3d 58a3 ecbd
00000090: 047e d9bc c3c3 bdbd 2e0c b1bd 5899 343d
000000a0: d3be 6a3d ad74 2a3d cb2e e43d cc17 2fbd
000000b0: ae29 08be 2cec 97bd 9d90 563d 4f78 f93c
000000c0: aef5 bbbd 8d33 56bc 7582 bebc d713 b03d
000000d0: ad41 ac3d f542 d03c bddc 0e3d 1edc 873d
000000e0: f301 03bc eefa c23d dc49 993d 6763 9ebd
000000f0: ee52 963b 7e36 2f3d 462b 22bd 4a6e bc3a
00000100: beb5 bcbc 4c14 c23c e2ac 5d3d 38bc 42bd
00000110: dd37 3cbc 7da1 7fbd 2a72 fe3d 2d12 99bd
00000120: 2654 f23c 9677 99bd 7f91 09be b1b8 83bd
00000130: 3931 03be 3708 ea3a 029b 86bd fa7a 5f3c
00000140: 644b d1bd c6d9 853d 685d 883c 4136 af3b
00000150: 7846 ea3d c4f0 50bb 55ad 9dbd 88ec b2bc
00000160: 6814 a63d 9e1e 84bd 973f 173e a4c7 cb3d
00000170: 7be4 ccbd a2bd 6b3d ad5a d93d 49d4 efba
00000180: 681b 463d 3eab eb3c d263 083c c9e8 f33c
00000190: bcf9 4a3d 77af 7bbb eb7b 93bd fec7 0d3e
000001a0: bfc6 f1bc b68b 09bd 8cdd 29be eb08 a3bd
000001b0: ebbb acbc cdb4 cebc a089 6ebd fa39 14bd
000001c0: 99fb 2bbe 52a6 99bd 828e 483c d34b 013e
000001d0: 2063 ed3d fcc7 bb3d b426 06be e6b8 9b3d
000001e0: 9db9 a33d c27e 9f3b f5d5 8abb 93c5 e7bc
000001f0: 9801 e73d 01f0 503c fef6 31be a804 1ebd
00000200: d7bf 5fbd a47b 23bd a9ec bc3d 9f9e 923d
00000210: 47e6 aebd 5e34 863d 4926 de3c 83b8 a53d
00000220: 134b d7bd dcb6 c8bd e9c6 13bd ffab d63d
00000230: d27e 673c 84bc 64bd d5d2 e93d 464c 833d
00000240: 3898 b73d 84ab 0fbd 60bd aabd 23ee 92bd
00000250: eb4e a2bd 4b5a a33c 4835 8c3d 1494 743a
00000260: dc8a ecbd 45ed f13c 4e67 7dbd 0e05 5c3c
00000270: 1c6c a4bd 42f6 a8bd 796f c03d 4c7e e6bc
00000280: 2336 9f3d b6d8 493c f28b 3fbd 5855 b5bd
00000290: f3df 17be 04ad 1c3d 6148 ecbc 9963 18be
000002a0: e08f c2bd 705d 20bd 314c 443d f172 e1bb
000002b0: 321e 473d 4d8e ba3d 8b5d eabd 0e3b 02be
000002c0: 3957 19bd 093a db3d 0975 9e3d 5e8e 25bd
000002d0: 63e2 183d 6a2a 4fbd a9f5 be3c 686a 08be
000002e0: 8e93 853d bc61 11bd 0c4c 873d 2638 9ebd
000002f0: d427 60bd 0c8a 8a3d fe42 673d 8f90 96bd
00000300: e6a6 b03c 3c6b 0f3e 4a6b 5abd 20e4 1dbd
00000310: c095 683d 9eed 71bd 915f abbd 6b4c fcbd
00000320: 6b89 89bd b52d 143d 1b10 4cbd 258f 8bbd
00000330: 48bd 8dbd f231 36bd 2713 0abd ab46 2cbe
00000340: 40b0 8cbd b0b1 78bd 3cb5 cf3d 1567 963d
00000350: a76a 1f3d 7438 d1bd c1f7 63bd ae52 d63d
00000360: 6824 893c 0b97 79bd ed8c 063e a776 18be
00000370: 0793 1cbe 94a9 513d 4ed4 f03c 3692 753d
00000380: 31b0 08be d84a 9abb d2c9 7b3c 4800 433d
00000390: d674 643d b8eb 163d 56a4 0ebe 7d37 ae3d
000003a0: f0cd ddbd b068 1fbd 3de0 953d 866e 8ebc
000003b0: e911 4b3d c50e 153d e391 e8bd e9b6 b13d
000003c0: 3b4c a53d 1792 b0bd efd3 ca3d 5937 0bbc
000003d0: a0ab dd3d be98 cd3d 4200 6f3d 738d fc3d
000003e0: 132b 0abd 3573 9dbc e16d 523d 0a1b 3ebc
000003f0: 7aa9 303d 1718 9dbd f5b4 9ebd e2d4 ab3d
