models/lstm_santanderbueno.pt (torch, 232413 bytes, 11 tensors)

lstm.weight_ih_l0 f4 [256, 11]
0.05467072 -0.06586 -0.08122329 -0.060306527 -0.10514737 0.53232014 0.036794424 -0.042206954
-0.05763525 -0.048551995 -0.021532577 0.17383893 0.13894482 -0.06266775 0.131607 0.104653835
0.6707443 -0.005237771 -0.029598476 -0.058942873 0.09798363 -0.18384176 0.07653977 -0.07378585
0.05987525 -0.07747051 0.092403606 0.58721006 0.038194824 -0.0903702 -0.014137413 -0.08628223
-0.08382912 0.03351259 -0.11348174 0.088551685 0.020126643 -0.1391471 0.38482392 -0.069187455
0.05874978 -0.03187811 0.04732276 0.10884848 0.09808316 -0.08217342 0.004333245 0.047465894
-0.11707035 0.45156676 0.03923089 -0.04435627 0.11970516 -0.07915832 -0.023905154 0.109526195
-0.028386116 -0.020832034 -0.1300215 0.057948165 0.59984016 -0.02572923 0.04059925 -0.07474351
0.023259303 0.103127494 0.076085694 0.10379645 0.13474023 0.07659492 -0.105150886 1.0949508
0.067040324 0.1406197 -0.018352725 0.04488617 0.13306493 0.12964551 -0.046102013 0.14864805
-0.037596527 0.034176745 0.6309691 -0.031881116 0.0080563035 0.06416061 -0.094205655 0.07478955
0.033360463 0.09458648 -0.091472074 -0.027719589 0.019514482 0.83745223 0.025651727 0.059362344
0.074685395 -0.0053610187 -0.019874372 0.040684775 0.15173623 0.16148217 0.05341654 0.08969275
0.59099656 0.015782129 0.1206835 -0.09356235 -0.08180397 0.06381092 0.049099322 -0.13229674
-0.054953706 0.12904751 0.032794107 -0.13625455 0.014031766 0.111418635 0.1262166 0.15061247
-0.07908574 -0.11781094 -0.004651347 -0.072007 -0.07272401 -0.13422558 0.3269655 -0.09560572
0.047024477 0.059665095 -0.09703666 -0.052644286 -0.049628243 0.020429973 0.03508155 -0.072997674
0.09305159 0.6439299 0.08482464 0.01862943 -0.040345307 0.08805873 0.087813266 -0.08340649
-0.039454583 0.02136104 0.12528333 0.037406426 0.09433914 -0.08639946 0.08745525 0.16194068
0.19286576 -0.1209473 -0.023995185 0.013611203 0.087210484 0.10189144 0.059258606 -0.48556942
-0.09391403 -0.054933213 -0.018789278 -0.01789937 -0.14159508 0.0056693754 0.053554673 0.06431712
1.1154394e-05 0.17095216 0.77550536 0.08092491 0.059287295 -0.06161652 0.09519444 -0.055233963
-0.020138722 0.12318414 0.057320233 -0.054661334 0.11160157 0.6681531 -0.04005157 -0.061684154
-0.011425979 0.042567827 -0.10322569 0.0316912 -0.044232648 0.029375326 -0.03628059 -0.06292481
0.6071312 0.10783521 0.12899052 -0.027146392 0.08612651 -0.05056232 0.044768542 0.109126754
-0.02148321 0.15081055 0.10884206 -0.053648867 0.10925406 0.12296716 -0.021299925 0.07446895
-0.10679532 0.069428675 -0.091731995 -0.015329917 0.101002365 -0.067481756 -0.81970257 -0.09990191
0.043169763 -0.052228916 0.020001797 0.0068083857 -0.053363208 0.051758308 -0.05192101 -0.08795895
-0.09783214 0.74116254 0.093398005 0.0025430084 -0.027032191 0.11380271 0.0112596 -0.09378252
0.036779616 0.06929022 0.12666045 -0.072083145 0.4437456 -0.026707169 -0.028873712 0.09294917
-0.008387181 0.046379134 0.020411592 0.03246585 0.047857527 0.014261135 0.042734977 1.1486719
-0.033296224 -0.07387368 0.096436195 0.08774762 0.058264647 0.028122837 0.021220835 0.053392302
00000000: 68ee 5f3d 9ce1 86bd 6558 a6bd fa03 77bd
00000010: 8157 d7bd 2246 083f c0b5 163d 33e1 2cbd
00000020: f112 6cbd 75de 46bd 1665 b0bc d502 323e
00000030: 8d47 0e3e f357 80bd fcc3 063e c054 d63d
00000040: e6b5 2b3f 9ca1 abbb 8178 f2bc 156e 71bd
00000050: a4ab c83d 0441 3cbe e2c0 9c3d 091d 97bd
00000060: c03f 753d dca8 9ebd 1a3e bd3d 6653 163f
00000070: 2d72 1c3d 0314 b9bd 9ca0 67bc bdb4 b0bd
00000080: 9aae abbd 7f44 093d 1d69 e8bd 965a b53d
00000090: a1e0 a43c 947c 0ebe a407 c53e 27b2 8dbd
000000a0: 9ca3 703d 9f92 02bd 83d5 413d f4eb de3d
000000b0: d3df c83d 8a4a a8bd e5fd 8d3b 996b 423d
000000c0: 94c2 efbd c233 e73e 92b0 203d ecae 35bd
000000d0: fb27 f53d c21d a2bd bed4 c3bc 454f e03d
000000e0: 008a e8bc f1a7 aabc 5b24 05be 0e5b 6d3d
000000f0: 208f 193f 1bc6 d2bc 664b 263d 2013 99bd
00000100: 4b8a be3c 8234 d33d d1d2 9b3d 3c93 d43d
00000110: 58f9 093e ccdd 9c3d 5959 d7bd 5927 8c3f
00000120: 704c 893d 9cfe 0f3e 7458 96bc 90da 373d
00000130: 2c42 083e cbc1 043e 77d5 3cbd 3237 183e
00000140: d1fe 19bd eafc 0b3d 3187 213f c695 02bd
00000150: 96fe 033c a366 833d e5ee c0bd 432b 993d
00000160: fba4 083d 8eb6 c13d b655 bbbd 3114 e3bc
00000170: d6dc 9f3c 4563 563f 9223 d23c ee25 733d
00000180: a8f4 983d 7cab afbb 94cf a2bc 14a5 263d
00000190: be60 1b3e 955b 253e 4dcb 5a3d d5b0 b73d
000001a0: 8d4b 173f 8649 813c e928 f73d 9e9d bfbd
000001b0: d788 a7bd 4daf 823d 5f1c 493d cc78 07be
000001c0: 2317 61bd 0825 043e 1d53 063d 5086 0bbe
000001d0: 7ee5 653c 742f e43d ed3e 013e 283a 1a3e
000001e0: b4f7 a1bd dd46 f1bd 546a 98bb 6878 93bd
000001f0: 53f0 94bd 6e72 09be 0668 a73e efcc c3bd
00000200: bd9c 403d 6363 743d 28bb c6bd 89a1 57bd
00000210: fc46 4bbd c25c a73c acb1 0f3d ce7f 95bd
00000220: d591 be3d 97d8 243f 8ab8 ad3d bf9c 983c
00000230: 1f41 25bd 2358 b43d 71d7 b33d 06d1 aabd
00000240: 219b 21bd 59fd ae3c 464a 003e 7b37 193d
00000250: e134 c13d 33f2 b0bd bd1b b33d c7d3 253e
00000260: 9a7e 453e 38b3 f7bd 8d91 c4bc 8601 5f3c
00000270: 699b b23d 76ac d03d 27b9 723d 8e9c f8be
00000280: 0056 c0bd a601 61bd f9eb 99bc b3a1 92bc
00000290: 4dfe 10be 2bc6 b93b 255c 5b3d b2b8 833d
000002a0: c223 3b37 150e 2f3e 8587 463f f6bb a53d
000002b0: 3cd7 723d 9b61 7cbd 4df5 c23d 023d 62bd
000002c0: f6f9 a4bc f747 fc3d 9fc8 6a3d 90e4 5fbd
000002d0: 5d8f e43d 150c 2b3f 1d0d 24bd 86a8 7cbd
000002e0: 0834 3bbc 9a5b 2e3d fe67 d3bd a2ce 013d
000002f0: 4b2d 35bd 86a4 f03c f59a 14bd b9de 80bd
00000300: f36c 1b3f b5d8 dc3d 1716 043e 1c62 debc
00000310: 1863 b03d 6f1a 4fbd 385f 373d d97d df3d
00000320: 8ffd afbc 156e 1a3e 96e8 de3d eabe 5bbd
00000330: 98c0 df3d 35d6 fb3d 2e7d aebc 2d83 983d
00000340: 81b7 dabd 9f30 8e3d fcdd bbbd 552a 7bbc
00000350: 54da ce3d e033 8abd 07d8 51bf 5f99 ccbd
00000360: c7d2 303d fded 55bd cfda a33c e118 df3b
00000370: 6193 5abd 8500 543d 20ab 54bd d223 b4bd
00000380: 385c c8bd d4bc 3d3f 7447 bf3d 9aa8 263b
00000390: 9d72 ddbc 6511 e93d 2f7a 383c 0d11 c0bd
000003a0: 39a6 163d 08e8 8d3d 47b3 013e 54a0 93bd
000003b0: a032 e33e fec8 dabc 9088 ecbc 225c be3d
000003c0: 636a 09bc 0cf8 3d3d 3636 a73c e9fa 043d
000003d0: 4106 443d 89a7 693c df0a 2f3d ae07 933f
000003e0: 9f61 08bd 154b 97bd 5780 c53d 06b5 b33d
000003f0: e9a6 6e3d dd61 e63c 51d7 ad3c e3b1 5a3d

lstm.weight_hh_l0 f4 [256, 64]
0.008496306 0.041590583 -0.1329881 0.06447386 -0.06977724 -0.0729947 0.020817434 -0.09915111
0.112663604 0.09863807 -0.06935079 0.039458398 -0.06800742 0.043705095 0.0074822633 -0.025536796
0.08912325 0.09617654 -0.13650773 -0.0093850065 0.10420207 0.11150669 0.06278039 -0.059965014
0.023320584 0.12141699 0.027944703 0.0883033 0.095850855 0.087470025 -0.07169486 -0.033107296
0.101294756 -0.04720861 0.09209402 0.015518693 0.094954416 0.010485261 -0.07252491 0.037608918
0.10061954 0.11545889 0.09435252 -0.009455009 -0.036367636 0.10993005 -0.0018957119 0.07536879
-0.012121318 -0.099501014 -0.11470059 -0.07584628 0.056017306 -0.08899446 0.028179498 0.10027235
-0.11305801 -0.018769555 -0.045418534 0.050235923 0.001206742 -0.067038335 -0.08770354 0.13354765
0.06518373 -0.102478184 -0.079129934 -0.02070993 -0.09429817 -0.056246545 0.033431444 -0.112850636
0.11915168 -0.10052586 -0.12870418 0.018523332 0.033932954 -0.017280899 0.05819766 -0.012676669
-0.056954607 -0.09241841 0.016118582 -0.03024867 0.030956881 -0.08521921 -0.029671872 -0.043887597
-0.0019017354 0.034827773 -0.09156441 0.19332981 -0.0811198 -0.03260673 0.124887384 0.14125706
-0.038025852 -0.07666033 0.090000264 -0.051517595 0.03326246 0.077940375 0.05736659 0.07196536
-0.040515445 -0.06684105 0.095389634 -0.13985494 0.10627118 -0.06969059 -0.114228986 0.09485332
0.04822929 0.056831706 0.06109174 0.040442664 0.06951186 -0.02713938 0.05492757 -0.13617931
0.047497377 -0.12142117 0.08425198 0.06184957 0.1427781 0.0009885472 -0.024348682 0.07838292
-0.10060041 0.09724249 -0.043168236 0.033615544 -0.09238245 -0.08702052 0.010382844 -0.10984258
0.0036156785 -0.06294872 0.059940677 -0.10909795 0.04242972 -0.006732599 0.102354564 -0.054857958
0.10881807 0.023517855 -0.036868304 -0.050756298 -0.03948578 -0.011740879 -0.020036282 0.11703645
-0.051255025 -0.0032421858 0.027940767 -0.05735532 0.05832665 -0.0057617314 0.03433717 -0.05175646
-0.0986577 0.10107541 0.096202865 -0.07339716 0.09351247 0.004367447 0.085702285 0.05637368
-0.07849821 0.04054893 0.018270709 0.046183966 0.158433 -0.044925693 -0.048019964 0.07710736
-0.027624557 0.11997392 -0.05536184 0.06596396 0.10958031 -0.084737025 0.09742525 0.06161598
-0.030481413 -0.124632925 -0.0030268542 -0.04034546 0.017462745 -0.08826213 0.017219633 -0.079374894
-0.10858682 -0.064858995 0.075616166 -0.033902403 -0.0985624 -0.13017637 -0.075487524 -0.06439511
0.08957519 -0.052929297 -0.04759418 0.04426614 0.012892123 -0.00022444881 -0.045047916 -0.011879733
0.091722034 0.09246456 0.014665312 0.014072658 -0.033733636 -0.118926354 0.021829037 0.061139643
-0.1122376 -0.0069859326 -0.072750024 0.061428644 -0.111402825 0.08227661 -0.09419528 0.08629668
-0.08442424 -0.053111505 -0.0656925 0.0019043129 -0.09052315 0.11359614 0.019767486 0.0014806993
-0.10052094 0.031765997 0.11512608 0.02076231 0.10560528 -0.06698846 -0.045093145 -0.06876548
0.024300074 0.0026008517 0.07294057 0.019406842 0.120030366 0.11095999 0.029497819 -0.05561939
0.08754686 0.038482968 0.109671965 0.063746914 0.07840102 0.033616446 -0.0444722 0.0163001
00000000: 1734 0b3c e35a 2a3d 082e 08be df0a 843d
00000010: 5fe7 8ebd 3f7e 95bd 5389 aa3c bd0f cbbd
00000020: 2dbc e63d c202 ca3d c907 8ebd 219f 213d
00000030: 7947 8bbd 1d04 333d c62d f53b 8b32 d1bc
00000040: 4086 b63d 35f8 c43d afc8 0bbe 92c3 19bc
00000050: e567 d53d 9f5d e43d 0193 803d e09d 75bd
00000060: cf0a bf3c 79a9 f83d 4aec e43c 5cd8 b43d
00000070: 744d c43d 7c23 b33d c1d4 92bd 849b 07bd
00000080: a073 cf3d d15d 41bd ca9b bc3d 1e42 7e3c
00000090: 7677 c23d 5fca 2b3c f187 94bd cf0b 1a3d
000000a0: 9e11 ce3d b675 ec3d e53b c13d 2fe9 1abc
000000b0: 3bf6 14bd 0223 e13d 8979 f8ba f45a 9a3d
000000c0: 7e98 46bc 30c7 cbbd 25e8 eabd 4b55 9bbd
000000d0: 6772 653d ba42 b6bd b1d8 e63c 975b cd3d
000000e0: f58a e7bd 9cc2 99bc c908 3abd 2fc4 4d3d
000000f0: 8b2b 9e3a 654b 89bd ea9d b3bd b7c0 083e
00000100: 0c7f 853d 15e0 d1bd e00e a2bd dfa7 a9bc
00000110: 661f c1bd c762 66bd 69ef 083d 3c1e e7bd
00000120: cc05 f43d 81e0 cdbd 07cb 03be 3ebe 973c
00000130: 48fd 0a3d ac90 8dbc ab60 6e3d ceb1 4fbc
00000140: 3c49 69bd dd45 bdbd 1e0b 843c 0fcc f7bc
00000150: 4999 fd3c 6987 aebd 6d12 f3bc 7bc3 33bd
00000160: a743 f9ba 91a7 0e3d 1f86 bbbd 40f8 453e
00000170: 2322 a6bd a28e 05bd f5c4 ff3d b1a5 103e
00000180: ffc0 1bbd 1700 9dbd 0f52 b83d 1d04 53bd
00000190: 383e 083d 349f 9f3d 3bf9 6a3d 9362 933d
000001a0: 86f3 25bd f6e3 88bd a45b c33d 2236 0fbe
000001b0: b4a4 d93d f1b9 8ebd e3f0 e9bd 7542 c23d
000001c0: 138c 453d 5dc8 683d 553b 7a3d 35a7 253d
000001d0: 3c5c 8e3d 6853 debc bbfb 603d 9772 0bbe
000001e0: 9c8c 423d aaab f8bd 4d8c ac3d fa55 7d3d
000001f0: 6c34 123e 2492 813a e376 c7bc 3987 a03d
00000200: 9607 cebd 1227 c73d 2dd1 30bd 74b0 093d
00000210: 0333 bdbd d037 b2bd ce1c 2a3c 26f5 e0bd
00000220: 05f5 6c3b 42eb 80bd 5b84 753d bf6e dfbd
00000230: c9ca 2d3d 229d dcbb 459f d13d bdb2 60bd
00000240: 02dc de3d 84a8 c03c 3803 17bd d6e5 4fbd
00000250: d7bb 21bd d15c 40bc 2123 a4bc ceb0 ef3d
00000260: caf0 51bd da7a 54bb 09e4 e43c 69ed 6abd
00000270: ede7 6e3d e8cc bcbb 22a5 0c3d 95fe 53bd
00000280: 0c0d cabd a000 cf3d 0206 c53d 4051 96bd
00000290: 7783 bf3d cd1c 8f3b ae84 af3d 16e8 663d
000002a0: abc3 a0bd a316 263d 74ac 953c 662b 3d3d
000002b0: 433c 223e 0104 38bd 95b0 44bd 77ea 9d3d
000002c0: e54c e2bc e3b4 f53d 19c3 62bd 1d18 873d
000002d0: a46b e03d 9b8a adbd e486 c73d 0a61 7c3d
000002e0: 28b4 f9bc 8c3f ffbd 305e 46bb 4841 25bd
000002f0: 080e 8f3c c7c2 b4bd 3010 8d3c 4e8f a2bd
00000300: c462 debd cbd4 84bd a6dc 9a3d 3fdd 0abd
00000310: 15db c9bd f44c 05be 3499 9abd 95e1 83bd
00000320: 3273 b73d 64cc 58bd 1df2 42bd 6950 353d
00000330: 7c39 533c 055a 6bb9 2a84 38bd 36a3 42bc
00000340: c3d8 bb3d 0f5e bd3d c746 703c 0191 663c
00000350: 482c 0abd a98f f3bd cfd2 b23c 906d 7a3d
00000360: d4dc e5bd 40ea e4bb f7fd 94bd 9a9c 7b3d
00000370: 2a27 e4bd a480 a83d 74e9 c0bd 50bc b03d
00000380: 9ee6 acbd 738b 59bd ca89 86bd 239a f93a
00000390: 3464 b9bd 18a5 e83d 6cef a13c 0614 c23a
000003a0: ecdd cdbd 101d 023d 39c7 eb3d b815 aa3c
000003b0: 9547 d83d 3f31 89bd 97b3 38bd ead4 8cbd
000003c0: f310 c73c 0d73 2a3b de61 953d 19fb 9e3c
000003d0: 7bd2 f53d fe3e e33d 69a5 f13c 28d1 63bd
000003e0: c54b b33d 51a0 1d3d b29b e03d be8d 823d
000003f0: b790 a03d 66b1 093d 7b28 36bd ca87 853c

lstm.bias_ih_l0 f4 [256]
-0.102998376 -0.02697078 0.004393644 -0.08291023 -0.015268303 0.10786181 -0.09370149 0.027347641
0.03817533 0.05344943 -0.018435456 0.10107199 -0.005787089 0.14643086 -0.01601114 0.08512948
0.03133339 0.019878479 0.050161745 0.10365635 -0.08744828 0.07383935 -0.031833462 0.049234226
-0.10681295 0.076483674 -0.08706248 -0.012466053 0.010206908 0.16760455 0.14348069 0.14982009
0.0827253 -0.0861509 -0.000785858 0.17420654 0.028577682 0.06708103 -0.08786559 0.092095226
0.05361756 0.08542086 0.004587634 0.0025921708 -0.03389629 0.070377104 -0.068615824 -0.021303616
0.020154564 0.025518501 -0.1142159 0.06764203 0.038260143 0.07771345 -0.051001124 0.014408992
-0.112048596 0.02875441 0.011726925 -0.07354374 0.079989746 0.01736515 -0.07268385 -0.07059941
0.076559775 -0.06462518 -0.052654117 0.061731197 0.02273458 -0.0690955 -0.05213247 -0.081300616
-0.09454655 -0.05442815 0.11703047 -0.10692094 0.0686193 0.015286324 -0.099589214 -0.022096165
0.07894658 0.028646592 -0.047235794 -0.040417906 -0.12362608 0.10884445 -0.040527932 0.03183191
0.034331728 0.10170168 -0.07217482 0.0031161935 -0.078843914 -0.143271 -0.086706445 0.093570516
0.010958983 0.084176034 -0.101788245 -0.04433338 0.08818504 -0.11230328 -0.12557209 0.10302612
0.09202195 0.0035128298 0.06670832 0.07441236 -0.035854124 -0.019819662 -0.0932104 0.06079497
-0.040663846 -0.062866166 0.11295685 0.11999455 -0.1402086 -0.1852493 -0.07718508 0.10649039
0.09406997 -0.036199417 0.00046902252 -0.07293353 0.04019531 0.07069921 0.09383073 -0.0812058
-0.06800206 0.082354985 0.0380775 -0.054126345 -0.05780264 -0.038530346 0.050372053 0.12505783
-0.0061204648 0.10839274 -0.14389764 0.1001624 -0.0127027035 -0.016490273 0.058527898 0.15036885
0.082582206 0.025401952 0.0580047 -0.054762736 0.029128313 -0.012352368 -0.08692489 0.018254831
0.13146561 0.0914113 0.0055027166 -0.09748239 -0.04147001 -0.0072721257 -0.10249597 0.047784604
-0.11702633 -0.058826767 -0.05367687 -0.06978109 0.055837926 -0.052307773 -0.045072645 0.102340765
-0.009066875 -0.08678866 -0.029283026 -0.020519586 -0.12948684 0.034781065 -0.025331698 0.017326009
0.024654059 -0.046642855 0.02905144 -0.070098735 0.0021248336 0.042238403 -0.056304663 -0.08317427
-0.0011395707 -0.017778307 -0.08705548 -0.060629908 0.06690616 0.09119537 -0.058436576 -0.07991628
-0.086148165 0.11604951 0.06601249 -0.0381221 -0.048546005 0.03924524 -0.10927454 -0.05782439
-0.048286755 0.08224934 -0.019362273 0.07814032 0.009922013 0.16862935 -0.0051096273 0.04723887
0.0030816568 0.044532396 0.112477005 0.034821402 -0.12290896 -0.11596006 -0.0037178332 0.09227275
-0.048345964 -0.076161504 -0.018020753 0.10466508 -0.033595618 0.12730017 0.1511303 0.17783412
0.055682633 0.010423605 0.06454595 -0.024393167 -0.06467169 -0.047155526 -0.081275254 0.054266803
0.004824054 0.04527836 0.044742677 0.10364074 0.035310466 -0.07373936 0.04063998 0.10444968
-0.076919585 -0.01867241 0.06667997 0.06963175 0.035117913 0.09845259 -0.08473547 -0.108141735
0.04713112 0.12013057 0.053207505 -0.03947744 0.11317949 0.101964995 -0.015975555 0.0275418
00000000: d0f0 d2bd d3f1 dcbc 8ff8 8f3b d7cc a9bd
00000010: e827 7abc a7e6 dc3d 91e6 bfbd 2908 e03c
00000020: bc5d 1c3d caed 5a3d f405 97bc d5fe ce3d
00000030: 9fa1 bdbb f9f1 153e cb29 83bc 5d58 ae3d
00000040: 7157 003d 31d8 a23c 6776 4d3d c849 d43d
00000050: 1518 b3bd 1639 973d ce63 02bd d4a9 493d
00000060: bfc0 dabd 79a3 9c3d d04d b2bd 6a3e 4cbc
00000070: e03a 273c 87a0 2b3e 9aec 123e 706a 193e
00000080: e26b a93d e26f b0bd 0a02 4eba 3363 323e
00000090: be1b ea3c c761 893d e0f2 b3bd 6c9c bc3d
000000a0: 169e 5b3d 22f1 ae3d dd53 963b 69e1 293b
000000b0: d6d6 0abd df21 903d 7486 8cbd ec84 aebc
000000c0: 2f1b a53c 2d0c d13c 07ea e9bd e887 8a3d
000000d0: abb6 1c3d 3b28 9f3d 8ee6 50bd b113 6c3c
000000e0: bc79 e5bd 5e8e eb3c 4a22 403c 1a9e 96bd
000000f0: aad1 a33d 5c41 8e3c 45db 94bd 6c96 90bd
00000100: 5fcb 9c3d 355a 84bd d8ab 57bd dad9 7c3d
00000110: df3d ba3c f181 8dbd db88 55bd f080 a6bd
00000120: 9fa1 c1bd 0df0 5ebd acad ef3d 5ef9 dabd
00000130: 4788 8c3d 7d73 7a3c 6ef5 cbbd 0403 b5bc
00000140: bfae a13d 42ac ea3c 527a 41bd 3f8d 25bd
00000150: ac2f fdbd d7e9 de3d 9e00 26bd 2d62 023d
00000160: 6d9f 0c3d f848 d03d 64d0 93bd 0d39 4c3b
00000170: eb78 a1bd a2b5 12be 2693 b1bd e6a1 bf3d
00000180: 4e8d 333c 7c64 ac3d 5b76 d0bd eb96 35bd
00000190: 5c9a b43d 43ff e5bd f895 00be 5cff d23d
000001a0: 0176 bc3d 8137 663b 5f9e 883d 8265 983d
000001b0: c6db 12bd d85c a2bc 18e5 bebd 2504 793d
000001c0: 228f 26bd fabf 80bd ec55 e73d b4bf f53d
000001d0: d892 0fbe feb1 3dbe 3613 9ebd a217 da3d
000001e0: c2a7 c03d d745 14bd 23e7 f539 2d5e 95bd
000001f0: d6a3 243d bfca 903d 532a c03d 3a4f a6bd
00000200: aa44 8bbd bba9 a83d 27f7 1b3d 96b3 5dbd
00000210: 76c2 6cbd ffd1 1dbd ed52 4e3d 290f 003e
00000220: 2e8e c8bb 03fd dd3d e759 13be f221 cd3d
00000230: 001f 50bc 9c16 87bc f3ba 6f3d 4bfa 193e
00000240: dc20 a93d c117 d03c 5696 6d3d e44e 60bd
00000250: 809e ee3c 9661 4abc ad05 b2bd 288b 953c
00000260: ec9e 063e d935 bb3d 2250 b43b d9a4 c7bd
00000270: 75dc 29bd 034b eebb 68e9 d1bd cab9 433d
00000280: 80ab efbd 56f4 70bd 47dc 5bbd 63e9 8ebd
00000290: 4fb6 643d ad40 56bd 189e 38bd 0998 d13d
000002a0: 3b8d 14bc 41be b1bd f5e2 efbc b118 a8bc
000002b0: 3398 04be 9776 0e3d 6c84 cfbc 46ef 8d3c
000002c0: 4ff7 c93c 940c 3fbd 49fd ed3c ed8f 8fbd
000002d0: cb40 0b3b 2d02 2d3d b89f 66bd 4657 aabd
000002e0: a65d 95ba d0a3 91bc 254a b2bd 1157 78bd
000002f0: 1906 893d a3c4 ba3d 315b 6fbd 26ab a3bd
00000300: 736e b0bd 5eab ed3d 8e31 873d eb25 1cbd
00000310: 2dd8 46bd 9ebf 203d 54cb dfbd 44d9 6cbd
00000320: 55c8 45bd 5872 a83d a19d 9ebc 0808 a03d
00000330: f08f 223c 2cad 2c3e a96e a7bb 8c7d 413d
00000340: 9ff5 493b 9a67 363d 585a e63d e3a0 0e3d
00000350: b1b7 fbbd 787c edbd e4a6 73bb 7ff9 bc3d
00000360: 6b06 46bd 90fa 9bbd 42a0 93bc a55a d63d
00000370: 8f9b 09bd fa5a 023e e7c1 1a3e 261a 363e
00000380: 7913 643d c5c7 2a3c ab30 843d 2ed4 c7bc
00000390: 9772 84bd 2726 41bd a473 a6bd de46 5e3d
000003a0: 1913 9e3b cd75 393d 1944 373d 9941 d43d
000003b0: b5a1 103d a904 97bd 1c76 263d b7e9 d53d
000003c0: 0488 9dbd e2f6 98bc 828f 883d 179b 8e3d
000003d0: cdd7 0f3d 83a1 c93d ca89 adbd 6a79 ddbd
000003e0: 900c 413d 0407 f63d 1df0 593d 19b3 21bd
000003f0: a6ca e73d 06d3 d03d 2bdf 82bc 579f e13c

lstm.bias_hh_l0 f4 [256]
-0.1255085 -0.11067591 0.034073792 -0.08830183 -0.0051517645 0.060269866 -0.019547839 0.007921069
0.002986457 -0.10110017 0.05870979 0.013674601 0.11629258 -0.05287435 -0.101295754 -0.0030141457
0.11520432 0.049192015 0.15688929 0.09789291 0.060146395 -0.09646441 0.07433781 0.01083095
0.019907327 -0.09884738 0.0011423159 0.12186062 0.03192172 0.16623035 0.13445003 0.17094134
-0.10079099 -0.10981181 0.0074881264 0.17569888 0.035400096 -0.031081902 0.10699165 0.09747715
-0.037509833 0.05511522 0.08157234 0.0077612903 -0.04811489 0.06496601 0.04312908 0.041988555
-0.004335741 0.07916025 0.009245444 -0.111656025 -0.07177139 -0.04660226 0.04055891 0.11934654
-0.060507547 0.080043696 0.0626298 0.0051313266 0.083703645 0.0065232483 0.09534658 -0.039632127
-0.017476227 -0.062382128 -0.11486476 -0.0043471837 -0.0140987495 0.037806176 0.018811373 -0.09777242
0.09802499 -0.08009562 -0.048514083 0.104252994 -0.049996026 0.053564303 0.11632763 -0.034013424
0.026767306 0.041963886 0.093534 -0.087307885 -0.008157067 -0.1271178 -0.020194339 0.004181213
-0.06203966 0.0992088 0.06607315 0.06013756 0.019792968 -0.035870425 0.050860237 0.103292495
-0.06201857 0.031844944 0.072094746 -0.02717035 -0.016111314 -0.13309821 -0.106055416 0.07311799
0.026937889 0.07500187 -0.10168805 -0.098573074 -0.078835286 -0.10365837 0.062110893 0.09693013
0.095686324 -0.10106222 -0.020010278 -0.026215455 -0.030778691 -0.06918878 -0.022265589 -0.064025305
-0.024223674 0.001289996 -0.055444986 -0.037578832 0.09788761 0.095321454 -0.07617633 -0.044926804
-0.10093386 -0.04291269 -0.06535862 -0.04971135 -0.036052883 0.06475422 -0.053339727 -0.09545419
-0.053899657 -0.094296366 0.08684592 0.051276524 0.008362058 -0.12717883 -0.10296809 -0.04653972
-0.022318292 -0.105472356 0.046186533 0.115058474 0.012608501 0.066361934 -0.08224018 -0.04956232
-0.041419145 -0.12836939 0.04347864 -0.08947241 -0.043989707 0.023450257 -0.06951923 -0.13947667
0.054521233 0.08185268 -0.0644959 -0.07347785 -0.07449653 0.02380676 0.06852112 0.02211316
-0.019433372 -0.020122241 -0.08855682 -0.06401585 0.024347847 0.033700228 -0.042678796 -0.007979506
0.013651211 0.07031747 0.05711995 -0.09350054 0.023687791 -0.105213076 0.03813862 0.07234955
0.09545119 0.012160505 -0.038817436 0.11639747 -0.14341447 0.0023024208 -0.01579668 -0.03591996
0.10942675 -0.036983773 0.0046125934 -0.10451862 -0.03893763 0.0848882 0.1290379 0.00399972
-0.08727177 -0.043207064 -0.032213364 -0.11796604 -0.09784199 0.14371133 0.0018683374 -0.07123765
-0.0058893836 -0.11339612 0.05869643 0.1024869 0.06601202 0.064776495 0.05903662 -0.047583394
0.10713114 -0.07636146 -0.1022389 -0.042517625 -0.043034192 0.13303874 0.06788166 0.0045274
0.07472467 -0.070068054 -0.031110642 0.18400186 0.0530697 0.042194728 -0.04029407 -0.028318828
-0.08171227 0.11302001 -0.09767216 0.06858323 -0.07178055 -0.085126035 0.114248455 -0.116649054
-0.031423833 -0.112982966 -0.083002396 0.122960985 0.059514355 0.050497662 0.0013207657 -0.026349511
0.011529449 -0.058744106 -0.07980548 -0.00018518658 -0.06776364 0.10422355 -0.08356653 -0.03607346
00000000: 4d85 00be 0daa e2bd f690 0b3d 97d7 b4bd
00000010: 22d0 a8bb 89dd 763d ca22 a0bc 5fc7 013c
00000020: 6fb8 433b 9b0d cfbd ad79 703d 6f0b 603c
00000030: ce2a ee3d c692 58bd 2674 cfbd f988 45bb
00000040: 3ef0 eb3d 917d 493d 96a7 203e 147c c83d
00000050: 115c 763d 228f c5bd 6c3e 983d 4c74 313c
00000060: b114 a33c 7f70 cabd c3b9 953a 1092 f93d
00000070: 59c0 023d 4a38 2a3e 45ad 093e 3f0b 2f3e
00000080: 826b cebd 04e5 e0bd f55e f53b 68ea 333e
00000090: b1ff 103d 799f febc 701e db3d 1aa2 c73d
000000a0: e9a3 19bd 7fc0 613d 660f a73d 6c52 fe3b
000000b0: 1e14 45bd e60c 853d 1ea8 303d 31fc 2b3d
000000c0: d512 8ebb c51e a23d 347a 173c eaab e4bd
000000d0: e1fc 92bd 03e2 3ebd 1a21 263d f56b f43d
000000e0: c3d6 77bd f3ed a33d 0d44 803d b024 a83b
000000f0: d16c ab3d f9c0 d53b 1145 c33d 4c55 22bd
00000100: 4e2a 8fbc 6784 7fbd 373e ebbd d272 8ebb
00000110: 71fe 66bc a6da 1a3d 4f1a 9a3c e83c c8bd
00000120: 53c1 c83d 2c09 a4bd b4b6 46bd 9882 d53d
00000130: a2c8 4cbd 3e66 5b3d 2e3d ee3d a951 0bbd
00000140: 1c47 db3c 53e2 2b3d c18e bf3d 7ace b2bd
00000150: 38a5 05bc 2b2b 02be 996e a5bc 8f02 893b
00000160: 4c1d 7ebd fc2d cb3d 5c51 873d cd52 763d
00000170: dd24 a23c deec 12bd d352 503d 048b d33d
00000180: 2f07 7ebd d86f 023d 69a6 933d 5b94 debc
00000190: e0fb 83bc e64a 08be 9533 d9bd e2be 953d
000001a0: d9ac dc3c 959a 993d d341 d0bd aee0 c9bd
000001b0: 6574 a1bd d74a d4bd fe67 7e3d 4e83 c63d
000001c0: 31f7 c33d b6f9 cebd 98ec a3bc cbc1 d6bc
000001d0: 9823 fcbc d9b2 8dbd 5366 b6bc b31f 83bd
000001e0: ba70 c6bc 1515 a93a 481a 63bd 43ec 19bd
000001f0: 4d79 c83d e537 c33d 5602 9cbd 2b05 38bd
00000200: 69b6 cebd 38c5 2fbd bdda 85bd 219e 4bbd
00000210: 30ac 13bd dc9d 843d c27a 5abd 7d7d c3bd
00000220: e3c5 5cbd 741e c1bd 46dc b13d 5507 523d
00000230: 0301 093c 2b3b 02be efe0 d2bd 6fa0 3ebd
00000240: dad4 b6bc e401 d8bd 172e 3d3d c7a3 eb3d
00000250: e393 4e3c c4e8 873d 8a6d a8bd dc01 4bbd
00000260: 1fa7 29bd 4473 03be a916 323d 503d b7bd
00000270: 8d2e 34bd c11a c03c 1960 8ebd f9d2 0ebe
00000280: a851 5f3d 61a2 a73d 6d16 84bd 8e7b 96bd
00000290: a391 98bd 6506 c33c cd54 8c3d a826 b53c
000002a0: bc32 9fbc 66d7 a4bc 475d b5bd be1a 83bd
000002b0: 2375 c73c 4009 0a3d f6cf 2ebd 79bc 02bc
000002c0: 54a9 5f3c 9b02 903d 9cf6 693d 367d bfbd
000002d0: e60c c23c f479 d7bd 3e37 1c3d 002c 943d
000002e0: ea7b c33d db3c 473c 08ff 1ebd cc61 ee3d
000002f0: 3edb 12be 36e4 163b 0a68 81bc cf20 13bd
00000300: 221b e03d 4c7c 17bd 3d25 973b dc0d d6bd
00000310: 107d 1fbd ddd9 ad3d 8322 043e 1510 833b
00000320: 8bbb b2bd e4f9 30bd 29f2 03bd 2e98 f1bd
00000330: 6261 c8bd 1029 133e 00e3 f43a 0ce5 91bd
00000340: bbfb c0bb 3a3c e8bd ab6b 703d a7e4 d13d
00000350: 4f31 873d 8aa9 843d 62d0 713d cee6 42bd
00000360: 9267 db3d 6663 9cbd a162 d1bd f626 2ebd
00000370: 9f44 30bd 4f3b 083e 8a05 8b3d 955a 943b
00000380: 3f09 993d d77f 8fbd bfdb febc fc6a 3c3e
00000390: 9d5f 593d 61d4 2c3d 650b 25bd e3fc e7bc
000003a0: c358 a7bd 0977 e73d 5708 c8bd 5d75 8c3d
000003b0: ae01 93bd 8f56 aebd 18fb e93d b3e5 eebd
000003c0: 47b6 00bd 9d63 e7bd 29fd a9bd f8d2 fb3d
000003d0: 53c5 733d a3d6 4e3d 8b1d ad3a eeda d7bc
000003e0: 04e6 3c3c a99d 70bd 0e71 a3bd a52e 42b9
000003f0: aac7 8abd 2873 d53d ee24 abbd c4c1 13bd

lstm.weight_ih_l1 f4 [256, 64]
-0.0076276073 -0.10530509 -0.092873655 0.045977995 -0.094931826 0.06524462 -0.07906067 0.051505156
0.08278149 -0.007699339 -0.051368292 0.08581178 0.006309703 0.14261411 0.084781736 0.0041169277
0.057598274 0.1143548 -0.049471956 0.035368856 0.1051976 0.12037254 0.0476656 0.096775554
0.09232419 -0.028735839 0.049088385 0.111148745 0.00035033352 0.040114485 0.06824434 0.052434973
-0.03719196 0.10883251 0.13053809 -0.026112808 0.083402716 -0.07528688 -0.0045175394 0.051519144
0.054917526 -0.04801033 -0.037424233 -0.058228623 0.10411608 -0.050022453 0.1019373 -0.11242559
-0.093826935 0.105516545 -0.09538305 0.0044987584 -0.08275386 -0.04421889 -0.1323304 -0.051884104
0.011561251 -0.06472037 -0.11029236 -0.090032004 0.047563717 -0.06426631 0.08065474 0.04981928
0.054193757 -0.10030813 0.11206647 -0.009578679 0.01807506 0.07522238 0.13798222 -0.018361872
-0.06541752 -0.12051965 -0.028009802 0.07487487 0.05360949 0.05714108 0.16759638 -0.04838
-0.06602019 -0.010250417 0.046440937 0.09112627 0.1369476 -0.046977207 0.0013547416 -0.09135146
-0.11620798 -0.0757215 -0.012641539 0.18479401 0.04386732 -0.06756828 -0.028616471 0.060273077
-0.05929661 -0.09780443 -0.014648505 0.17101994 0.03907188 -0.05401464 -0.113371946 0.1119284
-0.0694224 0.09496755 0.086394295 0.03186643 0.10423494 0.062174745 0.038185284 0.07762451
0.0823329 0.08934532 0.06916114 0.001079581 0.06033068 0.06372758 0.08061801 0.015177827
-0.08520943 -0.018826427 0.013661553 -0.09698892 0.0008732662 -0.11530357 -0.06152382 0.0069049126
0.03644232 -0.08684594 -0.10908686 0.040556036 0.07802154 0.0013474394 -0.11264186 0.035559174
-0.054347947 -0.040712755 0.1083473 0.07658848 -0.03919911 0.06628845 0.03341931 0.04712706
-0.05206392 -0.050102636 -0.15144359 -0.08320676 -0.033524748 0.051652014 -0.09771104 -0.12425095
0.012241768 -0.049183834 0.061868098 -0.023647638 -0.03820059 0.03088068 0.0016203317 -0.034205433
-0.10532526 -0.11144095 -0.07330823 0.10029697 0.0027531127 -0.028001625 -0.021854281 -0.007806388
0.021576185 0.05523165 0.030186608 0.05268635 -0.045334697 -0.007877154 0.0014213341 -0.06787803
-0.10861156 -0.12373444 0.014947363 0.015958065 -0.036973577 -0.012501081 0.12442507 0.11286662
0.11802697 0.024281638 -0.09092061 0.04579298 0.090936095 0.028188612 -0.06116255 0.068609886
-0.042425025 0.01974205 0.014298873 -0.09748263 -0.09665531 0.04404615 -0.113326974 -0.05636261
0.08632224 -0.06840732 0.0577533 -0.1078255 -0.012379493 0.09925587 -0.03500233 0.026481792
-0.051410515 -0.0687668 0.16004486 -0.111372076 -0.119410984 -0.005765584 -0.016911453 0.062482335
0.09157667 -0.13552448 -0.0990983 -0.072834656 0.06845048 0.014475366 -0.0987365 -0.026572924
-0.10960969 -0.10402561 -0.0965175 -0.0030861415 -0.072469816 0.048458837 0.008696907 -0.10206
0.032126725 0.12500226 0.03670115 -0.005447146 -0.1498532 0.0133663 -0.072618194 0.04758049
0.041381232 -0.033815756 0.069138914 0.087950766 0.058794368 -0.07990003 0.008606441 -0.056199446
0.054573778 -0.07238793 -0.03625076 -0.041720096 -0.1452403 0.03413657 0.038390063 0.09445901
00000000: 02f1 f9bb 32aa d7bd 8b34 bebd 6c53 3c3d
00000010: 9e6b c2bd f99e 853d 90ea a1bd 12f7 523d
00000020: 5889 a93d bd4a fcbb 8f67 52bd 16be af3d
00000030: a0c1 ce3b 6f09 123e 0ca2 ad3d 4be7 863b
00000040: 2bec 6b3d d932 ea3d 1ba3 4abd efde 103d
00000050: d771 d73d e185 f63d 013d 433d 4332 c63d
00000060: 7714 bd3d 6c67 ebbc e710 493d f4a1 e33d
00000070: f8ac b739 164f 243d b0c3 8b3d 0ec6 563d
00000080: 9956 18bd 94e3 de3d c7ab 053e 87ea d5bc
00000090: 0bcf aa3d 0230 9abd de07 94bb bd05 533d
000000a0: 33f1 603d 7ba6 44bd 274a 19bd 2381 6ebd
000000b0: d03a d53d 58e4 4cbd 81c4 d03d 633f e6bd
000000c0: 5628 c0bd 0f19 d83d 3058 c3bd 526a 933b
000000d0: db7a a9bd de1e 35bd 9f81 07be 6d84 54bd
000000e0: 676b 3d3c 1d8c 84bd f6e0 e1bd b362 b8bd
000000f0: 2cd2 423d 0e9e 83bd 502e a53d 4d0f 4c3d
00000100: 46fa 5d3d 596e cdbd 1b83 e53d e4ef 1cbc
00000110: 2612 943c 310e 9a3d 364b 0d3e a36b 96bc
00000120: 9ff9 85bd 02d3 f6bd d074 e5bc ff57 993d
00000130: a095 5b3d c40c 6a3d 639e 2b3e 1b2a 46bd
00000140: 9835 87bd 5df1 27bc da38 3e3d 69a0 ba3d
00000150: fe3b 0c3e 2c6b 40bd 9691 b13a 7916 bbbd
00000160: 73fe edbd e013 9bbd 751e 4fbc a43a 3d3e
00000170: 38ae 333d 3d61 8abd 176d eabc e7e0 763d
00000180: 01e1 72bd b04d c8bd 4800 70bc da1f 2f3e
00000190: d609 203d 753e 5dbd 8d2f e8bd b83a e53d
000001a0: 552d 8ebd 597e c23d 7eef b03d 6086 023d
000001b0: 2179 d53d f2aa 7e3d 2c68 1c3d 99f9 9e3d
000001c0: 279e a83d aefa b63d 5ba4 8d3d ba80 8d3a
000001d0: 4e1d 773d 9b83 823d 0e1b a53d 6cac 783c
000001e0: 4882 aebd e139 9abc b5d4 5f3c 20a2 c6bd
000001f0: e7eb 643a 4724 ecbd 6700 7cbd 9b42 e23b
00000200: 8b44 153d 49dc b1bd ef68 dfbd 161e 263d
00000210: c2c9 9f3d 909c b03a c7b0 e6bd 7fa6 113d
00000220: f49b 5ebd 6bc2 26bd 30e5 dd3d 6cda 9c3d
00000230: 3f8f 20bd 3dc2 873d b0e2 083d 4e08 413d
00000240: fa40 55bd 6c38 4dbd 0714 1bbe 4e68 aabd
00000250: 3f51 09bd 1091 533d ba1c c8bd 4877 febd
00000260: b291 483c fd74 49bd 6769 7d3d b1b8 c1bc
00000270: 3978 1cbd 7bf9 fc3c 4f61 d43a ff1a 0cbd
00000280: c5b4 d7bd 273b e4bd a022 96bd 7f68 cd3d
00000290: 916d 343b aa63 e5bc c007 b3bc bbcc ffbb
000002a0: 8ac0 b03c 953a 623d e849 f73c a4cd 573d
000002b0: e0b0 39bd 2e0f 01bc 0f4c ba3a a303 8bbd
000002c0: bd6f debd 7b68 fdbd c9e5 743c 7dba 823c
000002d0: 9b71 17bd 56d1 4cbc 92d2 fe3d 9d26 e73d
000002e0: 20b8 f13d 49ea c63c 9634 babd 6b91 3b3d
000002f0: b43c ba3d ceeb e63c 9585 7abd 5783 8c3d
00000300: ddc5 2dbd 14ba a13c d245 6a3c f9a4 c7bd
00000310: 38f3 c5bd bc69 343d f917 e8bd 7bdc 66bd
00000320: b7c9 b03d 2319 8cbd b98e 6c3d 9ed3 dcbd
00000330: 5bd3 4abc a946 cb3d 9a5e 0fbd 58f0 d83c
00000340: d593 52bd 9cd5 8cbd cde2 233e 0b17 e4bd
00000350: bf8d f4bd 39ed bcbb e389 8abc 7aed 7f3d
00000360: 8d8c bb3d eec6 0abe 0df4 cabd 562a 95bd
00000370: c42f 8c3d 162a 6d3c 5d36 cabd 76af d9bc
00000380: 0c7b e0bd 610b d5bd f8aa c5bd dd40 4abb
00000390: 0e6b 94bd c67c 463d 797d 0e3c d504 d1bd
000003a0: 5097 033d 9800 003e f253 163d f97d b2bb
000003b0: 1e73 19be 53fe 5a3c d9b8 94bd c3e3 423d
000003c0: 5e7f 293d 6482 0abd b498 8d3d 881f b43d
000003d0: 5dd2 703d a0a2 a3bd 0802 0d3c 6431 66bd
000003e0: c188 5f3d 1f40 94bd ad7b 14bd b1e2 2abd
000003f0: e0b9 14be cad2 0b3d e63e 1d3d ba73 c13d

lstm.weight_hh_l1 f4 [256, 64]
-0.07114038 -0.00027713613 -0.055078432 -0.109113075 0.02246159 0.029042868 -0.049738303 0.0013594553
0.087213784 0.030784309 0.0042961477 0.08858244 0.05149768 -0.03920737 0.08341248 0.03155083
-0.018242132 0.06562441 0.07405402 0.06642425 -0.04261942 -0.036073983 -0.10610808 -0.08464353
-0.113298595 0.04778026 0.08469148 -0.016584361 -0.04840734 -0.089324206 0.03060424 -0.07335024
0.09195903 -0.03366569 0.10390731 -0.08972569 0.022947919 0.02336768 0.04268939 0.08730146
0.014087958 0.054705355 -0.03250108 -0.010787209 -0.11024971 -0.09385087 0.033307314 -0.07732466
-0.07476381 0.10457906 0.08779573 -0.050722763 0.09652857 -0.07090782 0.08696453 -0.014643982
0.0397251 0.02598491 -0.11524756 -0.057186812 -0.040303286 -0.027284477 -0.07271485 0.07502643
-0.09467222 -0.0812137 -0.05643461 0.112739384 -0.10852907 -0.036511246 0.08851015 0.12788877
0.09442156 -0.10456535 -0.070109926 0.027922984 -0.061777208 -0.08761041 -0.05587777 0.06601842
-0.052664053 0.06638341 -0.086979486 -0.01961959 -0.103294134 0.055312708 0.016410226 -0.12751216
0.101998635 -0.036312915 0.06146458 -0.09001643 0.031877935 0.0931017 -0.017577369 -0.068592176
0.0754221 0.05899395 0.08091075 -0.103853576 -0.034590237 -0.09190867 0.077137515 0.046493087
0.11127081 0.011337264 0.073269494 0.060385846 0.01829145 -0.044239707 -0.031540297 0.012191608
0.04475193 -0.037940767 0.015452112 -0.09801266 0.114261694 -0.040819548 0.039649054 -0.07107784
0.06936544 -0.07610316 -0.082706854 0.13111606 -0.011359192 -0.058162414 -0.09677233 0.04669977
0.09995579 0.0015150339 -0.12289207 -0.04350712 0.09569169 -0.06767401 -0.05503176 0.10996891
-0.06267094 -0.03283702 0.0099676475 0.074630655 0.03135203 -0.027972238 -0.08746863 -0.116386674
-0.0637956 -0.045299158 0.10030539 0.0073287343 0.030453296 0.11168484 -0.114984065 -0.052737623
0.0042322087 -0.014081721 0.022593288 0.041023947 0.042027216 -0.04798884 -0.100903384 0.10100648
-0.10919952 -0.0055692745 -0.12777196 0.040121745 0.06028124 -0.003970813 -0.049378637 0.13263497
-0.09359636 -0.0076226434 -0.026737332 -0.10300262 0.0046597556 0.02561912 0.035891574 -0.033582974
-0.06625132 0.09613681 0.08683785 -0.105628006 0.07623511 0.090719596 0.015335181 -0.124874406
0.04661565 -0.0021386445 -0.0019264979 0.032048292 0.072313726 0.0734526 0.07173756 -0.050288297
-0.097583 0.10980559 0.04045519 -0.10701419 -0.01824095 -0.0402726 0.06059573 0.11644326
0.05518918 0.12500042 -0.05897225 0.11219016 0.08826724 0.077202335 -0.023538597 0.04938361
0.041466072 -0.07115782 0.026080305 -0.008952473 -0.020383507 0.033021256 0.031306237 -0.026301946
0.08968901 0.049965966 0.033643536 -0.03041762 0.012341485 -0.093103275 -0.01527675 0.11197812
0.12975815 -0.1408605 0.019206021 0.07653845 -0.0014409947 0.08868116 -0.011025783 0.09590485
-0.017788785 0.027068129 -0.13202578 0.12814622 0.058911502 -0.13355513 -0.060085185 0.040291972
-0.1067075 -0.09991411 0.09502285 0.012824481 -0.053179145 -0.047127716 -0.061791155 0.013629436
0.05291577 -0.14651875 0.1406598 0.06879869 0.11183908 -0.07684352 -0.0076101846 0.1462335
00000000: 0cb2 91bd 954c 91b9 ec99 61bd ad76 dfbd
00000010: 5e01 b83c 4feb ed3c 64ba 4bbd c02f b23a
00000020: 249d b23d 602f fc3c b3c6 8c3b b66a b53d
00000030: 3bef 523d e897 20bd 2ad4 aa3d 713b 013d
00000040: 8670 95bc 1766 863d a2a9 973d 7009 883d
00000050: b391 2ebd 50c2 13bd 314f d9bd 9659 adbd
00000060: 1809 e8bd 3cb5 433d ba72 ad3d eddb 87bc
00000070: c646 46bd 9cef b6bd beb5 fa3c a738 96bd
00000080: 0455 bc3d 09e5 09bd 5bcd d43d 1ac2 b7bd
00000090: 46fd bb3c 946d bf3c 12db 2e3d 1ccb b23d
000000a0: 2ed1 663c b912 603d da1f 05bd d5bc 30bc
000000b0: 9aca e1bd e334 c0bd 406d 083d 645c 9ebd
000000c0: c51d 99bd 8c2d d63d 3fce b33d acc2 4fbd
000000d0: c5b0 c53d 1e38 91bd 761a b23d 50ed 6fbc
000000e0: c9b6 223d 4ede d43c ea06 ecbd b83c 6abd
000000f0: 0f15 25bd b283 dfbc 86eb 94bd 75a7 993d
00000100: 82e3 c1bd 5e53 a6bd fa27 67bd e8e3 e63d
00000110: 7d44 debd d18c 15bd cf44 b53d 46f5 023e
00000120: 1760 c13d 5c26 d6bd cb95 8fbd bebe e43c
00000130: 190a 7dbd 166d b3bd 17e0 64bd aa34 873d
00000140: 43b6 57bd 06f4 873d 4d22 b2bd 43b9 a0bc
00000150: e08b d3bd 948f 623d bd6e 863c 8c92 02be
00000160: a9e4 d03d dabc 14bd 49c2 7b3d 895a b8bd
00000170: 7092 023d 1bac be3d 6afe 8fbc 0e7a 8cbd
00000180: e776 9a3d a4a3 713d 89b4 a53d 2fb1 d4bd
00000190: 7eae 0dbd 9d3a bcbd 46fa 9d3d 896f 3e3d
000001a0: f3e1 e33d efbf 393c 510e 963d 2657 773d
000001b0: f3d7 953c b234 35bd 6630 01bd 4fbf 473c
000001c0: cd4d 373d c767 1bbd db2a 7d3c ddba c8bd
000001d0: 0902 ea3d 6632 27bd 0c67 223d 4291 91bd
000001e0: 780f 8e3d f9db 9bbd 3662 a9bd 4a43 063e
000001f0: e81b 3abc b63b 6ebd 9230 c6bd 4248 3f3d
00000200: 9fb5 cc3d 1a94 c63a d6ae fbbd 8634 32bd
00000210: 01fa c33d ac98 8abd fc68 61bd 6137 e13d
00000220: 9f59 80bd 1c80 06bd 584f 233c f5d7 983d
00000230: fc6a 003d 0926 e5bc c122 b3bd 235c eebd
00000240: 44a7 82bd 9c8b 39bd ea6c cd3d e125 f03b
00000250: 3179 f93c 05bb e43d c47c ebbd 6803 58bd
00000260: 57ae 8a3b 05b7 66bc 8f15 b93c ba08 283d
00000270: bb24 2c3d f28f 44bd 6fa6 cebd 7cdc ce3d
00000280: ffa3 dfbd 767e b6bb a7d6 02be b356 243d
00000290: 76e9 763d 981d 82bb 4141 4abd 76d1 073e
000002a0: 73af bfbd 5ec7 f9bb 4008 dbbc 0af3 d2bd
000002b0: ddb0 983b 30df d13c 0b03 133d 4d8e 09bd
000002c0: c6ae 87bd 60e3 c43d 0bd8 b13d 7f53 d8bd
000002d0: 2721 9c3d 32cb b93d 6940 7b3c 27be ffbd
000002e0: 0df0 3e3d 8028 0cbb 8b82 fcba 1245 033d
000002f0: 3819 943d 516e 963d 24eb 923d 1afb 4dbd
00000300: 99d9 c7bd c1e1 e03d 57b4 253d 412a dbbd
00000310: 0b6e 95bc e2f4 24bd 3a33 783d ce79 ee3d
00000320: 0d0e 623d 1c00 003e e38c 71bd f4c3 e53d
00000330: 74c5 b43d 421c 9e3d 04d4 c0bc 7846 4a3d
00000340: 54d8 293d 31bb 91bd 5da6 d53c 65ad 12bc
00000350: 50fb a6bc 4c41 073d f83a 003d 2e77 d7bc
00000360: dfae b73d 1da9 4c3d cecd 093d 5f2e f9bc
00000370: f133 4a3c eeac bebd 554b 7abc c954 e53d
00000380: 52df 043e bc3d 10be f255 9d3c 31c0 9c3d
00000390: c2df bcba 789e b53d 7ca5 34bc c369 c43d
000003a0: c9b9 91bc fbbd dd3c c431 07be c338 033e
000003b0: 304d 713d adc2 08be e21b 76bd 3209 253d
000003c0: 7689 dabd c59f ccbd 579b c23d c61d 523c
000003d0: 60d2 59bd fe08 41bd b918 7dbd ff4d 5f3c
000003e0: 35be 583d 0309 16be 1f09 103e 54e6 8c3d
000003f0: e30b e53d 2360 9dbd db5e f9bb 3cbe 153e

lstm.bias_ih_l1 f4 [256]
0.10180507 0.0380151 0.014328548 -0.015805867 0.073813766 0.077720776 0.100127615 -0.021974804
0.036281276 -0.022455966 0.13332021 -0.10383254 -0.08829623 0.030644752 -0.05325395 -0.10839964
0.075946406 -0.008399112 0.10200943 0.056347333 -0.08601502 0.111590736 0.08372052 0.022228159
-0.00855067 0.12725495 0.01609979 -0.06926373 0.06579599 0.0868769 -0.053740658 0.12432222
0.030794397 0.11825795 0.002914323 0.0006861685 0.055568315 0.0980086 0.019526139 -0.08250848
-0.1086556 -0.030964583 0.051223144 -0.09688983 0.0077979397 -0.10624922 -0.019862708 0.009042987
0.019138062 0.09487315 -0.09871384 0.119048595 -0.002854962 -0.14182734 -0.11933538 0.07415035
0.14336586 -0.025188215 0.04271901 -0.07322345 -0.04339308 0.08470929 0.10216696 -0.08678958
-0.099906705 0.14043504 -0.05603212 0.10762966 0.08896984 -0.054345947 -0.081924506 0.106242195
-0.034783658 0.10548565 0.09148537 -0.03865304 -0.0025046049 -0.00065709493 0.10538473 -0.050791405
0.081408404 0.10286255 -0.06237319 0.04157628 -0.12232053 -0.103709 0.002309152 -0.09418651
-0.0032049909 0.070092596 -0.09954787 -0.056191795 -0.04924198 -0.10619271 -0.1122112 0.019849183
-0.04734134 0.13861227 0.08765013 -0.0033875944 0.05344498 0.10135191 -0.11650854 -0.057878133
0.085501134 -0.06684005 -0.109845564 0.020919941 -0.12603673 -0.09705454 -0.0029359101 0.002792845
-0.032952577 -0.09461842 -0.035830434 0.2001387 -0.002184804 0.040142015 -0.03843185 -0.04995878
0.0051287296 -0.018189661 0.0001311706 -0.06612247 -0.020583171 -0.0037866216 -0.028000165 0.10092656
-0.09293272 0.07009337 -0.07392079 0.059892245 0.0821561 -0.044472143 0.08863293 0.034742996
-0.040384848 -0.008981282 0.065789275 -0.106142454 -0.075799234 0.021091966 -0.097398184 -0.058969077
0.121883206 0.031042935 0.024014622 0.1378585 0.10051039 -0.00094326446 -0.016701173 -0.02148881
-0.0131788915 0.042370286 -0.02388911 0.06799325 -0.0065129935 -0.05945845 0.01573993 -0.005917898
0.058119655 0.044551473 0.12796398 0.036800448 0.078462526 0.08533753 0.008249042 0.06350633
0.013991719 0.06502945 -0.0011699054 -0.039515108 -0.08646257 0.12599882 0.04779482 0.06391312
0.048316497 -0.12899679 0.062736906 -0.04597664 0.09728439 0.060976736 -0.101997115 -0.09112383
-0.12146999 0.12669885 0.11364423 0.109584846 -0.11019724 -0.06829016 0.01734686 -0.142915
0.12020386 0.03509944 0.010324453 -0.12723039 0.07571777 0.12141516 0.14058964 -0.07537538
0.06782349 -0.008273097 0.08659324 -0.09457182 -0.065319546 -0.07758913 -0.0664868 -0.13201381
0.102396205 0.057453785 -0.04358612 -0.09069585 0.019080635 0.027256718 0.13265894 0.011057155
0.0007005814 -0.107532874 0.08874022 -0.10483098 0.070834294 -0.023355218 0.10118893 -0.10970333
0.0632219 -0.050321914 -0.06434204 -0.090953134 -0.09809882 -0.08945548 -0.005707863 0.12270091
-0.11680041 0.026528021 0.03784776 0.09710017 0.08805345 -0.110977165 -0.1021613 0.069204755
0.074505165 -0.056426276 -0.06449764 0.011092068 0.11519365 0.0533129 -0.109700166 0.040373955
0.084676035 0.062026374 -0.015378953 -0.10288155 0.07285054 -0.06213728 -0.078444794 -0.0055616335
00000000: 2d7f d03d b9b5 1b3d 49c2 6a3c 4e7b 81bc
00000010: ac2b 973d 122c 9f3d b50f cd3d 8104 b4bc
00000020: ad9b 143d 93f5 b7bc 1885 083e 28a6 d4bd
00000030: a7d4 b4bd b40a fb3c d020 5abd a100 debd
00000040: ca89 9b3d 6e9c 09bc 52ea d03d 76cc 663d
00000050: a528 b0bd af89 e43d aa75 ab3d d417 b63c
00000060: 1c18 0cbc 1f4f 023e b5e3 833c 24da 8dbd
00000070: 0cc0 863d 84ec b13d 2a1f 5cbd a69c fe3d
00000080: 8844 fc3c 3931 f23d 3afe 3e3b fddf 333a
00000090: 9a9b 633d bcb8 c83d 48f5 9f3c 35fa a8bd
000000a0: d486 debd 70a9 fdbc 5ccf 513d 2d6e c6bd
000000b0: dc85 ff3b 3199 d9bd 1eb7 a2bc 0929 143c
000000c0: 6dc7 9c3c db4c c23d 7b2a cabd c0cf f33d
000000d0: 501a 3bbb 303b 11be 1c66 f4bd 24dc 973d
000000e0: 80ce 123e 8457 cebc 21fa 2e3d 2df6 95bd
000000f0: f1bc 31bd 107c ad3d e93c d13d bcbe b1bd
00000100: e39b ccbd 34ce 0f3e f081 65bd f06c dc3d
00000110: d235 b63d db99 5ebd 09c8 a7bd 8295 d93d
00000120: 4f79 0ebd dc08 d83d af5c bb3d a652 1ebd
00000130: 4c24 24bb e540 2cba f3d3 d73d a60a 50bd
00000140: 73b9 a63d 9aa9 d23d 087b 7fbd e44b 2a3d
00000150: 3083 fabd 6265 d4bd 2455 173b dbe4 c0bd
00000160: d30a 52bb b58c 8f3d c1df cbbd 5e29 66bd
00000170: f5b1 49bd 907b d9bd fcce e5bd c19a a23c
00000180: fee8 41bd 60f0 0d3e e981 b33d 6702 5ebb
00000190: 20e9 5a3d 9791 cf3d 089c eebd 9f11 6dbd
000001a0: 381b af3d 70e3 88bd b6f6 e0bd 4c60 ab3c
000001b0: c60f 01be 88c4 c6bd 6668 40bb 2a08 373b
000001c0: 48f9 06bd 4dc7 c1bd efc2 12bd 29f1 4c3e
000001d0: ee2e 0fbb f46b 243d b76a 1dbd 94a1 4cbd
000001e0: e70e a83b 7c02 95bc d78a 0939 386b 87bd
000001f0: 0a9e a8bc f828 78bb 9a60 e5bc 96b2 ce3d
00000200: 8353 bebd 1d8d 8f3d c863 97bd 9251 753d
00000210: 7541 a83d 6c28 36bd 2e85 b53d ac4e 0e3d
00000220: 956a 25bd 3a26 13bc 87bc 863d 3761 d9bd
00000230: a13c 9bbd 0fc9 ac3c b378 c7bd 8f89 71bd
00000240: e79d f93d c14d fe3c 50ba c43c c72a 0d3e
00000250: 64d8 cd3d 6845 77ba e6d0 88bc 4d09 b0bc
00000260: 47ec 57bc 778c 2d3d 18b3 c3bc 0c40 8b3d
00000270: f36a d5bb b48a 73bd 07f1 803c edea c1bb
00000280: e00e 6e3d 9b7b 363d fd08 033e 11bc 163d
00000290: f6b0 a03d 71c5 ae3d fd26 073c 9b0f 823d
000002a0: 863d 653c 292e 853d 8357 99ba 98da 21bd
000002b0: 4a13 b1bd d605 013e 80c4 433d e2e4 823d
000002c0: 85e7 453d bc17 04be 357c 803d 0052 3cbd
000002d0: 0a3d c73d bec2 793d dde3 d0bd 219f babd
000002e0: 42c5 f8bd 58bd 013e 4ebe e83d 056e e03d
000002f0: 17af e1bd b6db 8bbd 011b 8e3c 4f58 12be
00000300: 712d f63d 6ec4 0f3d e527 293c af48 02be
00000310: eb11 9b3d 83a8 f83d bbf6 0f3e 685e 9abd
00000320: 0be7 8a3d e28b 07bc cc57 b13d dfae c1bd
00000330: 41c6 85bd 0de7 9ebd 3b2a 88bd a12e 07be
00000340: 1ab5 d13d a954 6b3d 5c87 32bd bfbe b9bd
00000350: fe4e 9c3c 7b49 df3c bfd7 073e 1229 353c
00000360: 39a7 373a 323a dcbd 6fbd b53d a0b1 d6bd
00000370: 9211 913d 7153 bfbc 243c cf3d 24ac e0bd
00000380: 7c7a 813d 5a1e 4ebd c2c5 83bd a345 babd
00000390: 09e8 c8bd 6f34 b7bd 0609 bbbb 9d4a fb3d
000003a0: 0e35 efbd 4b51 d93c 4106 1b3d 74dc c63d
000003b0: 5e55 b43d ff47 e3bd f239 d1bd 39bb 8d3d
000003c0: 2a96 983d 3d1f 67bd 5717 84bd 81bb 353c
000003d0: a6ea eb3d a15e 5a3d 7baa e0bd 295f 253d
000003e0: a16a ad3d 5e0f 7e3d 01f8 7bbc 90b3 d2bd
000003f0: aa32 953d a983 7ebd aaa7 a0bd 5d3e b6bb
