models/RNN_santander2.pt (torch, 232358 bytes, 11 tensors)

lstm.weight_ih_l0 f4 [256, 11]
0	0x3e2f03bb	0.17091267
1	0xbc2d591f	-0.01058033
2	0xbcc7d402	-0.024393085
3	0xbc5b1a88	-0.013373025
4	0x3d564a61	0.052317027
5	0x3e223e66	0.15844116
6	0xbd2d5954	-0.042321518
7	0x3e407ca1	0.18797542
8	0xbdbafb3e	-0.09129952
9	0x3d1dc6ce	0.038519673
10	0xbd4b9746	-0.049704812
11	0x3e0da71b	0.13833277
12	0x3d87d7f8	0.0663299
13	0x3bcb1a82	0.0061982283
14	0x3dad6595	0.08466641
15	0x3cc8d34a	0.024514813
16	0x3f527a7f	0.82218164
17	0x3e0cad8e	0.13738081
18	0x3def8238	0.11694759
19	0xbd01fb0e	-0.031733565
20	0x3d9be537	0.07612079
21	0x3cdc1015	0.026863137
22	0x3e290189	0.16504492
23	0x3b6a5a16	0.0035759262
24	0x3d514c4c	0.051098153
25	0x3cdbb799	0.026820945
26	0x3d33652a	0.04379765
27	0x3f2d07a4	0.67589784
28	0x3d9b7ee9	0.075925656
29	0x3dd22203	0.102603935
30	0x3d9019a1	0.07036138
31	0x3d31a173	0.04336686
32	0xbdcaa7cd	-0.09895287
33	0x3d910e39	0.07082791
34	0xbdb2a7af	-0.08723389
35	0x3e11a6a7	0.14223729
36	0x3d07aeda	0.033125736
37	0xbd21c0af	-0.039490398
38	0x3f022620	0.50839424
39	0x3e030316	0.12794146
40	0x3dc6d6e0	0.09708953
41	0xbdf6c7c4	-0.12049821
42	0x3d50e3aa	0.050998367
43	0xbd933893	-0.07188525
44	0x3c9bb6ef	0.019008128
45	0x3dd6da43	0.10490849
46	0x3e21beae	0.15795395
47	0xbc7b261f	-0.015328913
48	0xbbd8c4ab	-0.0066152415
49	0x3f1a16d0	0.6019106
50	0xbd676dfb	-0.05650137
51	0x3c14aab0	0.009073898
52	0xbde4e946	-0.11177306
53	0xbdc06afb	-0.09395405
54	0xbdb7d373	-0.089758776
55	0x3d9cb82c	0.076523155
56	0x3cf9f60b	0.03051283
57	0x3bf5c608	0.007500414
58	0xbdfe5d91	-0.1242019
59	0xbb7d7f16	-0.0038680485
60	0x3f435e70	0.76315975
61	0x3e1625e5	0.14662893
62	0x3ce4983f	0.027904628
63	0xbdf70998	-0.12062377
64	0xbd62999c	-0.055322275
65	0xbcadb5b5	-0.021204809
66	0xbd39d8f6	-0.045372926
67	0xbe00b885	-0.12570389
68	0xbda0fac1	-0.078603275
69	0x3dfd7839	0.12376446
70	0x3e083aa9	0.13303627
71	0xbf12f7a9	-0.5740915
72	0xbcba8da2	-0.022772614
73	0xbc19cdfc	-0.009387489
74	0xbc9735c1	-0.018458249
75	0x3be88fed	0.0070972354
76	0x3d8565b6	0.065135404
77	0xbc3f9f36	-0.011695674
78	0x3e2d9ae2	0.16953614
79	0x3dee7149	0.11642701
80	0xbb067069	-0.002051378
81	0xbd896c5f	-0.06710123
82	0x3f0ef22e	0.55838287
83	0xbd92c95d	-0.07167313
84	0xbd778998	-0.060433954
85	0x3c691cd0	0.014228061
86	0xbca8dc53	-0.020612871
87	0xbca45d54	-0.020064034
88	0x3deec3ef	0.11658465
89	0xba9f6466	-0.0012160658
90	0xbda1503d	-0.07876632
91	0xbd321488	-0.04347661
92	0xbe0dd1ac	-0.13849515
93	0x3ec985a2	0.39359766
94	0x3d630af1	0.055430356
95	0xbb4d6730	-0.0031342022
96	0xbda79f64	-0.08184698
97	0x3d37ad3d	0.044842947
98	0xbd8ea961	-0.069659
99	0x3d2b602a	0.041839756
100	0xbcbefa54	-0.023312725
101	0x3e155a01	0.14585115
102	0x3d8a1e2a	0.067440346
103	0xbd8da566	-0.06916313
104	0x3f81b0a0	1.0132027
105	0xbbd2b257	-0.006429951
106	0xbd32b277	-0.04362723
107	0xbdb39fd8	-0.08770722
108	0xbd7bd1bd	-0.06147932
109	0x3d5a149b	0.053242307
110	0x3e0eef24	0.13958412
111	0x3e0d4854	0.13797122
112	0x3c8c277b	0.01710867
113	0x3d9b46b7	0.07581847
114	0xbd93a0ce	-0.072084054
115	0x3f57bdd5	0.84274036
116	0x3bd64ce7	0.006539929
117	0x3d8b94b3	0.068154715
118	0x3da0a823	0.078445695
119	0xbba14257	-0.0049212384
120	0xbd770e95	-0.06031664
121	0x3e0d360f	0.13790153
122	0xbcfa80c1	-0.030578973
123	0x3db5fe75	0.088864245
124	0x3df64c2f	0.120262496
125	0xbda3aa1a	-0.07991429
126	0x3f1d7be6	0.6151718
127	0xbd8491a6	-0.06473093
128	0x3e148141	0.14502431
129	0xbc9b04ea	-0.018923242
130	0x3dfdd5ce	0.12394296
131	0xbdecb31f	-0.11557602
132	0x3d8b5c42	0.06804706
133	0xbcf85f72	-0.03031895
134	0xbcccafa8	-0.024986103
135	0xbda39a77	-0.07988446
136	0xbdefca93	-0.1170856
137	0x3ee75736	0.45183724
138	0xbcf9da07	-0.030499471
139	0x3e27427f	0.1633396
140	0x3d7c6b24	0.061625615
141	0x3dc8947a	0.09793945
142	0xbd8d2108	-0.06891066
143	0x3e6d833f	0.23194598
144	0x3c1154ff	0.008870362
145	0x3e03e680	0.12880898
146	0x3b845cd3	0.004039386
147	0x3e0fa791	0.14028765
148	0x3e4e821d	0.20166822
149	0xbbdc7a71	-0.0067284633
150	0x3e46f0f2	0.19427851
151	0x3cbc18fb	0.02296113
152	0x3eb825b4	0.35966265
153	0xbca2d13b	-0.01987516
154	0x3b957757	0.0045613456
155	0x3d6e864f	0.058233555
156	0x3de051ad	0.109530784
157	0xbe087d97	-0.13329159
158	0xbdd97149	-0.106173106
159	0x3f291a86	0.66056097
160	0xbdee41c8	-0.116336405
161	0x3e02a259	0.12757243
162	0xbda50f8e	-0.080596074
163	0xbcad276b	-0.02113696
164	0x3c45f60a	0.012082586
165	0xbd00a71e	-0.031409375
166	0xbd31f144	-0.04344298
167	0x3e0cbacd	0.13743134
168	0xbb9e69af	-0.004834376
169	0xbd8dae5a	-0.069180205
170	0x3f121dd2	0.5707675
171	0x3d3c98a8	0.04604402
172	0x3e151eec	0.14562577
173	0xbdccd519	-0.10001583
174	0xbd521bd1	-0.05129606
175	0xbda7c627	-0.081920914
176	0xbd17b410	-0.037036955
177	0x3aac8c92	0.0013164452
178	0x3e343678	0.17598903
179	0x3b41ab76	0.0029551662
180	0x3de04cbf	0.10952138
181	0xbd859475	-0.065224566
182	0xbcab9de6	-0.020949315
183	0x3e222c41	0.15837194
184	0xbdcfe4ac	-0.101510376
185	0x3e667b77	0.22508036
186	0x3a521202	0.00080135476
187	0xbd768158	-0.060181946
188	0x3c090f49	0.008365461
189	0x3e1a6fae	0.15081665
190	0xbd8481d1	-0.06470073
191	0x3dc77cc2	0.097405925
192	0x3e405acd	0.18784638
193	0x3ddff807	0.10935979
194	0x3de01470	0.10941398
195	0xbd80d171	-0.06289948
196	0xbda7d185	-0.081942596
197	0xbd036ada	-0.032084323
198	0x3d5aa384	0.053378597
199	0x3e310a5c	0.17289108
200	0xbd172be7	-0.036907103
201	0x3da925b3	0.08259144
202	0x3daf9835	0.08573953
203	0x3f031bb3	0.5121414
204	0x3c14cc0d	0.009081853
205	0x3df8aead	0.12142692
206	0x3ddfc3b1	0.10925997
207	0xbca0ff2c	-0.019652925
208	0xbe447f48	-0.19189179
209	0x3d7e71c4	0.062120214
210	0xbddcd896	-0.10783498
211	0xbe13302c	-0.14373845
212	0xbbadbf3a	-0.005302337
213	0xbcc9ac80	-0.024618387
214	0xbf360cb4	-0.71113133
215	0x3d8f1160	0.06985736
216	0xbdea3ed2	-0.11437763
217	0xbb1c1900	-0.0023818612
218	0x3b56f35b	0.003279886
219	0x3d093a3b	0.0335028
220	0xbd029628	-0.03188148
221	0x3c54fd61	0.012999863
222	0x3d84b8d7	0.06480568
223	0xbdc2037a	-0.09473319
224	0xbdcf1072	-0.101105586
225	0xbf006475	-0.50153285
226	0xbcdc2582	-0.026873354
227	0xbd9435fc	-0.07236859
228	0x3c9cb818	0.019130751
229	0xbd86cf74	-0.06582537
230	0xbce8a961	-0.028401079
231	0x3daff08a	0.08590801
232	0x3c503204	0.012707237
233	0x3da56ee2	0.0807779
234	0x3d956aeb	0.072957836
235	0xbdf2ec21	-0.11861444
236	0x3f22ea92	0.63639176
237	0xbd961462	-0.073281065
238	0x3b318078	0.002708463
239	0x3dbcf4bc	0.09226367
240	0xbc5ffb52	-0.013670759
241	0xbe46bd8b	-0.19408242
242	0x3df255ce	0.11832772
243	0x3c82b843	0.015957003
244	0x3df0dfee	0.11761461
245	0x3db7a62e	0.08967243
246	0x3d5e6c15	0.054302294
247	0x3f3c8d0a	0.7365271
248	0x3e2463b4	0.16053659
249	0x3dcf71bf	0.10129117
250	0xbd4eff1b	-0.050536256
251	0x3de45ac9	0.111501284
252	0xbdf79d3c	-0.12090537
253	0x3d8b467c	0.06800553
254	0x3d925707	0.071455054
255	0x3d7264aa	0.059178032

lstm.weight_hh_l0 f4 [256, 64]
0	0xbc63d0c8	-0.013904758
1	0xbe1a56c2	-0.15072158
2	0xbe30c30b	-0.17261903
3	0x3c79b49a	0.015240813
4	0x3df8b6e3	0.12144258
5	0xbe1cf815	-0.15329011
6	0xbdca62f0	-0.09882152
7	0xbe256f19	-0.16155662
8	0x3d28cab0	0.041208923
9	0x3d9ceafe	0.07662009
10	0xbd002ae9	-0.031290922
11	0xbde078a4	-0.109605104
12	0x3e25658d	0.1615202
13	0x3e2b29cf	0.16715167
14	0x3e00e0c4	0.12585741
15	0x3deb61a4	0.11493233
16	0x3e6e1167	0.23248826
17	0xbc7bc830	-0.015367553
18	0x3d506b7e	0.050883763
19	0x3c8728a7	0.016498877
20	0x3e08541c	0.13313335
21	0x3dd01e93	0.101620816
22	0xbc628bd1	-0.01382728
23	0xbd0a0985	-0.033700485
24	0xbe012838	-0.12612998
25	0x3e41418c	0.1887266
26	0xbd702b0a	-0.058634795
27	0x3d9bbe00	0.07604599
28	0x3d9fcfa4	0.07803276
29	0xbde3c812	-0.11122145
30	0x3dce8154	0.10083261
31	0xbd85b3b7	-0.065284185
32	0xbe339998	-0.1753906
33	0xbdc7a1c9	-0.09747655
34	0xbc0334ae	-0.008008165
35	0x3d760928	0.060067326
36	0x3de76fee	0.11300646
37	0xbd976bd9	-0.07393617
38	0xbd82a83e	-0.06379746
39	0xbe054823	-0.13015799
40	0xbd85817d	-0.065188386
41	0x3dbaa846	0.09114127
42	0xbd0de5f1	-0.034643117
43	0xbdd33d8b	-0.10314473
44	0xbdcd11b7	-0.100131445
45	0x3e079ad1	0.13242652
46	0xbd56bf4f	-0.05242854
47	0x3d88d55d	0.06681321
48	0xbce32cd9	-0.027731346
49	0x3cf3e048	0.029770032
50	0x3dcffc06	0.101554915
51	0xbe0a192e	-0.13486168
52	0x3e2d7a55	0.16941197
53	0x3e2a255e	0.16615817
54	0x3d255645	0.040365476
55	0x3d803134	0.06259385
56	0x3da7e0b5	0.08197156
57	0x3df2ff0d	0.11865053
58	0x3c0df469	0.008664229
59	0xbd89e116	-0.06732385
60	0x3e06b508	0.13154995
61	0xbd6c0c2e	-0.057628803
62	0x3d17dddc	0.037076816
63	0x3ce0a3d6	0.027421873
64	0xbde2d11d	-0.110750414
65	0x3b8a493b	0.0042201555
66	0x3dca4d46	0.0987802
67	0x3dfe8f57	0.12429684
68	0xbd1af143	-0.03782774
69	0x3dee11b9	0.11624474
70	0x3d540beb	0.05176918
71	0x3c7741f0	0.015091404
72	0x3d4c9789	0.049949203
73	0x3c97b0cb	0.018516919
74	0xbd5d318a	-0.054002322
75	0x3dc2eca9	0.095177956
76	0xbdbf301e	-0.093353495
77	0xbd92d35d	-0.071692206
78	0x3c9867f9	0.018604266
79	0x3ce4e399	0.027940558
80	0x3dda3f9a	0.10656662
81	0xbd11ec65	-0.035625834
82	0x3dc03a7f	0.09386157
83	0x3d2c9d78	0.04214236
84	0xb9390b2c	-0.00017647137
85	0x3cfb6eb1	0.03069243
86	0x3db10dfc	0.086452454
87	0x3d861137	0.06546252
88	0xbd3fda85	-0.046839256
89	0x3cb5bbc8	0.022184268
90	0xbcad2214	-0.021134414
91	0xbc98eb6b	-0.018666944
92	0xbd3e2a17	-0.04642686
93	0xbdd64120	-0.1046164
94	0x3df6418f	0.12024223
95	0xbdbc66f6	-0.09199326
96	0x3dad88d4	0.084733635
97	0xbdd48efe	-0.10378836
98	0x3dd90609	0.10596854
99	0x3aa83f6a	0.0012836282
100	0xbd49e998	-0.049295038
101	0x3db0c442	0.08631183
102	0x3db3bb99	0.08776016
103	0x3c07540e	0.008259786
104	0x3cc18592	0.023623262
105	0xbd570e87	-0.05250409
106	0xbccf46c6	-0.025302302
107	0xbde6f387	-0.11276918
108	0x3d30e428	0.043186337
109	0x3d07924a	0.033098496
110	0x3d83c4b5	0.06434003
111	0xbd8ef10f	-0.06979572
112	0xbda2c0b4	-0.079469115
113	0x3d10ee04	0.03538324
114	0x3d8c30c3	0.06845238
115	0xbcfbd407	-0.030740751
116	0x3c3e09e1	0.011599035
117	0x3dc8c5eb	0.09803375
118	0x3d9383eb	0.07202896
119	0x3cc45253	0.023965036
120	0x3d1a334a	0.03764657
121	0xbd69ac50	-0.057049096
122	0x3d8e3099	0.06942863
123	0xbdcff118	-0.10153407
124	0xbd43916d	-0.04774611
125	0x3d7ca600	0.061681747
126	0xbd15a7bf	-0.03653693
127	0xbd3de7f0	-0.04636377
128	0x3dafd70a	0.08585937
129	0x3dbfda9e	0.0936787
130	0xbd7a02d1	-0.061037842
131	0x3d22d8a7	0.039757397
132	0xbd0d9fe9	-0.03457633
133	0xbcd797d9	-0.026317524
134	0x3caa3632	0.020777795
135	0xbd9eef39	-0.07760472
136	0xbd989004	-0.07449344
137	0x3e153e57	0.14574562
138	0xbc1d9b09	-0.009619483
139	0xbb6f77bd	-0.0036539875
140	0x3d119863	0.035545718
141	0xbb30e570	-0.0026992224
142	0xbd9b33ee	-0.07578264
143	0x3e078c07	0.1323701
144	0xbd2fb864	-0.042900458
145	0x3db22de5	0.0870016
146	0x3d9927ae	0.074782714
147	0x3cbf7268	0.023369983
148	0xbd95a9bd	-0.07307766
149	0xbba35b71	-0.004985266
150	0xbd0112c6	-0.031512044
151	0x3db70852	0.08937134
152	0xbdc36a57	-0.09541767
153	0x3d97c120	0.074098825
154	0xbd4ccbd4	-0.049999073
155	0x3d471146	0.048600458
156	0xbad40e9a	-0.0016178668
157	0x3c92e7dc	0.017932825
158	0xbd5d2fd0	-0.054000676
159	0xbde54fbc	-0.11196849
160	0xbc2f166c	-0.010686498
161	0x3cfd2531	0.030901523
162	0x3d33ccba	0.043896414
163	0xbd7e5e87	-0.062101867
164	0x3b1da1d4	0.0024052756
165	0xbe0b6a65	-0.13614805
166	0xbdd96b5d	-0.10616181
167	0xbd636c30	-0.055523098
168	0xbdabef66	-0.08395271
169	0xbc80b192	-0.015709672
170	0x3de16e67	0.11007386
171	0xbc6aaa11	-0.014322774
172	0x3b65183d	0.0034957074
173	0xbc2c756f	-0.010526045
174	0xbcb15df7	-0.021651251
175	0x3de91aa6	0.11382036
176	0x3d526c5c	0.05137287
177	0xbd611e23	-0.05496038
178	0xbca822a7	-0.020524336
179	0xbdb5bf67	-0.08874398
180	0x3db03597	0.086039715
181	0xbbea737b	-0.0071548796
182	0xbc93b8cc	-0.018032454
183	0x3dbd9b82	0.092581764
184	0x3d0010db	0.031266075
185	0x3dc3514e	0.09536992
186	0x3d998706	0.07496457
187	0x3dba2b1b	0.09090253
188	0x3d9a80c1	0.07544089
189	0xbdd93025	-0.10604886
190	0xbdbce692	-0.09223665
191	0x3e0a1503	0.13484578
192	0xbdab9084	-0.083771735
193	0x3ca7f89c	0.020504288
194	0x3d9c3dae	0.07628952
195	0x3d9197b4	0.07109013
196	0xbd8af794	-0.06785503
197	0xbddfe763	-0.109328054
198	0xbb1370c0	-0.0022497624
199	0xbe05e871	-0.1307695
200	0xbd3e37a8	-0.046439797
201	0x3d38b5f1	0.045095388
202	0xbdbc0ef6	-0.09182541
203	0xbd897d4b	-0.06713351
204	0xbd5a1145	-0.053239126
205	0x3dfdbbb9	0.12389321
206	0xbdcc5a93	-0.09978213
207	0x3da0024b	0.07812937
208	0x3de8215b	0.11334487
209	0xbd0873b1	-0.033313457
210	0xbd53d7ca	-0.051719464
211	0x3e01718c	0.12640971
212	0xbd8e7fc4	-0.06957963
213	0x3d3badde	0.04582011
214	0x3ddfbceb	0.10924705
215	0x3c43ff49	0.01196272
216	0x3d40914d	0.04701357
217	0xbcdc00e5	-0.026855895
218	0x3dfb1e89	0.122616835
219	0x3d91d598	0.07120818
220	0xbd722fed	-0.059127737
221	0x3dd015a8	0.101603806
222	0xbcde43de	-0.027131971
223	0xbd0476c3	-0.032339823
224	0x3d09ebfb	0.033672314
225	0x3d13d6fd	0.0360937
226	0xbd9b1800	-0.07572937
227	0x3d8f7012	0.070037976
228	0x3d59b7da	0.05315385
229	0xbd895a97	-0.06706732
230	0xbdfa4b78	-0.12221426
231	0xbdb3bb97	-0.08776014
232	0x3d632cfe	0.05546283
233	0x3d985ffd	0.07440183
234	0x3cf11b1f	0.029431878
235	0x3d65986c	0.056053564
236	0x3cbee974	0.023304678
237	0x3e147212	0.1449664
238	0xbc67f9d5	-0.014158686
239	0x3d172142	0.03689695
240	0x3d9a64f3	0.07538786
241	0x3de44159	0.111452766
242	0x3cbc5aa8	0.022992447
243	0x3b979531	0.0046259393
244	0xbb45ecd0	-0.0030200966
245	0xbde59e2b	-0.11211809
246	0x3deafba0	0.11473775
247	0x3cd90189	0.02648999
248	0xbc56dd20	-0.013114244
249	0xbcfe077d	-0.03100943
250	0x3ced1d38	0.028944597
251	0xbd898a6e	-0.067158565
252	0xbce49aa2	-0.027905766
253	0xbddf48f1	-0.10902584
254	0xbd7959c9	-0.06087664
255	0x3d294263	0.041323077

lstm.bias_ih_l0 f4 [256]
0	0xbd4f237b	-0.050570946
1	0x3dd0969d	0.10184977
2	0x3c25957b	0.01010644
3	0xbd1851cd	-0.037187386
4	0x3d16f7b6	0.03685733
5	0x3db9f471	0.090798266
6	0x3d3b956a	0.04579679
7	0xbc25d719	-0.010122084
8	0xbd754420	-0.059879422
9	0x3d315a9f	0.043299314
10	0x3e04c894	0.1296714
11	0x3db57c04	0.08861545
12	0xbcbc214b	-0.022965094
13	0x3e2a0ba9	0.1660601
14	0x3d84cee5	0.064847745
15	0x3a906415	0.0011016155
16	0xbbac6a91	-0.005261727
17	0x3df4b134	0.11947861
18	0x3db0e8b1	0.08638132
19	0xbd11a2e5	-0.03555574
20	0x3cde7f10	0.027160197
21	0xbde96e98	-0.11398047
22	0x3d5176c3	0.05113865
23	0x3dc3fac1	0.09569312
24	0x3ccd6a6c	0.02507516
25	0xbd87210d	-0.06598101
26	0xbd82a597	-0.0637924
27	0xbd8c8387	-0.06861024
28	0x3dfb50fa	0.122713044
29	0x3de6ebb3	0.11275425
30	0xbdcb54f6	-0.099283144
31	0xbdae63a7	-0.08515101
32	0xbcd004b6	-0.025392871
33	0x3cf87b53	0.030332243
34	0x3df8cdcb	0.12148627
35	0xbde46662	-0.111523405
36	0xbdb1f433	-0.086891554
37	0xbd4b1abc	-0.049586043
38	0xbcca2ae9	-0.024678664
39	0x3de4265d	0.1114013
40	0xbd95ef19	-0.07320995
41	0xbd5afaf2	-0.053461976
42	0x3e034da8	0.12822592
43	0x3ca8613c	0.020554177
44	0x3e52c3d3	0.20582514
45	0x3df8c3a8	0.121466935
46	0x3d31a947	0.043374326
47	0x3d2de1d1	0.042451683
48	0xbd5de1c2	-0.054170378
49	0xbd33f6fe	-0.043936722
50	0x3dec3363	0.11533239
51	0xbc853b2e	-0.01626357
52	0x3cd56709	0.026050108
53	0x3df7823e	0.120853886
54	0x3dfafb91	0.12255014
55	0xbd533521	-0.05156434
56	0x3cf944ce	0.030428316
57	0xbdb28ab3	-0.08717861
58	0xbd2c11f6	-0.042009316
59	0xbca43c5e	-0.020048317
60	0x3d56d5e2	0.05245007
61	0xbdcb6e02	-0.09933092
62	0x3dc04a97	0.09389227
63	0xbc831955	-0.01600329
64	0xbcd4cd47	-0.02597679
65	0xbe0b5e37	-0.13610159
66	0xbdd4a7e6	-0.103835866
67	0x3d997893	0.07493701
68	0x3d861519	0.06546993
69	0xbdca26b4	-0.09870663
70	0x3e20c186	0.15698823
71	0x3df1a775	0.11799518
72	0xbda5d75d	-0.08097718
73	0x3cc03795	0.023464004
74	0x3dfa7f28	0.122312844
75	0x3d66cd7b	0.056348305
76	0x3d924ecb	0.07143935
77	0xbe0eadcf	-0.1393349
78	0xbdd91147	-0.105989985
79	0x3c80703a	0.015678514
80	0xbd51dd08	-0.051236182
81	0x3d993774	0.0748128
82	0x3d619502	0.055073746
83	0x3d8831a7	0.066500954
84	0xbde19bfc	-0.1101608
85	0xbd23a47e	-0.039951794
86	0x3d4ea5b9	0.050451014
87	0x3d1a87fd	0.037727345
88	0xbe00b2e8	-0.12568247
89	0x3da2268c	0.079175085
90	0xbdbeed92	-0.09322657
91	0x3d8e78b8	0.06956619
92	0x3dbdaef7	0.092618875
93	0xbc936d6a	-0.017996509
94	0xbd0ec74f	-0.034858044
95	0xbd9149c0	-0.07094145
96	0xbdfc16b4	-0.12309018
97	0xbd864c2b	-0.06557497
98	0x3d8b8100	0.06811714
99	0x3d2ba139	0.0419018
100	0xbcfd0bac	-0.030889355
101	0x3d1a46b2	0.037665077
102	0xbdb9db90	-0.09075081
103	0x3c91367d	0.017726177
104	0x3c3360b6	0.010948351
105	0xbd497332	-0.049182124
106	0x3dbcf023	0.0922549
107	0x3dee1484	0.11625007
108	0x3cffb5ef	0.031214682
109	0x3dba1ef5	0.09087936
110	0xbd6c1253	-0.057634663
111	0xbddb2e04	-0.10702136
112	0x3d29fd1f	0.04150116
113	0x3d3079a0	0.04308474
114	0x3d80830b	0.062749945
115	0xbdc19cb0	-0.09453714
116	0x3d69421d	0.056947816
117	0x3c6d2ff1	0.014476762
118	0x3b8d54ee	0.004313103
119	0x3db1cb20	0.08681321
120	0xbd8cad2f	-0.0686897
121	0xbbf47ce2	-0.0074611763
122	0xbbb283ea	-0.0054478543
123	0x3c06fe3c	0.008239325
124	0x3de9322c	0.11386523
125	0xbdda80ec	-0.10669121
126	0x3dc9f5bb	0.098613225
127	0xbd84d7a5	-0.064864434
128	0x3db87143	0.09005978
129	0x3b95a686	0.0045669703
130	0x3c5bfa88	0.0134264305
131	0xbdc7faf6	-0.09764664
132	0xbd0bfcdf	-0.034176704
133	0xbd9183aa	-0.07105191
134	0x3e07ae9a	0.13250199
135	0xbd540113	-0.051758837
136	0xbd6bbfab	-0.057555836
137	0xbd8d29a6	-0.068927094
138	0x3c9bfdcf	0.019041924
139	0xbd7cc44a	-0.061710633
140	0xbd2971c1	-0.04136825
141	0xbcd6b3c4	-0.026208766
142	0x3d85ea87	0.06538873
143	0xbd780270	-0.0605492
144	0xbe2cff94	-0.1689437
145	0x3d6b20de	0.05740439
146	0x3d585354	0.052813843
147	0xbe026393	-0.12733297
148	0x3ddf90c3	0.10916283
149	0xbbdda490	-0.006764002
150	0xbdb581e8	-0.08862668
151	0x3dbf9ee9	0.093564816
152	0x3d6d25e7	0.057897475
153	0x3b881d23	0.004153864
154	0xbdefde2f	-0.117123
155	0x3d0ee678	0.03488776
156	0x3cc7773c	0.024348848
157	0xbd42b811	-0.04753882
158	0xbcb18b7e	-0.02167296
159	0xbba781ef	-0.005111925
160	0xbcf58369	-0.029969888
161	0x3b83c9eb	0.004021873
162	0xbc0585ef	-0.008149608
163	0x3b500c19	0.0031745492
164	0xbcecdf26	-0.028915
165	0x3d804db0	0.06264818
166	0x3d885190	0.06656182
167	0x3d0d3d53	0.03448231
168	0xbc98a84f	-0.018634943
169	0xbd5aa1ac	-0.05337684
170	0xbde0f6ce	-0.10984574
171	0x3d99c674	0.07508555
172	0x3daaaafd	0.08333395
173	0x3cdf30f5	0.027245024
174	0x3dede6a3	0.11616256
175	0xbddb6c7a	-0.1071405
176	0x3d805bcd	0.062675096
177	0xbdfc6882	-0.12324621
178	0x3d114aed	0.035471845
179	0xbcf70e1f	-0.0301581
180	0xbcc5105d	-0.024055654
181	0x3cc2276c	0.023700438
182	0x3d9ec3b9	0.07752175
183	0xbd7f489d	-0.06232511
184	0xbd103a9a	-0.035212137
185	0x3ce9dfd6	0.028549116
186	0xbcfa5656	-0.030558746
187	0x3dcf9071	0.10134972
188	0x3d7dd49a	0.06197033
189	0x3e066431	0.13124157
190	0x3dcbb084	0.09945777
191	0x3ccb1139	0.024788486
192	0x3dc3fdd4	0.09569898
193	0x3c281bea	0.0102605615
194	0x3d78caf8	0.06074044
195	0x3da41ca8	0.08013278
196	0x3d24e7c2	0.040260084
197	0xbcaae02c	-0.020858847
198	0xbb5bf728	-0.0033564065
199	0x3d95f8e6	0.07322864
200	0x3da92f78	0.08261007
201	0xbbefe1ae	-0.0073206043
202	0x3d4eadf1	0.050458852
203	0xbd151eed	-0.036406446
204	0x3cc8e6cd	0.024524117
205	0x3cc242e4	0.023713537
206	0x3d20e853	0.03928406
207	0x3dd56e82	0.10421468
208	0xbd3fb526	-0.046803616
209	0xbabe58f1	-0.0014522356
210	0x3da1ae74	0.078946024
211	0xbd88af90	-0.06674111
212	0xbcf6c57e	-0.030123468
213	0x3ddd17db	0.10795566
214	0xbd8a3936	-0.06749193
215	0x3cef5573	0.02921555
216	0x3da0810c	0.07837114
217	0xbd983a49	-0.07432992
218	0xbdabc223	-0.08386638
219	0x3dce6811	0.10078443
220	0xbce4c12c	-0.027924143
221	0x3d9bfd04	0.07616618
222	0x3d3e3da6	0.04644551
223	0xbdd961af	-0.10614335
224	0x3d450f95	0.048110563
225	0xbdab1775	-0.083540834
226	0xbd89f2ca	-0.067357615
227	0x3daaa0b2	0.083314314
228	0x3cad5baf	0.021161882
229	0x3cac5cbf	0.021040319
230	0xbcc7eef7	-0.02440594
231	0x3de12c9b	0.10994836
232	0xbd751df8	-0.059843034
233	0xbdb986e0	-0.090589285
234	0xbc62da8a	-0.013846049
235	0x3dad8655	0.084728874
236	0x3c6566c2	0.01400155
237	0xbdbc9ae2	-0.09209229
238	0x3d2ee152	0.04269535
239	0x3d67f88d	0.05663352
240	0x3dad8a0f	0.08473598
241	0x3d111deb	0.035428923
242	0x3dbb4f88	0.09146029
243	0xbddc6790	-0.107619405
244	0x3cb56eff	0.022147654
245	0xbdef02fd	-0.11670492
246	0x3df17b4e	0.11791097
247	0xbd98e36f	-0.074652545
248	0x3e0231a2	0.12714246
249	0x3dc745e1	0.09730125
250	0x3bd059dd	0.006358369
251	0xbdb3c81f	-0.087784044
252	0x3daae43a	0.08344312
253	0xbcb914d7	-0.022592945
254	0x3d7cebd2	0.061748333
255	0xbd61ab85	-0.055095214

lstm.bias_hh_l0 f4 [256]
0	0x3e1b6277	0.1517428
1	0xbdc27759	-0.0949542
2	0x3ddc0cd7	0.107446365
3	0xbd931f91	-0.07183755
4	0xbd19b7d8	-0.037528843
5	0xbd0e2274	-0.034700826
6	0x3ca6d8ff	0.020367144
7	0xbdc8e356	-0.09808986
8	0x3e017c6b	0.12645118
9	0xbd519241	-0.05116487
10	0xbd41b1e0	-0.047288775
11	0x3ddf8f68	0.109160244
12	0x3d9d56ca	0.07682569
13	0x3e2a5ab5	0.16636164
14	0xbc86d02b	-0.016456684
15	0x3dc2b75a	0.09507628
16	0xbcb36d01	-0.021902563
17	0xbcbb59e4	-0.022870012
18	0xbdd60229	-0.10449631
19	0x3d689245	0.05678012
20	0x3dc6f117	0.09713953
21	0x3d2ef467	0.04271355
22	0x3dba64df	0.09101271
23	0xbd62286f	-0.05521434
24	0x3e03b51f	0.12862061
25	0x3d397e4a	0.045286454
26	0x3dd990c3	0.10623314
27	0xbdc2e913	-0.09517112
28	0xbd5bf4ac	-0.053700134
29	0xbd589245	-0.05287387
30	0x3d9f3a62	0.077748075
31	0xbdd7a9a7	-0.105304055
32	0xbe061c9b	-0.1309685
33	0xbd87d0b1	-0.066316016
34	0x3b169f19	0.0022983013
35	0xbdeb5132	-0.11490096
36	0x3de98b75	0.114035524
37	0x3ba878ef	0.0051413695
38	0x3cffc132	0.031220052
39	0xbbad5b27	-0.005290407
40	0xbdc293d3	-0.095008515
41	0x3e012138	0.12610328
42	0x3e1afe52	0.15136078
43	0x3cebaf8a	0.028770227
44	0x3e475dcd	0.19469376
45	0x3d17de76	0.03707739
46	0x3dc35758	0.09538144
47	0xbdd8e909	-0.10591323
48	0xbbfd7ac5	-0.0077355825
49	0x3b3a90b3	0.0028467595
50	0xbdb596d9	-0.088666625
51	0x3c604d9d	0.013690379
52	0x3de74b20	0.11293626
53	0xbd820f58	-0.06350583
54	0xbd2dcf68	-0.042434126
55	0xbdb9d624	-0.09074047
56	0x3db6a369	0.08917887
57	0xbc1d7153	-0.009609538
58	0x3c0d408e	0.008621348
59	0x3c777347	0.015103168
60	0x3d9f7a6d	0.07787023
61	0xbd6ac76d	-0.057319093
62	0xbdaf48e9	-0.085588284
63	0x3d0f2c2f	0.034954246
64	0xbd8d303c	-0.068939656
65	0xbbb74634	-0.0055930857
66	0xbb675249	-0.0035296849
67	0x3d11b173	0.03556962
68	0xbdb160f9	-0.08661074
69	0xbd03eda5	-0.032209057
70	0x3dea6ff4	0.114471346
71	0xbd5c40da	-0.053772785
72	0xbcfd0880	-0.030887842
73	0x3d2d42b5	0.042299945
74	0x3da51110	0.08059895
75	0x3de76775	0.1129903
76	0xbd8d1568	-0.068888485
77	0xbc996f78	-0.01872991
78	0xbd272fd0	-0.040817082
79	0xbd3785f0	-0.044805467
80	0xbd20e89b	-0.03928433
81	0x3cf01e72	0.029311392
82	0x3dc3c8c7	0.095597796
83	0xbddaccd7	-0.10683601
84	0xbd8bda56	-0.06828754
85	0xbdb780fc	-0.08960149
86	0xbdc43cf3	-0.09581938
87	0x3d31fe7e	0.043455593
88	0x3dbca207	0.09210592
89	0xbbd0ed9e	-0.0063759824
90	0x3d0b553a	0.034016825
91	0x3db8d4a4	0.09024933
92	0x3dc17d29	0.094477005
93	0xbdfc7e7d	-0.12328813
94	0x3d9254f5	0.071451105
95	0x3dc71f32	0.09722747
96	0xbdcf1528	-0.10111457
97	0xbc8217ce	-0.015880492
98	0xbdd479f4	-0.10374823
99	0x3cfac76c	0.03061267
100	0xbd96615e	-0.0734279
101	0x3daadd2d	0.08342967
102	0xbda2dcb8	-0.07952255
103	0x3dc45909	0.095872946
104	0x3dce5e5a	0.1007659
105	0xbc81db7c	-0.015851729
106	0xbd2e00d9	-0.042481277
107	0x3d8fe6a3	0.07026412
108	0xbd9df877	-0.077134065
109	0xbdb4c323	-0.08826282
110	0xbcf097dd	-0.029369289
111	0x3bddc62f	0.00676801
112	0x3daaccc1	0.08339835
113	0x3dcbd86c	0.099533886
114	0x3dc993e7	0.09842663
115	0xbe001a02	-0.12509921
116	0xbd8ab60b	-0.06773003
117	0x3dd920f1	0.10601986
118	0x3dffb8b7	0.124864034
119	0xbe0395f6	-0.12850174
120	0x3df23bda	0.11827822
121	0x3c20f8f9	0.009824985
122	0x3c522e66	0.012828445
123	0x3df4acd2	0.11947025
124	0xbddf9d15	-0.10918633
125	0xbdcdc3f6	-0.10047142
126	0xbdd57e83	-0.10424521
127	0xbc6c3b95	-0.014418502
128	0xbdff9bfe	-0.12480925
129	0xbd39c439	-0.045353148
130	0xbd766830	-0.060157955
131	0xbd6f5115	-0.058426935
132	0x3d560ae3	0.052256476
133	0x3de4e80e	0.111770734
134	0xbc5da84e	-0.0135288965
135	0x3da45f2e	0.080259666
136	0xbda12679	-0.07868666
137	0xbd0bad0c	-0.034100577
138	0x3d8e8ee7	0.0696085
139	0x3e22344a	0.15840259
140	0x3de964cb	0.11396178
141	0xbd583978	-0.05278918
142	0x3dbc3899	0.09190483
143	0x3d9a54af	0.07535683
144	0x3c9c964a	0.019114632
145	0xbd76df58	-0.06027159
146	0x3d3098d5	0.043114502
147	0x3d0487d8	0.032356113
148	0x3dee4e1b	0.11635991
149	0x3d224bf4	0.039623216
150	0x3c83f501	0.016108038
151	0xbd768119	-0.06018171
152	0xbc00f2fa	-0.00787043
153	0xbd80fda0	-0.06298375
154	0x3db16e67	0.08663636
155	0xbd358829	-0.044319306
156	0xbdc910d5	-0.098176636
157	0x3d1629fc	0.036661133
158	0xbd09680a	-0.033546485
159	0xbdbdd993	-0.092700146
160	0xbd811466	-0.06302719
161	0x3dc5aeed	0.09652505
162	0x3d9abf33	0.075559996
163	0x3b0d4348	0.0021554995
164	0x3d4668c4	0.048439756
165	0x3d1e9d34	0.03872414
166	0xbbbb350a	-0.00571311
167	0x3e12311e	0.14276549
168	0x3e00d8de	0.12582728
169	0x3d1e66a3	0.0386721
170	0x3dae7974	0.08519259
171	0x3d4aca6b	0.049509447
172	0xbc8fde9c	-0.017562203
173	0xbd2ec848	-0.04267147
174	0xbd8ce20f	-0.06879055
175	0xbcefec4d	-0.029287482
176	0xbca2eae7	-0.0198874
177	0x3db83a59	0.08995504
178	0xbd2faf10	-0.042891562
179	0xbc136286	-0.008995658
180	0x3d7406cd	0.0595768
181	0xbd851f3f	-0.065001
182	0xbdce6c83	-0.10079291
183	0x3ca9876d	0.020694459
184	0xbd486ca2	-0.048931725
185	0x3d8fe810	0.07026684
186	0x3db9e4b2	0.09076823
187	0x3c15ee9b	0.009151126
188	0xbd3fab3a	-0.046794154
189	0x3d4e19d2	0.050317593
190	0x3db26825	0.0871127
191	0x3c330b4d	0.010927987
192	0x3e023713	0.12716322
193	0x3d2977e6	0.04137411
194	0x3ae33d65	0.0017337023
195	0xbe0b27d8	-0.13589418
196	0xbde5f5c9	-0.112285204
197	0xbab69b3b	-0.001393176
198	0x3e49e62d	0.19716711
199	0x3d3cf53a	0.046132304
200	0x3dd14dc2	0.10219909
201	0x3d5f4498	0.054508775
202	0x3d4dfefe	0.050292008
203	0x3deb3e9e	0.11486553
204	0xbde96f82	-0.113982216
205	0x3db83be5	0.08995799
206	0xbd0de562	-0.034642585
207	0xbd83ff26	-0.0644515
208	0xbc9f03ad	-0.019410932
209	0xbd871f03	-0.06597712
210	0xbc1dec37	-0.009638838
211	0x3d999952	0.07499947
212	0x3db03ba8	0.086051285
213	0x3d207c4b	0.039181035
214	0x3e0d0cea	0.13774458
215	0xbdfdaeb0	-0.123868346
216	0x3b840113	0.0040284484
217	0x3e1b0d5e	0.15141818
218	0xbd2e51c5	-0.04255845
219	0xbd510dbb	-0.051038485
220	0x3dc27c51	0.09496368
221	0xbd1f278c	-0.038856074
222	0xbd416f88	-0.047225505
223	0xbdd11f0d	-0.102110006
224	0xbb144572	-0.00226244
225	0x3df1dc0f	0.11809551
226	0xbd3b2834	-0.045692638
227	0xbd88b30f	-0.06674778
228	0xbd50fe77	-0.051023927
229	0xbd606367	-0.054782297
230	0x3ca0aea1	0.01961452
231	0x3d71bebb	0.059019785
232	0xbcc1f98b	-0.023678562
233	0x3c7e5aab	0.015524547
234	0xbc99b6b7	-0.018763883
235	0xbc7ad7bd	-0.015310225
236	0x3de9f423	0.114235185
237	0x3c91fabe	0.017819759
238	0xbd28a7ce	-0.041175656
239	0xbccadc1a	-0.024763156
240	0x3d17d0f0	0.037064493
241	0x3b9e9949	0.0048400504
242	0xbde67fd0	-0.11254847
243	0x3d8388ba	0.06422563
244	0x3d9a9f33	0.07549896
245	0xbd6084b5	-0.05481406
246	0xbd968c5e	-0.07350992
247	0xbd8967b7	-0.06709235
248	0x3dbba1a7	0.09161692
249	0xbd6fdc7d	-0.058559883
250	0xbc5b3fcd	-0.0133819105
251	0x3cd50df7	0.026007636
252	0xbd16fd37	-0.03686258
253	0x3d4becd5	0.049786408
254	0xbd3a333d	-0.04545902
255	0xbd7487c9	-0.059699807

lstm.weight_ih_l1 f4 [256, 64]
0	0x3dd8a72a	0.10578759
1	0xbbb9316a	-0.0056516426
2	0xbc0ea7c3	-0.00870699
3	0x3bd61782	0.006533564
4	0xbdac249c	-0.0840542
5	0x3da27e15	0.079342045
6	0xbd931e5d	-0.07183526
7	0x3d60e0fe	0.05490207
8	0x3d7d4a57	0.061838474
9	0xbe118556	-0.1421102
10	0x3df987ee	0.1218413
11	0x3e0a6041	0.1351328
12	0x3d4b9ab7	0.049708094
13	0xbd882973	-0.06648531
14	0xbd893178	-0.066988885
15	0xbdc3b525	-0.09556035
16	0x3d3973cf	0.04527646
17	0xbd7b3eae	-0.061339073
18	0xbc8480b3	-0.01617465
19	0xbd4aeb2d	-0.049540687
20	0x3d3cb56a	0.046071447
21	0xbce5f228	-0.02806957
22	0x3d7ac83e	0.061226122
23	0xbe0dba87	-0.13840686
24	0x3cd5cea3	0.026099509
25	0x3d0119d1	0.03151876
26	0x3de8a790	0.11360085
27	0xbcbd5211	-0.023110421
28	0xb8c315a9	-9.302359e-05
29	0x3db1b743	0.086775325
30	0xbe03faaf	-0.12888597
31	0x3d980ed9	0.07424707
32	0x3dbd22f3	0.09235182
33	0x3d8ca727	0.06867819
34	0x3da6fc61	0.08153606
35	0x3e15b369	0.14619221
36	0xbdd53d14	-0.1041204
37	0x3e1c42ef	0.15259908
38	0xbb4d38ae	-0.0031314301
39	0xbe02c2fe	-0.12769696
40	0x3db9e86b	0.09077533
41	0xba7ee585	-0.0009723532
42	0x3d493284	0.04912044
43	0x3d81a601	0.06330491
44	0x3dd54b0b	0.10414704
45	0x39eabf70	0.0004477459
46	0x3d77d8cb	0.060509484
47	0x3c3f2bd0	0.011668161
48	0xbdaa9ed8	-0.08331078
49	0xbcfcc2fd	-0.030854696
50	0xbd934dfa	-0.07192607
51	0x3c97187f	0.018444298
52	0xbdbff4aa	-0.09372838
53	0x3d5d3c70	0.054012716
54	0xbd089370	-0.033343732
55	0xbdc7ba99	-0.097523876
56	0x3d771016	0.060318075
57	0xbd1084b1	-0.035282794
58	0xbdd9db51	-0.106375344
59	0x3c28368e	0.010266913
60	0x3d55aba7	0.052165654
61	0xbe1f1d44	-0.15538508
62	0x3d8f2656	0.06989734
63	0xbd33346d	-0.04375117
64	0xbdd1d0dd	-0.10244916
65	0xbcf413a4	-0.029794522
66	0xbde17b6e	-0.110098705
67	0x3d92c60c	0.07166681
68	0xbd92aa07	-0.071613364
69	0x3dc05638	0.09391445
70	0xbdd69d22	-0.104791895
71	0xbdb6e240	-0.089298725
72	0x3c806836	0.015674692
73	0xbd63b13d	-0.05558895
74	0xbd523da6	-0.051328324
75	0x3ddd3fe3	0.10803201
76	0x3dacbda2	0.08434607
77	0x3d0ca76e	0.03433936
78	0xbde59430	-0.11209905
79	0xbdd251e9	-0.10269529
80	0xbc8477a2	-0.016170327
81	0x3d764f1e	0.060134046
82	0xbd12938a	-0.035785235
83	0xbdea676e	-0.11445509
84	0xbc81ce5e	-0.015845474
85	0x3ca9773d	0.02068674
86	0xbd320dc1	-0.043470148
87	0x3d9151ad	0.070956565
88	0x3cc77a20	0.024350226
89	0x3cf272fb	0.029595843
90	0xbd1fea5b	-0.03904186
91	0xbdc8e310	-0.09808934
92	0xbcceef73	-0.025260663
93	0x3d378cdf	0.04481208
94	0x3d181ab4	0.03713484
95	0xbdd8762c	-0.105694145
96	0x3c51882d	0.0127888145
97	0xbda247eb	-0.079238735
98	0xbd4a8c0c	-0.049449965
99	0x3d14ef71	0.03636116
100	0x3b39080d	0.0028233558
101	0x3d2c2850	0.042030632
102	0xbd142f4f	-0.03617793
103	0xbdd22848	-0.10261589
104	0x3d3be467	0.04587212
105	0x3dab8e04	0.08376697
106	0xbd9cb1dc	-0.076511115
107	0xbde8733f	-0.113501064
108	0xbc47c1c8	-0.012192197
109	0x3d839081	0.06424046
110	0xbd4fd23b	-0.0507376
111	0x3cd55cdb	0.026045254
112	0xbddd6ba6	-0.10811548
113	0xbd38b25e	-0.04509198
114	0x3d838c8c	0.064232916
115	0x3d9efdef	0.07763278
116	0x3deebf5b	0.11657592
117	0xbd9ff757	-0.07810848
118	0xbd646f05	-0.05576994
119	0x3dcba520	0.099436045
120	0xbd871fae	-0.06597839
121	0xbd030a7b	-0.031992417
122	0xbd8b877a	-0.068129495
123	0xbd1d037c	-0.0383334
124	0x3d00fbf0	0.031490266
125	0x3d553f96	0.052062593
126	0xbda8e3af	-0.08246552
127	0x3ddfe08d	0.109315015
128	0xbdaa403b	-0.08313032
129	0x3da0a30a	0.07843597
130	0xbd8b7982	-0.06810285
131	0x3d99a2ca	0.07501753
132	0x3c65dcfd	0.0140297385
133	0x3d77c661	0.060491923
134	0x3ba775b9	0.005110469
135	0xbdd14cab	-0.102197014
136	0xbd6930ad	-0.056931186
137	0xbcf47455	-0.029840628
138	0xbdc39e99	-0.095517345
139	0xbe11c7de	-0.142364
140	0x3c59b784	0.013288382
141	0xbd44b65c	-0.048025474
142	0x3e04de6e	0.12975475
143	0xbd862152	-0.06549324
144	0x3d677541	0.056508306
145	0xbd24f340	-0.040271044
146	0x3d46974a	0.048484124
147	0x3da17e80	0.07885456
148	0x3dcccf38	0.10000461
149	0x3c307a04	0.010771278
150	0xbdc5a4e5	-0.09650592
151	0xbdc5439f	-0.09632038
152	0xbde4358a	-0.11143024
153	0x3da32c3f	0.07967424
154	0x3d97e072	0.074158564
155	0x3c54e429	0.012993851
156	0x3da114af	0.07865273
157	0x3d140009	0.036132846
158	0x3e1bbedf	0.1520953
159	0x3d91c441	0.071175106
160	0x3db40f61	0.08791996
161	0xbdd6d3f4	-0.104896456
162	0x3cd77247	0.026299609
163	0xbab24a4d	-0.0013602466
164	0x3c00dd2a	0.00786523
165	0xbe2921bd	-0.16516776
166	0x3d0d4be8	0.034496218
167	0xbdf7718b	-0.120822035
168	0xbace89c9	-0.0015757616
169	0x3d55978e	0.052146487
170	0x3db27da8	0.08715373
171	0xbcf58ba4	-0.029973812
172	0xbcc74730	-0.024325937
173	0x3e148704	0.1450463
174	0x3ce10c64	0.027471729
175	0x3c153670	0.009107217
176	0x3ddc2fb5	0.10751287
177	0xbcea8606	-0.02862836
178	0x3e090f6f	0.13384794
179	0xbbc7c9d2	-0.006097057
180	0x3e143262	0.14472345
181	0xbd2ab94c	-0.04168062
182	0x3e079736	0.13241276
183	0x3c5ec31c	0.013596322
184	0xbd21d778	-0.039512128
185	0xbcc912f9	-0.02454518
186	0x3c414887	0.011797077
187	0xbe142cb2	-0.14470175
188	0xbc242556	-0.010018667
189	0xbdc3822d	-0.095463134
190	0xbc931b0e	-0.017957237
191	0x3daed070	0.0853585
192	0x3c96e772	0.018420909
193	0xbdead3a6	-0.1146615
194	0x3d83503c	0.06411788
195	0xbd91fde3	-0.07128503
196	0xbd580eda	-0.05274854
197	0xbd463ec9	-0.04839972
198	0xbd9d2ee2	-0.07674958
199	0xbdeefa0e	-0.11668788
200	0xbd7f24c0	-0.062290907
201	0xbd5a9bff	-0.053371426
202	0xbd9a7068	-0.07540971
203	0xbdbe454e	-0.092905626
204	0x3dbdc3be	0.092658505
205	0x3e38d732	0.1805084
206	0xbda1da50	-0.07902968
207	0x3a6a820c	0.000894577
208	0xbcda6b2e	-0.026662435
209	0xbd141a77	-0.03615805
210	0x3da6ee12	0.08150877
211	0x3d9cfb43	0.07665112
212	0xbcafdd96	-0.021467965
213	0x3cc27548	0.023737565
214	0x3df57ba6	0.11986475
215	0x3c7ded32	0.015498446
216	0xbd4dd4cc	-0.050251767
217	0x3dc16881	0.09443761
218	0xbd6218a4	-0.05519928
219	0x3d6e04a6	0.0581099
220	0x3de07f0c	0.10961732
221	0xbdbfe2b8	-0.09369415
222	0xbdb9672e	-0.09052883
223	0x3c5df547	0.013547248
224	0x3b24f1f7	0.0025168636
225	0x3d19ea58	0.037577003
226	0xbdef6464	-0.1168907
227	0x3d15ad83	0.036542427
228	0xbda60243	-0.081059
229	0x3db691d5	0.08914534
230	0x3d2e852c	0.04260747
231	0xbdc63a54	-0.09679094
232	0x3d9db589	0.07700641
233	0x3dcdb196	0.100436375
234	0x3b7be405	0.003843547
235	0xbdbb0270	-0.09131324
236	0xbe036ad7	-0.12833725
237	0x3d82e94b	0.06392153
238	0x3da1bc43	0.07897236
239	0x3d5adbe3	0.053432357
240	0x3db40d08	0.08791548
241	0xbcf3155b	-0.029673269
242	0xbdebcd40	-0.11513758
243	0x3c9dd158	0.019264862
244	0x3e04a932	0.12955168
245	0x3d13943a	0.03603003
246	0xbd1bb0d7	-0.038010444
247	0xbdd499d7	-0.10380905
248	0x3dcd70d7	0.10031288
249	0xbdcc0718	-0.099622905
250	0xbd66d2ea	-0.056353487
251	0x3db067aa	0.08613522
252	0x3cef8109	0.029236333
253	0xbddf048f	-0.10889541
254	0x3c7f4ff9	0.015583032
255	0x3d3fa6af	0.04678982

lstm.weight_hh_l1 f4 [256, 64]
0	0xbdbf8fe7	-0.09353619
1	0xbd2152fa	-0.039385773
2	0xbcf486ea	-0.029849488
3	0x3cd52972	0.02602074
4	0xbda05298	-0.078282535
5	0xbd942909	-0.07234389
6	0xbdb071bb	-0.08615442
7	0xbe14b282	-0.1452122
8	0xbdc41c26	-0.095756814
9	0x3d2b7e5d	0.041868556
10	0xbdf1ffba	-0.11816354
11	0xbbb6a3b7	-0.0055737155
12	0x3c8d87d6	0.017276686
13	0xbda8d719	-0.082441516
14	0xbd37f27c	-0.044908985
15	0xbd18e9b4	-0.03733225
16	0x3dae04c9	0.084970064
17	0xbcc3a367	-0.023881627
18	0x3e0f483f	0.13992403
19	0x3d88b46e	0.06675039
20	0xbd91922c	-0.07107958
21	0x3c5abd5c	0.013350811
22	0x3dabcd95	0.08388821
23	0xbd99facc	-0.07518539
24	0xbd7dee2b	-0.061994713
25	0x3d8c2458	0.068428695
26	0x3dded6a5	0.10880784
27	0x3cb77835	0.022396186
28	0xbdee0132	-0.11621322
29	0xbcb03246	-0.021508347
30	0xbdab21e8	-0.083560765
31	0x3dfaafce	0.12240563
32	0x3d8bd5e0	0.06827903
33	0x3ce545ed	0.027987445
34	0x3dc62a94	0.0967609
35	0xbe04acd0	-0.12956548
36	0xbd5a8cde	-0.053356998
37	0xbd76e1a1	-0.06027377
38	0x3dd19c97	0.10234945
39	0xbd9f6a39	-0.07783932
40	0x3e13c08a	0.14428917
41	0xbdbd0843	-0.092300914
42	0xbd9abca1	-0.07555509
43	0xbe168025	-0.14697321
44	0xbbd606c0	-0.0065315664
45	0x3e024f89	0.12725653
46	0x3dbe4c5d	0.09291909
47	0xbd2d20c0	-0.04226756
48	0xbe147845	-0.14499004
49	0xbc0927f9	-0.008371347
50	0x3dc01565	0.09379081
51	0xbdd61645	-0.10453466
52	0xbd23dce2	-0.040005572
53	0x3ddaa7cb	0.10676535
54	0xbdf02161	-0.117251165
55	0xbdadbdf2	-0.08483495
56	0xbda720bd	-0.08160541
57	0xbde1062b	-0.109875046
58	0x3de64711	0.112440236
59	0x3db3a2e9	0.08771307
60	0xbdc8492a	-0.0977958
61	0x3dbd5b2b	0.092459045
62	0xbcc78914	-0.024357356
63	0xbc7ff366	-0.015621996
64	0x3dbe7ced	0.093011715
65	0x3c97477a	0.0184667
66	0x3ccdcacb	0.025121113
67	0x3d8a3978	0.067492425
68	0xbdece8d3	-0.11567845
69	0x3bd9867b	0.006638346
70	0xbc001405	-0.007817273
71	0x3cb23ae4	0.021756597
72	0x3da28d8b	0.079371534
73	0xbd7e762c	-0.062124416
74	0x3d55d9fa	0.05220983
75	0xbc2427df	-0.010019272
76	0x3d0fa958	0.03507361
77	0x3c89b07b	0.016807785
78	0xbd652988	-0.05594781
79	0xbde45acf	-0.11150133
80	0x3db67ad7	0.089101486
81	0x3dae3c3a	0.08507581
82	0x3c7a0891	0.015260831
83	0xbdbf363f	-0.093365185
84	0x3dbb2647	0.0913816
85	0xbde2b73c	-0.110701054
86	0x3dde2400	0.1084671
87	0x3d0fcaab	0.03510539
88	0x3d072b37	0.033000197
89	0xbdf77023	-0.12081935
90	0xbd2f291d	-0.042763818
91	0xbdde1bb4	-0.10845128
92	0xbde16195	-0.110049404
93	0xbda746ba	-0.08167787
94	0xbdc25c05	-0.094902076
95	0xbd2abb8b	-0.04168276
96	0xbda11eca	-0.07867201
97	0x3de46a4b	0.11153086
98	0x3934f5f3	0.00017257761
99	0xbd6f42bc	-0.058413252
100	0x3dc5b3df	0.09653448
101	0x3d70163c	0.058614954
102	0x3e094ed7	0.13408981
103	0xbc4e4694	-0.012590069
104	0xbda69831	-0.08134497
105	0x3dae72cd	0.0851799
106	0xbd8a48ff	-0.06752204
107	0x3da45aa7	0.08025103
108	0x3d78c6c4	0.060736433
109	0xbdf04caf	-0.11733376
110	0x39cf5898	0.00039548124
111	0xbc05753b	-0.008145626
112	0x3d5c0975	0.053719956
113	0x3d9f4662	0.07777096
114	0xbd9b4520	-0.07581544
115	0xbdd119d1	-0.10210002
116	0xbd6d37dd	-0.057914604
117	0xbd381de7	-0.044950392
118	0xbd2b5502	-0.041829117
119	0x3e188783	0.14895444
120	0x3d1b904b	0.037979405
121	0xbdffa3df	-0.12482428
122	0xbd2bc14f	-0.0419324
123	0x3d3582fb	0.044314366
124	0xbdc14ea1	-0.094388254
125	0xbdea39ba	-0.11436792
126	0xbd5b4c31	-0.05353946
127	0xbd7dfccf	-0.062008675
128	0xbd982880	-0.074296
129	0x3d77e244	0.060518518
130	0xbd8337af	-0.06407105
131	0xbe02768e	-0.12740538
132	0x3e0832ab	0.13300578
133	0xbdb30ba3	-0.08742454
134	0xbd811848	-0.063034594
135	0xbce19bd9	-0.027540134
136	0xbdba1c02	-0.09087373
137	0x3d91c148	0.071169436
138	0x3ce8670f	0.028369455
139	0xbcdfdaed	-0.027326072
140	0xbcc3c752	-0.023898754
141	0x3c1b4f26	0.00947932
142	0xbcb9b9f4	-0.022671677
143	0xbd19a977	-0.03751513
144	0xbcfaf5d9	-0.030634807
145	0x3d20aca6	0.03922715
146	0xbdce8be7	-0.10085278
147	0xbd8f91b6	-0.07010214
148	0xbd6e0fc0	-0.05812049
149	0x3de354d5	0.11100165
150	0xbe0172d5	-0.12641461
151	0x3d912cd6	0.0708863
152	0xbdc8defe	-0.098081574
153	0xbdbaf33a	-0.09128423
154	0xbb7885cf	-0.0037921553
155	0xbdcb393a	-0.099230245
156	0xbd918b1e	-0.071066126
157	0x3ded1dd8	0.11577958
158	0x3dcb0e9f	0.09914898
159	0xbde5d426	-0.11222105
160	0x3dffacc3	0.124841236
161	0x3d41fd79	0.04736087
162	0xbdf98a3b	-0.121845685
163	0x3d9b5bed	0.07585893
164	0x3dd7b691	0.10532869
165	0xbd5dd455	-0.054157574
166	0x3dc057da	0.09391756
167	0x3de43121	0.11142183
168	0xbdebe3c9	-0.11518056
169	0xbdbfaf63	-0.09359624
170	0x3d6c21dc	0.05764948
171	0x3d81c9e7	0.06337338
172	0xbe060873	-0.1308916
173	0x3da3373e	0.07969521
174	0xbb8e0af3	-0.0043348013
175	0xbcdeecc9	-0.027212517
176	0xbdd3583a	-0.10319562
177	0x3c95e7b8	0.018298969
178	0xbdb4d12c	-0.08828959
179	0x3dbffafb	0.093740426
180	0xbd839c18	-0.06426257
181	0xbdd74d36	-0.10512774
182	0x3df047cb	0.117324434
183	0xbe0b34d8	-0.13594377
184	0x3d993440	0.07480669
185	0x3d8275e2	0.063701406
186	0x3c7bee75	0.015376677
187	0xbd55a0d3	-0.052155327
188	0xbdd9e561	-0.10639454
189	0x3d172fbc	0.036910757
190	0xbd5cc2f4	-0.05389686
191	0x3d75da3f	0.06002259
192	0xbdd185ca	-0.10230596
193	0xbd36a087	-0.044586685
194	0xbd8fa662	-0.07014157
195	0xbd9bc52a	-0.076059654
196	0x3db54e4f	0.08852827
197	0x3cd70a31	0.026249977
198	0x3dd8da97	0.10588568
199	0x3d1fba89	0.038996253
200	0xbdc7f2bb	-0.09763094
201	0x3df049e7	0.11732846
202	0xbd998424	-0.07495907
203	0x3c945352	0.018106136
204	0x39d0cc3c	0.00039825018
205	0x3db5f7a1	0.08885122
206	0x3d9bfd25	0.07616643
207	0x3d734658	0.059393257
208	0x3d67c446	0.056583665
209	0x3c960a34	0.018315412
210	0x3d943363	0.07236364
211	0xbd77db26	-0.06051173
212	0xbc6c2c9d	-0.0144149335
213	0xbd6dadb4	-0.058026984
214	0x3d521f86	0.051299594
215	0x3d8a143b	0.0674214
216	0x3dd3a421	0.103340395
217	0x3db79ea2	0.08965804
218	0xbd95b97a	-0.073107675
219	0x3cdaafe7	0.026695205
220	0x3d8d276f	0.06892287
221	0xbcc60321	-0.024171414
222	0x3dc851b8	0.097812116
223	0xbd96433b	-0.07337042
224	0x3db6a4aa	0.08918126
225	0xbdadfc1a	-0.0849535
226	0xbc0fbb5c	-0.008772697
227	0xbcce0204	-0.025147445
228	0xbdd2fb00	-0.10301781
229	0xbdcfbf58	-0.10143918
230	0x3d02df90	0.031951487
231	0xbdeb2fa2	-0.114836946
232	0x3c49618a	0.0122913215
233	0x3bf12558	0.007359188
234	0xbddea914	-0.10872093
235	0x3b6e7e13	0.0036391064
236	0xbcd58e85	-0.026068935
237	0x3c07ff2c	0.008300584
238	0xbd353d58	-0.044247955
239	0x3c6e9fc7	0.014564461
240	0x3cc95571	0.024576874
241	0x3c260dcd	0.010135126
242	0xbdde9980	-0.108691216
243	0x3cb521a8	0.022110775
244	0xbdb11727	-0.08646994
245	0x3c927715	0.017879048
246	0x3dd22612	0.102611676
247	0x3de9d85f	0.11418223
248	0x3d8282f3	0.06372633
249	0xbddc4c6d	-0.107567646
250	0x3cc56f15	0.02410082
251	0xbddd41b7	-0.1080355
252	0x3dc92147	0.098208
253	0x3d838e49	0.06423623
254	0x3db41cd2	0.087945595
255	0xbdbe311f	-0.09286713

lstm.bias_ih_l1 f4 [256]
0	0x3d45e4f1	0.04831404
1	0xbd7ea521	-0.062169198
2	0x3c947695	0.01812295
3	0xbd426ae5	-0.047465224
4	0xbc4ccf53	-0.012500602
5	0x3da1b0af	0.07895028
6	0x3d2fee71	0.042952005
7	0x3dd354ca	0.103189066
8	0x3d97dbb2	0.074149504
9	0x3ddc30a3	0.10751464
10	0x3d979cde	0.07402967
11	0x3cc4f802	0.02404404
12	0x3d5fee20	0.054670453
13	0x3bf56b0e	0.0074895686
14	0x3d9d259e	0.076731905
15	0xbded16b2	-0.115765944
16	0x3ddf28e6	0.10896473
17	0xbc570676	-0.013124099
18	0xbdf0d8d2	-0.11760105
19	0xbcf73a9a	-0.03017931
20	0xbdcdd5f7	-0.10050576
21	0xbddd0264	-0.107914716
22	0x3db7ea15	0.089801945
23	0x3da5b06d	0.08090291
24	0x3dda2ec1	0.10653449
25	0x3a0e04b6	0.0005417572
26	0x3dc638f6	0.09678833
27	0xbd23cd31	-0.039990608
28	0xbc89d42d	-0.016824806
29	0x3d1ab1af	0.03776711
30	0xbdc54d14	-0.09633842
31	0xbe14646c	-0.14491433
32	0xbdec3580	-0.11533642
33	0x3d0516e0	0.03249252
34	0x3ce8cf5e	0.028419193
35	0xbcb68158	-0.022278473
36	0x3dd8ec57	0.10591953
37	0xbd5e63b2	-0.054294296
38	0xbd9fdd98	-0.078059375
39	0x3c7cec11	0.015437142
40	0xbc8cdb6c	-0.017194472
41	0xbce7568a	-0.028239507
42	0xbd8fb01b	-0.07016011
43	0xbdb40621	-0.087902315
44	0x3dbd7a40	0.09251833
45	0xbcc05cd8	-0.023481771
46	0xbcbb37e6	-0.022853803
47	0xbd770390	-0.06030613
48	0x3d974d0a	0.07387741
49	0xbcaab320	-0.020837367
50	0xbc60870b	-0.013704072
51	0xbbaca1ee	-0.005268327
52	0x3b83360a	0.0040042447
53	0x3d9080f0	0.07055843
54	0x3d8152c0	0.063146114
55	0x3d146ebc	0.036238417
56	0xbd70e2b9	-0.05880997
57	0x3daa8861	0.083267935
58	0x3d038778	0.032111615
59	0xbb38307a	-0.0028105066
60	0xbc872228	-0.01649578
61	0xbdbd4e02	-0.092433944
62	0x3d2d4150	0.042298615
63	0xb9ab6252	-0.00032688916
64	0x3d55ee04	0.052228943
65	0xbde8ab43	-0.113607906
66	0xbcc3ff06	-0.023925316
67	0xbded4fc9	-0.115874834
68	0x3e0d74a6	0.13814029
69	0xbba0848b	-0.004898613
70	0x3deff35d	0.1171634
71	0xbd462bb3	-0.04838152
72	0x3da916d4	0.08256307
73	0x3c5a5620	0.013326198
74	0x3d11d076	0.035599194
75	0x3dbfb3ca	0.09360464
76	0xbd53b603	-0.05168725
77	0x3d599bbf	0.053127047
78	0x3dd804ca	0.105477884
79	0xbdfcdab0	-0.12346399
80	0x3d961a2a	0.07329209
81	0x3b3b1386	0.0028545572
82	0x3beee01b	0.007289899
83	0x3e0514ed	0.12996264
84	0x3c13d247	0.009022302
85	0xbc84ac48	-0.016195431
86	0xbdeceac5	-0.11568216
87	0x3c2babff	0.010478019
88	0xbdddbb32	-0.1082672
89	0x3c04010b	0.008056889
90	0xbd869315	-0.065710224
91	0xbdcb55f9	-0.09928507
92	0xbdcae454	-0.099068314
93	0xbdeed3ba	-0.116614774
94	0xbd0e5c52	-0.034756012
95	0xbde76582	-0.11298658
96	0x392f900b	0.0001674296
97	0xbb2352f4	-0.002492127
98	0xbca6a878	-0.020344004
99	0x3d708304	0.058718696
100	0x3cfae19f	0.030625163
101	0xbc89a638	-0.016802892
102	0xbde83764	-0.1133869
103	0x3d9f126d	0.07767186
104	0xbd7394d0	-0.05946809
105	0xbd8922df	-0.06696104
106	0x3d89a5fb	0.067211114
107	0xbd3bd936	-0.045861445
108	0x3d8e514e	0.069491014
109	0xbb44fdc9	-0.0030058494
110	0x3db02e81	0.0860262
111	0x3dc421ec	0.095767826
112	0xbd101193	-0.03517301
113	0x3da9bcca	0.08287962
114	0xbd1eb2e9	-0.03874484
115	0x3da0a493	0.0784389
116	0xbd324b9c	-0.043529138
117	0xbda31cbd	-0.07964466
118	0xbd6aeb62	-0.057353385
119	0xbd47a2e3	-0.048739325
120	0x3dc00506	0.09375958
121	0x3ddba9eb	0.10725769
122	0x3d0a1f2b	0.03372113
123	0xbd31d0c5	-0.04341199
124	0x3c98aad0	0.018636137
125	0x3d6e9c69	0.058254633
126	0x3e07f198	0.13275754
127	0x3db05183	0.08609297
128	0xbaf9d33a	-0.0019060143
129	0x3d4452aa	0.047930397
130	0xbd7f2983	-0.062295448
131	0x3ca4b85b	0.020107439
132	0x3def11e1	0.11673332
133	0xbdd98a86	-0.106221244
134	0xbda80af1	-0.08205212
135	0xbc26f93a	-0.010191256
136	0x3d3f771d	0.046744455
137	0x3de4f200	0.1117897
138	0x3c3a1a1c	0.011358764
139	0x3d8e4eed	0.06948648
140	0x3ca63615	0.02028946
141	0x3c88425f	0.01663321
142	0x3dacf19e	0.08444522
143	0xbc52c27f	-0.012863754
144	0xbdd8addf	-0.10580038
145	0x3de407ed	0.11134324
146	0xbda961e4	-0.08270624
147	0xbccdbdab	-0.025114855
148	0xbdf1b3de	-0.11801885
149	0x3e04d503	0.12971883
150	0xbd88896d	-0.06666837
151	0x3bc44ba5	0.005990463
152	0xbd495182	-0.049149998
153	0xbc3a916e	-0.011387212
154	0x3d89deb0	0.067319274
155	0x3cf98da7	0.030463053
156	0x3d8887be	0.06666516
157	0xbdd2068c	-0.10255155
158	0x3d5be5f9	0.053686116
159	0xbdc4d9c2	-0.096118465
160	0xbd510818	-0.05103311
161	0x3cb17e7b	0.021666756
162	0x3d8240ca	0.06360014
163	0xbd443659	-0.047903392
164	0x3d46a1a9	0.048494015
165	0xbdc4e9f2	-0.09614934
166	0xbdafe8a1	-0.08589292
167	0xbd2884a4	-0.04114212
168	0x3d92f23b	0.07175108
169	0x3d90dae5	0.07073001
170	0x3db82c26	0.08992796
171	0xbc8ea85e	-0.017414268
172	0x3c31e964	0.010858867
173	0x3cbf1843	0.023326999
174	0xbd2d82bd	-0.04236101
175	0x3dd648bd	0.104630925
176	0x3d9e0adb	0.07716914
177	0x3bc84474	0.006111676
178	0xbcc5c1db	-0.024140289
179	0xbdbb79d3	-0.091540955
180	0x3dcbf8b9	0.099595495
181	0xba67e7b3	-0.00088464766
182	0x3c5c5640	0.013448298
183	0x3dd29144	0.102816135
184	0x3d8b1678	0.06791395
185	0xbca14937	-0.019688232
186	0x3da62235	0.08111993
187	0xbca953af	-0.020669786
188	0x3c6220a6	0.013801729
189	0x3dba520b	0.0909768
190	0xbdb1572e	-0.08659206
191	0x3db42eec	0.08798012
192	0xbe073c39	-0.13206567
193	0xbd890c77	-0.066918306
194	0x3c841f59	0.016128229
195	0xbc497769	-0.012296536
196	0x3dfa7f0b	0.12231263
197	0x3e02ff8b	0.12792794
198	0xbb808d4e	-0.003923095
199	0xbd182b6c	-0.037150785
200	0x3dee44e2	0.11634232
201	0xbdc9007d	-0.09814546
202	0xbdc558a7	-0.0963605
203	0x3da9e751	0.08296073
204	0xbc25f2d4	-0.0101286955
205	0x3cc0b98b	0.023525974
206	0x3db80baf	0.089866035
207	0x3cdfc838	0.027317151
208	0x3dea022a	0.11426194
209	0x3dcb2126	0.09918432
210	0xbd176ab5	-0.036966998
211	0x3df7f6ee	0.12107645
212	0x3de3bcff	0.111200325
213	0x3dd49bb0	0.103812575
214	0xbdf27a93	-0.118397854
215	0xbc8fd5e0	-0.017558038
216	0xbd4f082f	-0.050544914
217	0xbd36aaeb	-0.044596594
218	0x3dfc7e57	0.12328785
219	0x3d29b15a	0.0414289
220	0xbd366753	-0.04453213
221	0x3de6eabf	0.11275243
222	0x3d0408d1	0.03223497
223	0x3b63c149	0.0034752658
224	0xbc89beab	-0.01681455
225	0xbde1d7e7	-0.11027508
226	0x3dd20da5	0.10256509
227	0xbd008438	-0.031376094
228	0x3d905d53	0.0704905
229	0x3d4c00c2	0.04980541
230	0x3e16822b	0.14698093
231	0xbc41f789	-0.011838802
232	0x3dd87ed9	0.10571069
233	0xbcb12641	-0.021624686
234	0x3d99d1d3	0.07510724
235	0x3c1ea903	0.00968385
236	0xbdeb269a	-0.11481972
237	0xbd7c3942	-0.061578043
238	0xbd089936	-0.03334924
239	0x3bc13f98	0.0058974735
240	0x3dd7f361	0.10544468
241	0xbde42a44	-0.11140874
242	0xbd6fe5bb	-0.058568697
243	0xbd810883	-0.063004516
244	0x3d9a9d4f	0.075495355
245	0xbe1c04e6	-0.15236244
246	0x3d9cb928	0.07652503
247	0x3d622e74	0.055220082
248	0x3c36fc18	0.011168502
249	0x3cece5cb	0.028918168
250	0x3c65cedc	0.01402637
251	0x3da88d61	0.08230091
252	0x3d8b22b5	0.06793729
253	0x3d2de5bc	0.04245542
254	0xbc12277e	-0.0089205485
255	0x39222578	0.00015463482
