models/RNN_bbva.pt (torch, 232292 bytes, 11 tensors)

lstm.weight_ih_l0 f4 [256, 11]
00000000: 7af3 5a3d c07d 28bd cee0 003e 3002 99bd
00000010: 4446 dbbc a84d 633f d4f5 393d 538c df3d
00000020: 972d 66bc f6ab 783e c44f c7be 2883 9cbd
00000030: 190a 093e 4e0e 5f3d fdaa d83b b6f9 09bd
00000040: 7777 5d3f 95a3 b83d 345c d73c 9f28 bebd
00000050: 808a a3bc 04cf e9bc f03b bf3d 7620 e03d
00000060: e0e6 063d 0854 82bd d4d8 523b 973c 283f
00000070: d09e ba3c 12f4 f43d 2b56 2e3d 54d3 d93d
00000080: 86d0 6f3d 4f11 26bb e580 ff3d 2d95 46bd
00000090: 332e aabd 19c8 b93c a1a3 f73e ec39 103e
000000a0: 3108 213d 8c1e 68bd bdde 373c 5056 a7bd
000000b0: 15c2 f13d 84d8 e33d d2f9 c83d 9b69 723c
000000c0: d9c6 31bd 0708 123f d627 293d 4234 07bd
000000d0: c6dc ed3d b979 d93c 1108 493e 8f71 babc
000000e0: 7eea 37bc 216a 34bd 3ab7 dfbd 1ca2 cc3b
000000f0: f7ba 393f 4a2b 16bd ace9 9c3d 40b4 88bd
00000100: e7ca a73d 1ee8 a53d e9a7 bfbd b653 d1bd
00000110: 5752 92bd 24dd 13be e729 483c 8927 873e
00000120: e1f8 3f3c 16dd 6a3c e6ee 013c e310 89bd
00000130: 18b9 06be 5b0d 4c3b 6d1f 143e 2b9a 2d3b
00000140: 2b4a 56bc 7325 eabd 1d87 de3e e317 8d3d
00000150: 4f9b 013e a0e4 c3bd 2e1b 913e f8a8 e0bd
00000160: a0b2 01be fbc1 f7bd e5dd 9cba bec0 5cbd
00000170: 4749 65bd d37e 243f e358 bebd e5a0 b23d
00000180: bc93 36bd 760a d4bd b6b0 7bbe c754 d93c
00000190: dd8b 0f3e 3886 343d bd36 7c3c 0e9c b63d
000001a0: 378e f23e ee99 59bb 48b3 9c3d b0ca 0bbe
000001b0: 1d84 10bd 1878 48bd c0cc 103c ba55 2fbd
000001c0: e993 163e 2afd b83b f0f4 83bc 07ba aa3f
000001d0: b8bc 013e 0a85 833d e663 eabd ec1c 313d
000001e0: 59ad 35be b6a3 663c 9d69 ac3b f8cf 3e3e
000001f0: 15c6 f63d be42 1ebd 38d6 f6bd 0a59 293d
00000200: 8496 67bd 9463 20bd 0285 133f 2869 bdbe
00000210: 49e7 fe3d 4a83 c73d 75a2 ea3d 9d59 12be
00000220: 9491 80bd 2f9f 2b3f a898 063e 3b3b e83c
00000230: 7a64 11bd e1d5 87be 6ac6 85be 4bd4 18be
00000240: ba32 0dbe 3dda fbbd 279e d7bc 7eae f5bd
00000250: 5876 303d 3851 d7bd 317c c0bd 7e58 fd3b
00000260: 7dfd 0d3c 81e9 843d ec28 8abd a181 cf3d
00000270: 7f1e 263e 5e64 b53d eea7 b3bc 338c 083f
00000280: 6c9c 12bd 9598 903d 88c8 f5bd 6cf7 a73d
00000290: 7f9d f73b 3766 143d 6be5 a1bd 3bd7 243d
000002a0: 905b 9a3c 62b4 f83d 84ee bc3e aaaa a73d
000002b0: 8aba 31bd 5995 e4bc 0ba4 573e e89b 81bd
000002c0: b146 aabd c24a e13d 050e 6ebd 8dbf dcbd
000002d0: b402 85bb 20e7 f33e 4a27 c2bd 4e97 cf3c
000002e0: 6846 bb3d b01d eebb 5c07 4a3d 0020 043e
000002f0: 1314 d03d 5e8f ccbd f324 5e3d 40fc 8dbd
00000300: c3cd 223f f4c3 8d3d b41f 773d 8474 0dbb
00000310: b9af b43c 7ca0 86be d39a c13d ec62 023e
00000320: 451e 1b3e a42f 6fbd 67e0 82bd 371b f03e
00000330: a9a8 9ebd 378a 81bd d5f4 5dbd 25b2 30bd
00000340: 8341 873d d856 3cbd 74b8 f73d 0e77 d23d
00000350: 2fa2 a1bc f64c 88bd 44a6 443f 8d9a c93d
00000360: e847 b93d 3f60 c9bc b7a2 263e 73f0 26be
00000370: 8693 223e 1ccf c83d 6e63 d53d cab6 59be
00000380: 8ba4 0a3e 25c7 113e 72e9 46bc 2cb8 f53a
00000390: f93b 513b 8201 993d b3ac 3ebe 4ad0 033b
000003a0: 507e 403d ae1f 1a3d 2e90 633c b32b 8c3d
000003b0: 04f3 083d 1bd2 7fbd 5999 823d bc0a b1bd
000003c0: bbb4 64bc ecec 9dbe ac3c c53c 1712 cbb9
000003d0: 6ef3 833d 8f0d 51be e5d1 a6bc 2f91 f33e
000003e0: 47a8 153d 7c7c 753d d9d3 edbd 7b0d a63c
000003f0: 9198 bc3d 545a 103d e3b4 8b3d 35f9 ca3c
0.053454854 -0.04113555 0.12585756 -0.0747112 -0.026766904 0.8879037 0.045400456 0.109154366
-0.014048955 0.24284348 -0.38928044 -0.076422036 0.13382758 0.054457 0.0066121803 -0.03368541
0.86510414 0.09015576 0.026289083 -0.092850916 -0.019963503 -0.028541096 0.09337604 0.109436914
0.032935023 -0.06363684 0.0032172697 0.6571745 0.022780806 0.11960615 0.042562645 0.10636011
0.058548473 -0.0025339907 0.124757566 -0.04848211 -0.08309593 0.022678422 0.48367026 0.14084595
0.039314453 -0.056669757 0.011222539 -0.0817076 0.11804596 0.111252815 0.098132744 0.014795686
-0.043402527 0.570435 0.041297756 -0.03300882 0.11614375 0.0265473 0.19631983 -0.022759227
-0.011225341 -0.044046525 -0.109236196 0.006244911 0.7255091 -0.036662377 0.07661757 -0.06675005
0.081929974 0.081009135 -0.09358198 -0.10221045 -0.07144611 -0.14439827 0.012217022 0.2639735
0.011717052 0.014334938 0.007930493 -0.06692674 -0.13156545 0.003113589 0.14465113 0.0026489596
-0.013079206 -0.11432924 0.43462458 0.06889322 0.12656902 -0.09565091 0.2834105 -0.10969728
-0.12665796 -0.12097546 -0.0011967985 -0.05389475 -0.055978086 0.6425602 -0.092942975 0.087220944
-0.044574484 -0.10353558 -0.24579129 0.026529683 0.14018197 0.044073313 0.01539391 0.08916484
0.47374126 -0.0033203322 0.07651383 -0.13651538 -0.035282243 -0.048942655 0.008837879 -0.042806365
0.14704861 0.005645414 -0.016108006 1.3338021 0.12669647 0.064218596 -0.11444835 0.043240473
-0.17741908 0.014077118 0.0052616135 0.18634021 0.120495 -0.03863787 -0.12052578 0.04134468
-0.056540027 -0.039157465 0.5762483 -0.3699429 0.12446458 0.09741838 0.114567675 -0.14291997
-0.06277767 0.6703977 0.13144171 0.028348556 -0.035496213 -0.26530364 -0.2612794 -0.14924733
-0.13788882 -0.12297485 -0.02632053 -0.11996172 0.04308161 -0.10513538 -0.09398688 0.0077314964
0.008666393 0.0648985 -0.067460865 0.101321466 0.16222571 0.08857034 -0.021930661 0.5333893
-0.035793707 0.07060353 -0.12001139 0.08201489 0.007556617 0.036230292 -0.07905086 0.040244322
0.018842489 0.1214378 0.36900723 0.081868485 -0.04339079 -0.027903246 0.21058671 -0.06328565
-0.083142646 0.11000587 -0.05811884 -0.10778723 -0.00405916 0.47637272 -0.0948015 0.025340702
0.09144288 -0.0072667226 0.049323425 0.12902832 0.10160079 -0.099882826 0.054234456 -0.069328785
0.6359522 0.06922141 0.06033297 -0.0021584341 0.022056447 -0.26294315 0.094533585 0.12733048
0.15148266 -0.058395043 -0.063904576 0.46895763 -0.07747013 -0.063251905 -0.05418857 -0.043138642
0.06604292 -0.04598126 0.120957285 0.10276614 -0.019730655 -0.06655304 0.768162 0.09843931
0.09046918 -0.024582027 0.16273008 -0.16302662 0.15876588 0.09805128 0.10419355 -0.21261135
0.1353933 0.14236124 -0.012140619 0.0018746904 0.0031926616 0.07470991 -0.18620567 0.0020113164
0.04699546 0.03762787 0.013889356 0.068442725 0.033434883 -0.06245623 0.06376905 -0.086446255
-0.013959105 -0.3084482 0.024076782 -0.00038732655 0.06442915 -0.20415328 -0.020363757 0.47571704
0.036537435 0.05993317 -0.11612672 0.0202701 0.09208787 0.035242394 0.06821611 0.024777034

lstm.weight_hh_l0 f4 [256, 64]
00000000: 9e78 303e 252d 513e b436 35bd 61f8 70be
00000010: 290e c5bc 84af 903e efd6 3bbe 4e62 8dbe
00000020: e7e2 8fbd aaa4 553e 00a3 acbe 25d0 773e
00000030: 456b 84be 75ce 133e 8020 173e b514 283d
00000040: 461f e8bc f835 87be be0f 07be a562 223e
00000050: 1f8e 81be cf1c 87bd cf19 93be 1ff3 893b
00000060: 78ca 50bd 128e 923e 308e 7cbe c8f4 11bc
00000070: 1af7 82be 75ae 3fbd 1c86 4cbe a25d 1b3e
00000080: e24b 813e fd4e 323e e6ec fbbc 05a5 c4be
00000090: 1dc3 413e 6235 1c3e 11a1 82be c035 41be
000000a0: 1ae7 523e 8f26 6bbd 437f 5cbe a386 4dbe
000000b0: 5265 7e3e 8875 6c3e 536e 9c3d 6f6a d73d
000000c0: 56d0 9e3e 63de 013e cfb1 bd3c f1c1 0fbe
000000d0: c0b3 c93d 2801 813e 9126 57bd 241d 843d
000000e0: c1a6 37be ea90 ee3d dc9c 093e 8901 6bbe
000000f0: cfcc 84be 02f7 373e 47d9 d0be 29d9 2abd
00000100: 2ea5 c83d 644e cebd d069 753d e911 1abd
00000110: 6da5 353d 8bb2 a43d 17aa 673c c296 913d
00000120: a6f3 38bb 2943 3f3d de1d a13d 631d 463e
00000130: 841e 10be 2723 a83d 82ff f43d bd43 463d
00000140: 6d80 7a3d 9e56 1cbd 7d8b a03c 8eba abbc
00000150: da51 6cbd 8823 a03d cf59 923d 4094 d43d
00000160: 4d14 973d fa2f 893d 5552 c13d 2b9f fe3d
00000170: 961d a2bc 16cb 76bd eabd 8bbc 5ba7 b23d
00000180: e943 6d3d da19 ccbd bac6 95bd 020e 1abe
00000190: a148 bc3c 9a86 fb3c 2227 05be b9bd c0bd
000001a0: 450f 40bd 849c aebd b484 66bb 8cfa e13d
000001b0: 2afb 683c 36e7 2cbc e24a 6bbd a5b6 be3d
000001c0: 1115 d33d f159 ca3d f5d7 98bc 0484 d5bd
000001d0: caac 913d f29a aabd b530 e53d f92c a83d
000001e0: 8a2f 423d 5b2e f43d 8900 a43d 2cc4 b8bd
000001f0: 60fd d9bd 6aa2 68bd cbc6 86bd 3a5b c7bd
00000200: 3a69 70bd a528 913c ec23 d53d 0c3d c83d
00000210: 4202 9e3d 57d0 ab3d ab43 913d 49a8 78bd
00000220: ea90 fcbb 90ff 3abd b36f acbc a2f7 aabd
00000230: ef66 f9bc 4266 3c3d 1916 923d f009 313c
00000240: 4111 153d 17aa 2d3c 830b 3abd af8b bcbd
00000250: 0f43 5ebd 2718 ff3d 8457 d7bc 71ea fb3d
00000260: 7a1a 9e3d 884b 64bc 196b ee3c aa74 4fbb
00000270: 2c5b 4c3d 3c9a 8ebd 22ed 1bbd 696d 393d
00000280: 7a34 7ebd 26a8 f43a 88cb 103d 506b dc3d
00000290: a380 093e 4bb7 913d 8fd8 033d c17e ca3d
000002a0: 64e3 073e 1a30 db3d c96b 7b3c ae60 793c
000002b0: 888b 8c3d 44a5 333d ce0b e13d b182 e43c
000002c0: 358f 86bd a6f7 083e 5af0 dd3c 5cb8 a93d
000002d0: 56d4 eabc ccf0 e3bd 6ac9 8b3d fdc1 283d
000002e0: 60d9 b83d c122 9cbd 6931 a1bd bf19 8d3d
000002f0: 3a81 513d 944f f1bd 92f4 14bd f822 6b3d
00000300: 200a 2d3d b3bf 63bd 6b66 f73c 09bc 903d
00000310: 5865 8ebd a236 dcbb d3bc f4bd c4e8 33bd
00000320: 150f ddbd a77f ce3d 2a45 a83d 495f d03d
00000330: a63e 22be 346d c33d 8d4e fd3d 2981 c2bb
00000340: 132a 85bd a7dd 9a3d 645d 253c 07f2 313d
00000350: dd1e bb3b 3cb8 a83d 286b 80bc 972a fdbc
00000360: 2b4f f4bc 1e2e 68bd a50f a63c 281a a5bd
00000370: db8c 85bc 5901 8dbc d25e 2dbc 7ab4 37bd
00000380: 96c7 c8bd 53ce b4bd 5a17 b1bd 078d ddbd
00000390: 51e9 0b3e e4a8 49bd 3ab8 803c c4b1 b03c
000003a0: 5826 463b b3bd 14be 2182 80bd 2b43 3e3d
000003b0: 5e47 163c e8e6 16bc 26b6 b43d d39e 42bb
000003c0: bb83 be3d 476b 96bd 49df 383e 1f1e ae3d
000003d0: e548 ecbd 1fa0 913b cd50 d03a d72b fd3d
000003e0: 4e95 2b3c 5e80 4dbc 8eb7 e03d c847 86bd
000003f0: 21d9 86bd 7e22 33bd 0a0a a2bd e947 333d
0.17233512 0.20427378 -0.044241622 -0.23532249 -0.024054604 0.28258908 -0.1834371 -0.27614063
-0.070257 0.20863596 -0.3371811 0.24200495 -0.2586309 0.14434226 0.14758492 0.041035373
-0.028335225 -0.26408362 -0.13189599 0.15857942 -0.25303742 -0.06597292 -0.28730628 0.0042098905
-0.05097434 0.28624016 -0.24663615 -0.008908458 -0.2557915 -0.046797235 -0.19973034 0.15172437
0.25253206 0.17412944 -0.03075261 -0.3840715 0.18922086 0.15254739 -0.2551351 -0.1886816
0.20595971 -0.05740982 -0.21532921 -0.20070891 0.24843338 0.2309171 0.0763823 0.105183475
0.31018323 0.1268249 0.023156075 -0.14038827 0.09848738 0.25196195 -0.052527014 0.06450871
-0.17934705 0.11648734 0.13438743 -0.22949804 -0.25937507 0.1796532 -0.4079077 -0.041711006
0.097971305 -0.100735456 0.059915364 -0.037614737 0.044347215 0.08041867 0.014139674 0.07108833
-0.0028221398 0.04669491 0.07867025 0.19347148 -0.14074141 0.0820983 0.11962797 0.048404444
0.061157633 -0.038168542 0.019597763 -0.02096298 -0.057695247 0.07819277 0.07146036 0.10379839
0.07376919 0.06698604 0.09439532 0.12432703 -0.019789498 -0.06025227 -0.017058332 0.08723327
0.057926092 -0.09965868 -0.07313295 -0.15044406 0.02298385 0.030703831 -0.13003209 -0.09411187
-0.046889562 -0.08525947 -0.0035174312 0.11034116 0.014220038 -0.010553172 -0.05744446 0.093121804
0.103067525 0.09880436 -0.018657664 -0.104255706 0.07113035 -0.08330335 0.11190931 0.08211703
0.047408618 0.11922904 0.080079146 -0.09021792 -0.106440306 -0.056795515 -0.065808855 -0.09734197
-0.058694102 0.017719576 0.10407242 0.09777269 0.077152744 0.08389347 0.07092985 -0.060707364
-0.007707705 -0.04565388 -0.021049356 -0.083480135 -0.03044459 0.04599596 0.07133121 0.010805592
0.036393408 0.010599635 -0.045421135 -0.0920633 -0.05426317 0.124557786 -0.026286848 0.123005755
0.07719894 -0.013934024 0.029103803 -0.003165523 0.049891636 -0.069630116 -0.038067944 0.045270357
-0.062061764 0.0018665835 0.035350353 0.10762656 0.13427977 0.071150385 0.03218895 0.09887458
0.13270336 0.10702534 0.015345522 0.015220804 0.06862551 0.04385878 0.1098858 0.02789435
-0.06570283 0.1337572 0.027092148 0.08287117 -0.028665703 -0.11129913 0.06825526 0.041200627
0.09025836 -0.07623816 -0.07870752 0.06889676 0.05114863 -0.117827564 -0.036366053 0.057406396
0.042245984 -0.05560274 0.030200204 0.07067115 -0.069529235 -0.00672038 -0.11950078 -0.043923154
-0.10793892 0.100829415 0.08216317 0.10174424 -0.15844211 0.09542313 0.12368498 -0.0059358072
-0.06502166 0.07561808 0.010093067 0.043443706 0.0057104663 0.08238265 -0.015676096 -0.030904097
-0.029822906 -0.056684606 0.020271132 -0.080616295 -0.016302517 -0.017212557 -0.010581689 -0.04484985
-0.09803693 -0.08828416 -0.08647032 -0.108179145 0.13663222 -0.049233332 0.015712846 0.02156914
0.0030235257 -0.1452549 -0.0627482 0.046450775 0.009172289 -0.009210326 0.088238046 -0.0029696717
0.09302469 -0.0734468 0.18053927 0.08501839 -0.11537341 0.0044441367 0.0015893221 0.123618774
0.010472609 -0.012542812 0.1097251 -0.0655666 -0.06584383 -0.043734066 -0.07912071 0.04376975

lstm.bias_ih_l0 f4 [256]
00000000: 6021 773d 12fb a83a 58a5 d5bd 5aa6 49bd
00000010: d723 423d 16fd a4bc 976b 1ebd f5bf b33d
00000020: d6b3 e2bd 3d51 4b3d 8ebe 25be ffbf 65bd
00000030: e4ee 1b3d 6e71 b93c b713 9e3d 31c1 0d3d
00000040: c882 f2bd cdcc 443d e315 8e3d 59bb 803d
00000050: 5db6 da3d baeb d1bd 2a92 cc3c 317a 5a3d
00000060: 62f1 c73d 6346 44bc 4cc8 da3d c066 f0bd
00000070: b41b debd c13f 823d 10f2 c63d 2feb f7bd
00000080: 807e 6d3d 2a78 7dbd 680d 693d 6f9c d9bd
00000090: 9e23 b33c 24ff 8b3d 7b8d 8d3e f74a f13d
000000a0: 9033 42bd 246f b1bd cdfb bb3d 60ba 8f3d
000000b0: 20c5 70bc a4f2 5fbd 41d5 48bd b6b9 ca3c
000000c0: c1e0 7d3d e1ab 81bb 96eb bebd c369 c73d
000000d0: 1a93 c13d 6ae2 24bd bc95 d73d d509 423e
000000e0: e53e 8bbd 40d6 c63d 3f52 a8bc bfff c4bd
000000f0: e049 f23c 9210 933d 8f2e 81bd 0f5b a73c
00000100: 9485 6cbe b9cc 8fbd c3af 1fbd 6f84 56bd
00000110: c72a e53c 8f42 d93b 16a1 343d 04fb 9f3c
00000120: 407f d5bc 970b 0fbe 006e 19be a6ce 6fbe
00000130: b64f d2bc 7130 c1bd 453f 02be 4d08 603b
00000140: e4c8 363d d3d3 2f3d a67f 033c 73f4 eabd
00000150: e4b8 e2bd e32e 68bd c21b cebc f8a1 07be
00000160: fb3a 34bc 314e febd c09e 12bd e622 7cbc
00000170: 3bf4 c83d 8470 1dbe e469 65be b541 3f3d
00000180: 851d 6d3d 4dea 86bc 673a 703d 2420 8bbd
00000190: ed10 cd3c 5cd9 1abe 650c acbe 4ce5 03be
000001a0: e158 2bbe 2d7a 08be 36c4 81bd 6563 3fbd
000001b0: 0d52 09bc 607e 04be 0121 a73d 648a 603b
000001c0: 0642 a83d bc1b dabd 1ef4 cbbd f9b6 e7bd
000001d0: c677 8abd a081 9abb f882 82bd bb33 1c3d
000001e0: b616 953d cbaf 4dbe fd4f 1ebe 6ae6 e4bd
000001f0: 071f 43bd a57c 0cbe 8b7c a5bd 9ecf e7bb
00000200: c368 d2bb 6e19 8bbc 194c d83b 21db 42bc
00000210: fa7e e7bd a1ce cebc d9f6 a3bc 8719 953d
00000220: 3dce 11bc 84f4 903d 1c88 473d ce2e 743d
00000230: 5578 243d 26f5 81bb 0b85 cdbd 47e0 213d
00000240: f4ae 06bd 34d6 02bc 3edd 113c 8519 98bc
00000250: f8fe 0b3e 29d0 c5bd c84d 9c3d e60f 303c
00000260: 1edf b23d 1d3f 8d3b 9d20 dcbc 8f71 dc3d
00000270: f722 b73d 8a20 7d3d ada3 973d 89a9 67bc
00000280: 8b7c ec3c 8324 9d3d 0446 adbd c430 94bd
00000290: 3a9f 87bd 8dda 61bb 73a6 123c 05db 48bd
000002a0: 16de 78bc 6fd7 af3d dc32 fcbc 9e94 fb3c
000002b0: f52b 6bbd d0b2 cabd 9288 643d 9d28 7abc
000002c0: da2f cabd eb52 4f3d 42c1 65bd b5fd 3d3d
000002d0: 9c35 d5bb e908 8bbd c781 5b3d bc01 56bd
000002e0: 9e79 8f3d 39be 1dbe 5b1f da3c dc01 543c
000002f0: 0e3e fd3c 8a26 293d e80a b83d 3ee5 3f3c
00000300: 8508 203e ca21 ad3d 8002 e93c 7c7e 5d3d
00000310: 642c c13d c7f7 bb3d c2d5 d53b b182 033e
00000320: 4627 8eba 84b3 44bd 7631 9c3b f039 fb3d
00000330: aaaf 8f3d 6a4a e4bd ebbf a23d 3225 b23d
00000340: af05 90bd d22b a1bd 2961 bd3d fadd 0dbd
00000350: 115b 663d 8263 0ebd 0f20 2b3d f890 febd
00000360: 24fe 05bd 5ba5 92bd dc9e e93d a3ea 203c
00000370: 54db acbd 5cd3 723d d881 c03d a1e0 74bc
00000380: 5ee1 803d 366b 11be 9383 14bc 9925 4b3d
00000390: ff31 77bd 29b9 a2bd e067 113e fd77 813d
000003a0: 9970 aabc 9e18 283d e879 b6bd 8885 26bd
000003b0: 5478 4ebd 28aa a3bb eb9c b6bd f93d 943d
000003c0: f763 ac3d 35ab 23bd d0b3 cbbd dd45 e6bd
000003d0: 53e9 b93d 8450 bbbd 7d73 c03d 70a0 bb3d
000003e0: 68f6 9a3d 48ea ed3d af6d a2bd f0b8 8c3c
000003f0: 07dc 7dbd 910a 913d 8d4a 103e 1fed 5abd
0.060334563 0.0012892208 -0.104319274 -0.04923091 0.04739746 -0.020140212 -0.038676824 0.08776847
-0.11069457 0.04963802 -0.16185972 -0.056091305 0.03806962 0.022637095 0.07718604 0.03460807
-0.11841351 0.048046876 0.06937768 0.06285734 0.10679314 -0.102500394 0.02497204 0.053339187
0.09762837 -0.011979672 0.10682735 -0.11738348 -0.10845128 0.06359816 0.097141385 -0.121054046
0.057981968 -0.061882176 0.05689755 -0.106255405 0.02186757 0.068357736 0.27647004 0.117818765
-0.047412455 -0.086637765 0.091788866 0.0701797 -0.014695436 -0.05467476 -0.0490315 0.024746757
0.06198192 -0.003957257 -0.09322278 0.09736969 0.094518855 -0.040254988 0.105266064 0.18949063
-0.067991056 0.09708834 -0.02054703 -0.09619092 0.029576242 0.07180895 -0.063077085 0.020429162
-0.23097831 -0.070214696 -0.03898598 -0.052372392 0.0279745 0.006630249 0.044098936 0.019528873
-0.026061654 -0.13969265 -0.14983368 -0.23418674 -0.025672775 -0.094330676 -0.12719448 0.0034184635
0.044625178 0.04292662 0.008026039 -0.11472406 -0.11070421 -0.05668534 -0.02515972 -0.1324538
-0.01100039 -0.124172576 -0.035795927 -0.01538918 0.09812208 -0.15374953 -0.22403675 0.046693522
0.05788948 -0.016469145 0.058649447 -0.0679324 0.025032485 -0.15121979 -0.33603206 -0.12880439
-0.16733123 -0.13327856 -0.063362524 -0.04672565 -0.008381379 -0.12938833 0.08160592 0.0034262175
0.08215718 -0.10649821 -0.09958671 -0.11314196 -0.06761126 -0.0047151595 -0.063726366 0.03813527
0.072797224 -0.20086591 -0.154602 -0.111767605 -0.04763701 -0.13719423 -0.08080395 -0.0070743104
-0.00642118 -0.0169799 0.0066008684 -0.011893065 -0.11303516 -0.025245013 -0.020015167 0.072802596
-0.008899269 0.07077888 0.04871379 0.05961495 0.04015382 -0.0039659915 -0.100351416 0.03952053
-0.032881692 -0.00798564 0.008902846 -0.018566856 0.13671482 -0.09658844 0.07632023 0.010745978
0.087339625 0.004310502 -0.02687102 0.10763847 0.08942216 0.06179861 0.074042656 -0.014139541
0.02886798 0.0767298 -0.0846062 -0.07235864 -0.06622167 -0.0034462542 0.008950817 -0.049037
-0.015189668 0.085860126 -0.03078597 0.030710515 -0.057414968 -0.09897387 0.055794306 -0.015268472
-0.09872408 0.050616186 -0.056092508 0.046384532 -0.006506635 -0.06788809 0.053590562 -0.052247748
0.070056185 -0.15404595 0.02662628 0.012939896 0.030913379 0.04129652 0.08986455 0.01171237
0.1562825 0.084537104 0.028443575 0.054075703 0.09432295 0.09178119 0.006525726 0.12842824
-0.0010845445 -0.048022762 0.0047666384 0.1226691 0.07015927 -0.11147006 0.07946762 0.08698501
-0.07032334 -0.07869686 0.092470475 -0.03463552 0.05623919 -0.034762867 0.04177862 -0.12429994
-0.03271307 -0.07160445 0.11407253 0.009821567 -0.08440271 0.0592836 0.09399766 -0.014946134
0.062929854 -0.14201054 -0.009064573 0.049596403 -0.060350414 -0.07945473 0.14199781 0.06321714
-0.020805644 0.0410391 -0.089099705 -0.04065469 -0.050407723 -0.0049946494 -0.089166485 0.07238383
0.08417504 -0.039958198 -0.09946406 -0.11243794 0.09077706 -0.091462165 0.09397028 0.091614604
0.075665295 0.11616951 -0.07931077 0.017178029 -0.061977413 0.070820935 0.14090939 -0.053448793

lstm.bias_hh_l0 f4 [256]
00000000: aeb3 e63c 2ab3 0dbb ca29 71bc 89c7 383d
00000010: ef9d 8c3d 8c9d 04bd a1d7 6ebd 1003 75bd
00000020: 4729 00bd 0cb0 493d fc19 a3bd dd06 5b3c
00000030: 7635 603d 1587 abbd 5544 e03d 1de2 8f3d
00000040: e4ce 03bd b197 51bd 057e 913d 853d 89bd
00000050: 89d7 923c ca18 39bd 3270 12be 4e9e e1bd
00000060: 6e60 d7bd a5e9 1abb 2606 353d 7dae 09be
00000070: 485d 71bd 915c f4bd 9f82 153e f937 10be
00000080: 3249 9d3d ba4b 04be 19cf dd3d 3b08 f4bd
00000090: d40b b9bd 07e2 453d 5cce 103e c86c 753d
000000a0: 4f5f 94bb 4c17 47ba 287c 67bd 7054 c63d
000000b0: be0c 313e b20d a5bd 7955 213c 09e2 843c
000000c0: 1df0 0f3e 519d e7bd 5695 8bb9 f739 51bd
000000d0: 95ca 80bd 002a 0ebd b453 edbd b8ef 263e
000000e0: 9172 363d 0821 47bd 54c1 80bd 8808 8d3d
000000f0: 23ef 993d 768e 5b3d c6a1 fbba 50ff 32bd
00000100: fb5f ebbd 58fe 72bd db91 873d aacb 17be
00000110: 405a d83c 817d 793d 5bcc 56bd 23ca ad3b
00000120: e16a e0bd 3a04 d13d e945 38bd 92c8 3fbe
00000130: 8613 f2bd 0ce4 20be 621e ed3c 4d1b 7f3d
00000140: 5368 8bbd f638 55bd b595 87bd fad8 b8bd
00000150: c260 3f3d a5e7 0fbe 37d6 4fbb 092b 89bc
00000160: 8357 babd f8a0 07be ef55 143e 8684 16bd
00000170: 2988 1c3d 781f f93c 05b9 3fbe 9f9d d5bd
00000180: cec6 ca3d 1075 c5bd 370e d0bd b411 a2bc
00000190: eeb5 05be 207a 86bd 9e4d bcbe 7e01 3dbc
000001a0: 1099 10bd 3c65 873d a9a5 18be 46a0 15bd
000001b0: 3eb4 26bd afd6 58bd 03e7 bcbd aedc f5bd
000001c0: f39e c9bd 1adb d9bd 4bc3 1fbe 50c4 2abe
000001d0: d17d ebbd b2e5 783d 47bf bfbd 61ce f03d
000001e0: f2f4 c73d a4a3 28be 677b 93bd f80a 4f3a
000001f0: 393d f9bc f835 c9bd 89e3 a03c be5a 12be
00000200: fa0e 6ebd 11b9 d23c 9df4 b4bc aa98 07bb
00000210: d9ba 2bbd 7cd6 9a3c 5d6b 2bbd 8f37 a43d
00000220: 6277 c4bc 8ecc f4bd 87b9 ff3b 4ed0 dbbd
00000230: d570 5fbd 8beb bc3d 9dab 1c3c f3da d43c
00000240: a5cc 86bd 6545 51bb 8c1d 063e f7d1 36bd
00000250: f562 013d 0b32 8ebd 5ed7 41bd 2f7c 27be
00000260: 1603 443d d228 0abe db8a e13b 19dd 9cbd
00000270: 3664 0c3d cf1b c3bc d04e 61bd 215c 043d
00000280: 9367 443c 3173 e8bd bee9 9abd 433f b33d
00000290: ceb0 c7bd 29ff e43c ea32 743b 2c91 393e
000002a0: ef21 34bd 9bf6 cc3d a48d 423d 115d 063d
000002b0: d4d7 bbbd 8263 0cbd 5e3f 26be 1249 263d
000002c0: ca9d d9bd 0bce 043d 3caf aebd 442e 29bc
000002d0: 4efa 553d 1780 98bb e2ab 0fbe 0435 00be
000002e0: 057e 87bd 73c1 353d 0e8f 31bd 4bd9 533d
000002f0: b954 533d d430 d4ba cae6 dc3b 9079 8ebd
00000300: 9397 a0bc c012 d53d 4dbb ddbd 7712 98bd
00000310: 2515 34bb 7583 babd aded b03d 37e3 49bd
00000320: b59b 86bd 7b1b a43d d2c8 35bd c06c 2c3c
00000330: ea1a 1abe c215 0d3d 7f8c e5bd 9403 933d
00000340: 9562 20bd c0cf 46bd 09e2 86bb 1bb7 05be
00000350: f457 f43d 541b cdbd 7a48 ae3d a8a1 993d
00000360: c830 a7bd 2941 a83d 9724 f23c 27bf 7ebd
00000370: 57b6 99bd 2e1c 37bd 37ec 5c3e a548 5bbd
00000380: b000 8fbc 3174 63bd 381b 033b 6333 8fbd
00000390: 5470 513d 4f2b 77bd a21d 1b3e cd06 f03d
000003a0: 7828 57bd 189d e5bd 7ca0 05bd de48 ec3c
000003b0: cf30 bb3d deef ac3d fc1e 86bd 4dd2 a83d
000003c0: 9fc1 893c 5596 22bd 7882 793d 49e0 ad3d
000003d0: 2d0d 0abe 957d eb3c 840e 903c 87c4 4f3d
000003e0: e007 453d f212 043e d63c 91bc 6723 a33d
000003f0: 25f5 03be ba6b 98bc b8aa 1d3e d3b0 173d
0.02816185 -0.0021621683 -0.014719436 0.045112167 0.06866061 -0.03237681 -0.05831111 -0.059817374
-0.031289365 0.049240157 -0.079639405 0.013368336 0.054738484 -0.08375374 0.10950533 0.070255496
-0.03217973 -0.051170055 0.071041144 -0.06701187 0.01792504 -0.045189656 -0.14300612 -0.11016522
-0.105164394 -0.0023637798 0.044195317 -0.13445468 -0.05892685 -0.11931718 0.14600609 -0.14083852
0.076799765 -0.12919512 0.10830516 -0.11915632 -0.09035459 0.04831126 0.1414122 0.059918195
-0.004527963 -0.0007594719 -0.05651489 0.09684074 0.17290017 -0.08059253 0.009847038 0.016221063
0.1405644 -0.113093026 -0.0002662341 -0.05108067 -0.062886395 -0.034708023 -0.11588231 0.16302383
0.044542853 -0.048615485 -0.062868744 0.06886393 0.07516315 0.05360266 -0.0019197993 -0.043700516
-0.11492916 -0.059324592 0.066196166 -0.14823785 0.026410222 0.060910705 -0.052440982 0.0053036376
-0.109578855 0.10205884 -0.044988547 -0.18728855 -0.1182013 -0.15711993 0.028945152 0.062281895
-0.06807008 -0.052056275 -0.06620351 -0.0902576 0.046723135 -0.14053209 -0.0031713375 -0.016744154
-0.09098723 -0.13244998 0.14485906 -0.036747478 0.03821579 0.030410513 -0.18722923 -0.104304545
0.099012 -0.096414685 -0.10158961 -0.019783832 -0.13057682 -0.06566262 -0.36777967 -0.011536
-0.03530222 0.06611106 -0.14906944 -0.0365298 -0.040699236 -0.052939113 -0.092237495 -0.12004982
-0.0984477 -0.106374934 -0.15601842 -0.1667645 -0.11498607 0.06076593 -0.09362655 0.11758114
0.097635165 -0.16468674 -0.072012715 0.0007898058 -0.030424701 -0.09824747 0.019639747 -0.14292428
-0.05811975 0.025723012 -0.022089297 -0.002069036 -0.04192624 0.018901102 -0.041850436 0.080184095
-0.023982707 -0.11953078 0.007804099 -0.1073309 -0.054550964 0.09224614 0.0095624 0.02598331
-0.065820016 -0.0031932232 0.13097209 -0.04463383 0.031588513 -0.06943139 -0.04732453 -0.16355966
0.047854505 -0.13492134 0.006883008 -0.076593585 0.034275256 -0.023816971 -0.055006802 0.032314423
0.011987585 -0.11350096 -0.07564114 0.087523006 -0.0975052 0.027953701 0.0037261792 0.18121785
-0.043977674 0.10007974 0.04749836 0.0328036 -0.09172025 -0.034274586 -0.1623511 0.04059703
-0.10625799 0.03242306 -0.08529517 -0.010325972 0.052240662 -0.0046539414 -0.14030412 -0.12520224
-0.06615833 0.04437394 -0.04334932 0.0517209 0.05159447 -0.0016188868 0.0067413794 -0.0695678
-0.019603526 0.10403967 -0.108267404 -0.07425397 -0.0027478423 -0.09107105 0.08639083 -0.049288955
-0.065726675 0.08013054 -0.04438097 0.010523975 -0.1504933 0.034444578 -0.11208438 0.07178417
-0.039156515 -0.04853797 -0.004116301 -0.1305813 0.11930838 -0.10014978 0.085099176 0.075015366
-0.08163601 0.08215553 0.029558463 -0.062194016 -0.07505482 -0.04470461 0.21574484 -0.053536076
-0.017456383 -0.05553073 0.0020005237 -0.06992223 0.051132515 -0.060344037 0.15148023 0.11720047
-0.05252883 -0.11211604 -0.032623753 0.02884334 0.09140169 0.084441885 -0.065488786 0.08243237
0.016815959 -0.03969415 0.06091544 0.084900446 -0.13481589 0.028746406 0.017585047 0.050724532
0.048103213 0.12897852 -0.017729204 0.07965737 -0.12886484 -0.018606056 0.15397155 0.037033867

lstm.weight_ih_l1 f4 [256, 64]
00000000: d7ba 3ebd cb53 04bd 0ea2 773d d08d 36bd
00000010: 82bb d33d 4114 373d 2462 793d 9be3 85bd
00000020: 2ad4 343d d92e 223d 7438 a93d af73 b93d
00000030: 2250 ce3c 6988 bb3d cc09 bcbd 9461 11be
00000040: 4f4e e63d 7303 ae3b fb08 9d3d e037 153e
00000050: 24af f53a 8aab 7e3c 0914 383d 967d 4e3e
00000060: 0d90 243b d5b3 993d 367f e63d cbaf 85bd
00000070: 9a6a 12bd f103 1f3d be6c 393c c2b4 c8bc
00000080: d3e0 5f3d b430 82bd 58b5 0dbc 4f9d c33d
00000090: b3c2 d8bc 7c20 0d3d b01d c23b 5e20 25bd
000000a0: b057 7fbd 19ea fbbd deb2 cbbd 4428 d73d
000000b0: a323 043e 562b 503d 1097 1c3d db58 f33d
000000c0: 5a1f 263e 6502 213d dcce 23bc 05eb 80bd
000000d0: 0ef8 533d dfa2 863d 1051 c83d 3a28 133d
000000e0: dfab 7cbd e983 59bd 9dbf b33d e1dd 803d
000000f0: ce75 d93c 1131 963d a502 5e3d 6423 143d
00000100: be78 323c 3e45 4c3d a838 93bd 6435 1abb
00000110: dc1a e33d 527c ef3d 42a2 073d 9bb0 b4bd
00000120: 76e8 cdbc 8b99 c53d 2065 0a3d de6c ca3d
00000130: 0310 67bc 2c4c 35bd 6110 c73d 512e bebd
00000140: e83e c7bd e6b2 88bc 785b 4e3d d5d2 fa3c
00000150: 20b4 2f3d 9a61 be3d 2e43 d93d b0f0 163e
00000160: da3b 00be 5336 28bd 56dd adbc 000a 58bc
00000170: b8df 823d 0dd1 24bd 0e09 e5bd 979f e5bd
00000180: 4852 f0bc b2d5 9b3d 69bc 6cbd d73d 103d
00000190: 68b0 c33c 5189 3cbd 3c8a c6bd 1d27 06be
000001a0: 1365 17bd 1c5b 10be 6c24 a1bd 2eb5 87bc
000001b0: 3df6 ce3d 3709 db3c 5c8f 5b3d bf7b fe3b
000001c0: 231f 963d 91e4 a8bd 4e03 503e 83d6 0ebe
000001d0: 5013 7ebd 8630 b73d 8564 a63c e7df a43d
000001e0: 329b 15bd 5bf2 903d 66f7 1fbc 6dd2 0fbe
000001f0: dd60 4c3d 2d44 d13c cc42 e4bd 0bd1 bfbd
00000200: 746b 193d 3e9b 453d 6dd1 4fbd f1dc c43c
00000210: 3c1e 7dbd 2f21 16bc 1770 73ba ad03 e23c
00000220: e841 cbbc 1dc1 403d 0421 95bd 39da 173e
00000230: 68dd abbd 56fa ccbc d2d8 f83c 0aa8 e43d
00000240: 6343 f53d 0fd7 c3bc eda9 c1bd 98f0 12bd
00000250: bb40 b2bd 51c5 46bd accd b83d 5069 fa3d
00000260: 3920 07bd 1499 09bd d98a cebd d545 b5bd
00000270: a19d db3d 731b 663d 47b8 ffbd e3da b33d
00000280: d865 7bbc 7f05 8abc 5e0c 823d a50e 2f3d
00000290: f06c 6ebd 4a1c 9f3c bdd5 793c 17f7 cebd
000002a0: 0142 28bd 8875 58bd 7e98 9abd 1706 dcbd
000002b0: 2020 b03d 514a e8bc ac3d 00bd 7083 bcbd
000002c0: b62f 3abd bf34 723d 2d04 e83d c71a 2fbc
000002d0: 268d a93d 5ed2 b7bd 394e 99bd 3a1e 393e
000002e0: 4222 82bd 0b14 3a3e ca50 5ebd 44c7 e4bd
000002f0: 6aef c9bd 2790 c9bd 4d57 0c3d 37e6 8d3c
00000300: 468a c13d 56b3 32bd 65ed 563d 2541 b13d
00000310: 1824 ddbd 3a63 c63d 7e9f abbd 1048 8e3a
00000320: 8424 d5bd c0ed 0d3d cab7 0dbe 36f5 a4bd
00000330: 23a6 53bd a369 683d ef2c 783d 386a a0bd
00000340: 100a d43d a792 f1bc 3bb1 763d 27ae 50bd
00000350: 110c aebc 872a 633d 0af4 b8bd f845 ca3d
00000360: 301d a63d 8a0c ddbd 429b b5bd 5833 73bd
00000370: 243f 65bd 36ef 303c 536c c8bc 5304 e33d
00000380: a6e2 923c 59e7 e73d 3d03 013e 088f d43d
00000390: bb77 4abc 53c5 87bd 90ce ee3d cf5c e03d
000003a0: 61d8 853d d599 80bd ca37 c2bd 7db2 f5bd
000003b0: 4d5e 8ebd 8c55 2d3d 9673 88bd 2174 06be
000003c0: 82e0 c13d 8bfe e6bd af1f 773d f388 e8bc
000003d0: 0b03 9e3c 7024 b5bd a006 d33d 8dc4 0e3d
000003e0: e1d0 8cbd 881f 923c 9dfe 093e ebf7 ba3c
000003f0: 8a49 23be e31c a5bd 50f4 0dbe 1fc2 fbbc
-0.046564903 -0.032306474 0.06045728 -0.044568837 0.10338499 0.04469705 0.06088461 -0.06537553
0.044147648 0.03959546 0.08262721 0.09055268 0.025184695 0.091568775 -0.09181556 -0.1419738
0.11245405 0.00531047 0.076677285 0.14572096 0.0018744213 0.015543828 0.044940982 0.20165095
0.0025110275 0.07505003 0.11254732 -0.065276705 -0.035746194 0.03882212 0.01131743 -0.024500255
0.05465777 -0.06356946 -0.008649193 0.095514886 -0.026460027 0.034454808 0.005923949 -0.04031407
-0.062339485 -0.1230051 -0.099462256 0.10505727 0.1290422 0.05082258 0.038230002 0.11882182
0.16222897 0.039308924 -0.00999805 -0.062948264 0.051750235 0.06574034 0.097810864 0.035927035
-0.061687347 -0.053104315 0.08776782 0.0629232 0.026545431 0.073335774 0.05420174 0.036166564
0.010893045 0.049870722 -0.07188541 -0.0023530358 0.110891074 0.11693634 0.033113725 -0.08822747
-0.02513526 0.096484266 0.033787847 0.09884046 -0.014102939 -0.044262096 0.09719921 -0.09286178
-0.09728795 -0.016686868 0.0503802 0.03061811 0.04289639 0.0929596 0.10608517 0.14740252
-0.12522832 -0.041067433 -0.021223705 -0.013185978 0.06390327 -0.04023843 -0.11183368 -0.1121208
-0.02933611 0.076091185 -0.05779687 0.035215225 0.023887828 -0.046029393 -0.09694335 -0.13100858
-0.036961626 -0.14097255 -0.07868275 -0.016565885 0.1010556 0.026737792 0.053603515 0.0077662165
0.073301576 -0.082467206 0.2031376 -0.13949017 -0.062030137 0.08944802 0.020311603 0.080505185
-0.03652496 0.07077476 -0.009763574 -0.14045115 0.049897064 0.025545204 -0.11145553 -0.09366044
0.03745599 0.048243754 -0.050736833 0.024031134 -0.061796412 -0.009163185 -0.0009286417 0.027589643
-0.0248117 0.047059167 -0.07281688 0.14829339 -0.08391839 -0.025021713 0.030376825 0.111648634
0.119757436 -0.023906259 -0.09456239 -0.03587398 -0.087037526 -0.04852802 0.09023604 0.12227118
-0.032989714 -0.033593252 -0.10085077 -0.0885121 0.10723425 0.05617852 -0.1248632 0.08781984
-0.015344106 -0.016848324 0.06350015 0.042738575 -0.05820936 0.019422669 0.015248713 -0.101057224
-0.04107857 -0.05284646 -0.07548617 -0.10743349 0.08599877 -0.02835575 -0.031308815 -0.09204757
-0.045455657 0.059132334 0.113289215 -0.010687537 0.08278875 -0.08975671 -0.07485623 0.18077937
-0.063541904 0.18171708 -0.054276265 -0.111708194 -0.09860118 -0.09841948 0.034262944 0.017321689
0.09450202 -0.04362806 0.05247249 0.086550035 -0.107979 0.09686895 -0.0838003 0.0010855217
-0.104073554 0.034650564 -0.13839641 -0.08054583 -0.051672112 0.056741368 0.060589727 -0.078327596
0.10353482 -0.029488875 0.060227614 -0.050947335 -0.021245988 0.05546048 -0.09030922 0.09876627
0.08111036 -0.10793407 -0.08867504 -0.059375137 -0.05596842 0.01079922 -0.024465716 0.11084809
0.01793034 0.11323423 0.12598892 0.103788435 -0.0123576475 -0.066294335 0.116604924 0.10955202
0.065354116 -0.06279341 -0.09483297 -0.119969346 -0.0695158 0.042317912 -0.06662671 -0.13130237
0.094666496 -0.11279019 0.06033295 -0.028385615 0.01928856 -0.088448405 0.10303998 0.034855414
-0.06875778 0.0178373 0.13476034 0.022823295 -0.15946022 -0.0806215 -0.13862729 -0.030732213

lstm.weight_hh_l1 f4 [256, 64]
00000000: 0fbc 543d cf23 04be 56a4 d0bd 5a15 c5bd
00000010: 0a53 0c3e fc91 de3d ad9e b2bd 96af 563d
00000020: e695 87bd 8bf3 873d 5bb6 aebd 428c 66bd
00000030: 51aa 08be 0b99 a4bd 1ffb 57bd 95c6 98bd
00000040: 4159 583c 8cba f0bd 03f9 163d 24d4 d1ba
00000050: 4db6 ea3d ab6d 13be 1e8d 10bd 852c 10bd
00000060: 3621 adbc a7a7 033d e007 b73d c0df 88bd
00000070: f063 1b3d 5016 50bd 1153 103e 58fd 693d
00000080: d27a 5a3d 5414 78bd 3158 06bd 33bf 4c3d
00000090: 6cea 32bc b2b3 15be b613 bd3d 0788 4f3d
000000a0: f204 02be 013b 00bd f2f6 da3d b0b9 7abd
000000b0: 205f 063e 1947 1abe 7496 17bd c5ee ea3c
000000c0: a88f 313d 7518 733d da28 37bc 850e ff3c
000000d0: 50c8 0d3e 7f5b 46bd c85d 293d e622 f03d
000000e0: 1056 c9bd 7777 b63d 0d21 74bd 6853 06bd
000000f0: 5446 83bd f2b3 2f3b 0e25 77bd 2608 da3c
00000100: 42e5 823d bf11 6a3d e825 35bc 33ce f4bc
00000110: aace 753d 5d7b ee3d 738b f3bc ed80 91bc
00000120: a162 103e 9fc4 dfbc f42c e0bd e862 f43d
00000130: 35ce 933d 1062 543d 6635 fabd 0ddf e3bd
00000140: 1033 b03d b0a9 52bd 5e77 433d 2257 7cbd
00000150: 7d34 80bb 4a04 843d cc29 ae3d cedb e8bd
00000160: f371 c13d 6d23 0dbc bb94 ba3d a01a cb3d
00000170: b909 673d 825c d13d 1a24 6a3d 6e53 74bd
00000180: cd0f 0bbe 3e4f 453d a80b a33d 4128 f0bc
00000190: f66e e33d e907 a43d 9a40 463d f22f 4d3c
000001a0: 68fa 3d3c 634d ca3d afd8 b7bd 6bf0 a8bd
000001b0: b428 a13d 9958 e7bd d73b a43d f148 833c
000001c0: 288a 543c dc06 e03c 5346 473d d7b2 913d
000001d0: 94b7 37bd 1eb1 e9bd efad 92bc 4dfd 083e
000001e0: 8807 c23d f65f 123d 5211 d93d a7c8 a93d
000001f0: 9b4d 0e3d cc6f a3bd e7b0 aabc 9daf 353d
00000200: 2866 e73d df3c cdbd 2780 6d3d debb 903d
00000210: 8e01 69bd c389 b83d e229 9e3d aaa2 12bd
00000220: 26f9 9a3d b504 12bd 9465 923d db4a 6e3d
00000230: ed2a a63d 30a8 bcbd 3352 b23d cb92 043c
00000240: e23f d43d e3d2 e0bd 50b8 86bd 7e9e 0c3d
00000250: 7c0a 2bbd 3846 dfbd b273 65bd 2535 1fbd
00000260: 7edb a53b 4e5b 073d 7ada e83d a9bb 403d
00000270: 5daa b13d 3e27 f73d ca44 bc3d dc93 93bd
00000280: ae0c 1a3b 57ef 82bd 2d3f d5bb 4195 4dbd
00000290: 4746 d1bd 9da9 6b3d a346 48bd 8bda b6bd
000002a0: f4c8 e5bd 2bc3 dcbc e258 b33d 456d 9cbd
000002b0: 6302 79bc 0c16 443d 3640 cd3d 179f 263d
000002c0: 0d27 1fbd 8b62 b33d c4cf c43c e3a2 c4bd
000002d0: 2d36 70bd ed48 c3bd 3146 19be 87f1 90bd
000002e0: c334 903c e83e 923d 437c 59bd a98a 3cbd
000002f0: 3609 01be 0ad4 1a3d 211a 0d3c 8913 d93d
00000300: fb82 54bd 3964 bc3d fe39 963d 7c6e 083d
00000310: 30d5 3c3c 8c38 32bc 1dfe 93bc 95fc 6c3d
00000320: 3f4e c2bd 13b9 2ebd 0dcb a53d 1715 9c3d
00000330: e832 043e 940f 403c 651f 2bbd 0c20 973c
00000340: d1c1 a63d cc91 95bd 400f d23d 4773 ef3d
00000350: 56fb 67bd 78d9 7a3d ba41 613d ea52 1abd
00000360: b3cd c33d 4c7d dbbd 6737 233d 5385 093d
00000370: 36a7 10be 61bc 5c3d 1282 e63d 3dd8 67bd
00000380: 0475 c3bc abe4 c2bd ab2d 80bd 1a48 b5bc
00000390: fe54 aabb 105e bfbd 6765 ddbd 0c0e e53d
000003a0: 37bf e33d a00c 603d d3c0 b63d 798a bfbc
000003b0: 1a49 abbd d62c 44bd 8efe 86bd a2cb 893d
000003c0: c910 0bbd 6da9 67bd 538f 053d 8490 07bd
000003d0: 96ca b73d b2b6 043d ff35 35bc ada2 b4bd
000003e0: 964c 943d 3be5 d43c 079d 08be ff59 bfbd
000003f0: 237b 37bc 9309 223d 26ed 393d 0cfc 2dbd
0.05193716 -0.12904285 -0.101875946 -0.09623213 0.13703552 0.10867688 -0.08721671 0.052413546
-0.06620388 0.06638249 -0.08530875 -0.056286104 -0.1334622 -0.08037003 -0.052729722 -0.074597515
0.013204874 -0.11754331 0.03685857 -0.0016008657 0.11460552 -0.14397304 -0.03529083 -0.035198707
-0.021134 0.032142308 0.08937049 -0.06683302 0.037937105 -0.05080253 0.14094187 0.057126373
0.053339787 -0.06056626 -0.03279895 0.04998703 -0.010920148 -0.1461933 0.09232275 0.050666835
-0.12697199 -0.03130627 0.10691632 -0.06121224 0.13122225 -0.15066184 -0.037008718 0.028678307
0.043349892 0.059349496 -0.011179173 0.031134853 0.13845944 -0.0484271 0.041349202 0.11725406
-0.09830868 0.08909505 -0.059601832 -0.032794386 -0.064098984 0.0026810137 -0.060338072 0.026615214
0.06391384 0.05714583 -0.011056401 -0.02988348 0.060011543 0.116446234 -0.02972958 -0.017761672
0.14100124 -0.027315436 -0.10946074 0.11932927 0.07217065 0.051851332 -0.12217216 -0.11126528
0.086034894 -0.051431358 0.04772126 -0.061606534 -0.003912507 0.064461306 0.08504066 -0.113700494
0.09445562 -0.008614403 0.09110399 0.09917188 0.056405757 0.102227226 0.057163335 -0.059649877
-0.13580246 0.048171274 0.07961208 -0.02931607 0.111051485 0.08009321 0.048401453 0.012523638
0.011595346 0.098780416 -0.08976876 -0.08248981 0.07869092 -0.112961955 0.08019226 0.016025992
0.012972392 0.02734702 0.04865105 0.07114189 -0.044852808 -0.114107355 -0.017905204 0.13377877
0.09474093 0.035736047 0.10599007 0.082902245 0.03474198 -0.07980308 -0.020836307 0.04435693
0.11298782 -0.10021376 0.057983544 0.07067083 -0.05688625 0.09010651 0.07722832 -0.03579966
0.075670525 -0.03564902 0.07148281 0.058176856 0.08113656 -0.09211767 0.087070845 0.008091639
0.10363747 -0.109777234 -0.065781236 0.034330837 -0.041758046 -0.10902065 -0.05601854 -0.038869042
0.005061566 0.03304606 0.11369796 0.047053967 0.08675072 0.12068032 0.09192808 -0.07205936
0.0023506093 -0.06393307 -0.0065077753 -0.050191168 -0.102184825 0.057534803 -0.04889549 -0.089284025
-0.112199694 -0.026948532 0.087571874 -0.07638029 -0.015198323 0.047872588 0.10022013 0.040679064
-0.0388556 0.0875903 0.024024852 -0.09601381 -0.058645416 -0.09535394 -0.14968182 -0.07077318
0.017603284 0.07140905 -0.05309702 -0.046030674 -0.1260117 0.037799872 0.008612187 0.10599429
-0.051882725 0.091988035 0.0733528 0.03330849 0.011525437 -0.01087774 -0.018065507 0.05785807
-0.094875805 -0.04265697 0.080953695 0.0762121 0.12910044 0.011722464 -0.041777987 0.018447898
0.08142436 -0.07303199 0.10256815 0.11691909 -0.056636177 0.06124255 0.054994322 -0.03767673
0.095607184 -0.10717258 0.039847758 0.033574414 -0.14126286 0.05389059 0.11255278 -0.056602705
-0.023859508 -0.09516271 -0.062587105 -0.022129107 -0.00519812 -0.09344113 -0.108103566 0.1118432
0.11120456 0.05469954 0.08923497 -0.023381459 -0.083635524 -0.04789432 -0.06591521 0.06728293
-0.033951554 -0.05655806 0.032607388 -0.033096805 0.08974187 0.032400794 -0.011060237 -0.088200904
0.0724117 0.025988212 -0.13341151 -0.09343337 -0.011198792 0.039559912 0.045392178 -0.0424767

lstm.bias_ih_l1 f4 [256]
00000000: c1db 92bd 2ec0 863d 82c7 e4bd 71e0 80bd
00000010: 4021 cb3c b5e2 ad3d e9f8 63bc 598f 35bc
00000020: ee8f 0bbe 5505 bd3d 88d2 05be 90bf 863d
00000030: 669a 9bbc 3b90 09be 7758 58bd 13e8 9fbd
00000040: d7e9 02bc 00e8 d43b 2c8f b3bd badc 933d
00000050: 62da 49bd e810 583c f2a3 d93d 2f94 2fbd
00000060: 17e0 9fbd 52f2 65bd 4cc2 c6bc 445f 0fbd
00000070: e0aa 06be 762c 00bb a806 afbd 5898 d53d
00000080: ebdb aebd c160 03be c25c 96bd c784 e03c
00000090: 89db 8dbd 033a 5dbd a7fa c5bd 4554 85bd
000000a0: 2cf0 a3bd 3c09 01bd 4016 2fbd a014 24bd
000000b0: 72c9 f5bd ef4d b939 4fd4 24be 07f9 b13d
000000c0: 1e77 2bbe cd06 e0bd fe56 a1bd 93fb 793d
000000d0: 256b f83d b735 ad3d dedb acbd c72c 00be
000000e0: cdb1 e7bd 3325 13be c5bf d4bd 11fd 2bbe
000000f0: a8eb 9dbd 33ae b53d 6430 7cbd 31ed 523d
00000100: be4a 20bd 5fe2 023e df7c 113d 2203 ccbd
00000110: e850 2a3d 9f70 073e b491 b53c 0a09 3dbd
00000120: 2d19 243d 4a6a 70bd 9897 f3bd 42fd 45bc
00000130: 00a9 023e bb04 27be fe17 ca3d fd82 a6bd
00000140: 8664 55bd e734 ff3d a71b 7b3a 10f4 b4bb
00000150: 62b7 adbc e6bf df3c d345 ef3d 1ccf 563d
00000160: 2c61 43bd a9f5 10bd 20eb d2bd 705c 413d
00000170: 37d5 cdbd 9867 aabd 95b5 143d 8289 b23d
00000180: 233d f63d 9163 98bd 6672 eebb ee74 b23d
00000190: 6c0b 2e3c 10ae 6e3d fb30 44bc e2d2 223d
000001a0: 2686 f2bc 8f10 193c bc21 71bc c3ed 28be
000001b0: 3a39 853d a298 c43d 2358 4bbc 7d73 ab3c
000001c0: e359 aa3c 5589 763d b893 acbd 1a10 903d
000001d0: f64d df3d e4f2 8c3d f76d 1abe c63a 09be
000001e0: 2cee aebc c570 263d d5a1 d9bd c5f6 02be
000001f0: 5205 36bd 84eb 863d bc77 c9bd 8aba babd
00000200: a198 b13d 8a8c 2c3c c2aa 103d 69e7 c33d
00000210: f62b a33a c86f 5b3d 1575 473c 9e66 023c
00000220: 865f 28bc 9a1f 493d 936e cc3c 332f 383d
00000230: 797f b0bc eed3 053c ef13 cdbc d047 893d
00000240: 8b6f 85bd 4d76 86bd bff7 843d d579 87bd
00000250: d28a d53d 0355 babc 912c bb3d e82a 0a3d
00000260: 9a85 bdbc fd85 713d 632b c4bc f8b4 5e3d
00000270: 82c7 cf3d e337 ecbd ea65 9a3d ed49 fe3c
00000280: 2b23 ad3d 01c4 9b3d f984 a8bd 4bdb 17bd
00000290: f357 09bd bae1 17be 0a01 113d 21ea 003e
000002a0: c3d1 933d 956d febb 6e22 d8bd 79c6 933d
000002b0: 50b2 253d 733f ccbd 4821 a7bd bbbf cf3d
000002c0: afd4 533d c7e2 7ebd 144e 8f3c bb21 06bd
000002d0: e461 743a 6d8d c7bd 3de7 99bd 1791 bc3c
000002e0: 1c73 01be 9139 bcbd c4cb c33d 7e34 3bbc
000002f0: c90d f03d 282f 95bd 8d1d 303d 0fae 67bd
00000300: 7f27 cbbd 4f3d 6abc c5b2 3c3d 4cd4 95bd
00000310: 38ca 35be e9fb 3bbd f7f7 01be 3950 a4bd
00000320: f09b 7d3d ffdc 39bc e1d7 66bd a335 d8bc
00000330: 97d5 663c d8b8 9cbd 843a 47bd b18c c4bd
00000340: a340 0e3d 580e 9bbd e55b 1abb 35e2 21bd
00000350: 1fa8 c13d c64b 93bd 52d9 84bd bf87 babd
00000360: b3d9 9dbd e2a5 9bbd de65 dbbd 5ca9 953d
00000370: cb9a d6bd c1bc 05bd ee28 1e3d 4c36 75bd
00000380: b28e 543c 1d27 ce3d 8cd5 00be 61e4 193d
00000390: fb76 f1bc 2900 f03b a681 d93b 49a3 123c
000003a0: 88b2 03bd a58f 9cbd d005 c83d 3403 ba3c
000003b0: 109e f3bd de2a e23d ca62 23be ce26 a9bd
000003c0: 21be 183d 995b d5bd 11bf dabc 9d40 983d
000003d0: decc 883c da65 cc3d 6563 b93c a2bc ee3c
000003e0: 1bcc 23bd 09f6 acbd fc08 a2bc 036c 1fbe
000003f0: 4741 123d 484b b23d 00bd f3bd 9688 cdbd
-0.07170821 0.06579624 -0.111708656 -0.06292809 0.024796128 0.084905066 -0.013914325 -0.01108154
-0.13629124 0.09229533 -0.13068593 0.065795064 -0.018994521 -0.13433926 -0.05281874 -0.078079365
-0.007990322 0.006497383 -0.08767542 0.072198346 -0.04928053 0.0131876245 0.10626973 -0.04286593
-0.078064136 -0.056139298 -0.02426257 -0.03500296 -0.13151121 -0.001955775 -0.085461915 0.10429448
-0.0853804 -0.12829877 -0.07341911 0.027407063 -0.06926639 -0.054010402 -0.09666949 -0.06510214
-0.080047935 -0.031502947 -0.04274583 -0.040058732 -0.12001313 0.00035344015 -0.16096614 0.08690076
-0.16744658 -0.10938797 -0.078779206 0.061030935 0.12129811 0.08457511 -0.08440374 -0.12517081
-0.1131321 -0.14369659 -0.1038814 -0.16795756 -0.077109635 0.088711165 -0.061569586 0.051495735
-0.03913378 0.12781666 0.035519477 -0.09961535 0.041581064 0.13226555 0.022164203 -0.0461512
0.040063072 -0.058695115 -0.118941486 -0.012084307 0.12759781 -0.16310398 0.098678574 -0.08130453
-0.05209782 0.12461262 0.00095790107 -0.0055222586 -0.021205608 0.027313184 0.1168324 0.05244361
-0.047700092 -0.03539053 -0.10298753 0.047207296 -0.10050433 -0.0832054 0.036305983 0.08717634
0.1202338 -0.07440866 -0.007276821 0.08713709 0.01062284 0.058271468 -0.0119745685 0.039751895
-0.029604983 0.009342327 -0.014717516 -0.16496949 0.06505056 0.09599425 -0.01241115 0.020929093
0.020794814 0.060189564 -0.084266126 0.07034321 0.10903542 0.06882265 -0.15081011 -0.13401327
-0.021353804 0.04063489 -0.1062657 -0.12789448 -0.044438668 0.0658789 -0.09837291 -0.09117611
0.0867169 0.010531554 0.035319097 0.09565622 0.0012449014 0.0535734 0.012173911 0.007959036
-0.010276681 0.049102403 0.02495507 0.044966888 -0.021545159 0.008168204 -0.02503392 0.0670315
-0.06515416 -0.06565533 0.06492566 -0.066150345 0.104268685 -0.022745615 0.0913936 0.033732325
-0.023134995 0.05896567 -0.02394647 0.054371804 0.10145475 -0.11534097 0.0753897 0.03104111
0.084539734 0.07605744 -0.082284875 -0.03707437 -0.03353114 -0.14832202 0.03540138 0.12589313
0.07217743 -0.007764528 -0.10553442 0.0721559 0.040453255 -0.099730395 -0.08160645 0.101439916
0.051716503 -0.06222799 0.017493285 -0.03274701 0.0009322448 -0.09743772 -0.07514808 0.023018403
-0.12641567 -0.091906674 0.095603496 -0.011426089 0.11721379 -0.07284385 0.04299693 -0.05656248
-0.09919643 -0.014296844 0.046068925 -0.07315883 -0.17752922 -0.045894537 -0.12692247 -0.08023114
0.06191629 -0.0113441935 -0.056358222 -0.026392763 0.01408901 -0.07652444 -0.04863979 -0.09597147
0.03472961 -0.07571095 -0.0023553309 -0.03952237 0.09455895 -0.07192187 -0.06486763 -0.09107923
-0.077075385 -0.07599999 -0.10712789 0.07307693 -0.10478743 -0.032650713 0.038613252 -0.059866235
0.012973474 0.10066054 -0.12581462 0.037571315 -0.02947568 0.007324238 0.0066377698 0.008950063
-0.032152683 -0.076445855 0.09766734 0.022706605 -0.118953824 0.110433325 -0.15955654 -0.082593545
0.037290696 -0.104178615 -0.026702436 0.07434199 0.01669925 0.09980364 0.022630403 0.029142682
-0.039989572 -0.08445365 -0.019779675 -0.15568547 0.035706785 0.08705765 -0.11901283 -0.10035817
