models/RNN_santander.pt (torch, 232347 bytes, 11 tensors)

lstm.weight_ih_l0 f4 [256, 11]
000000 1c 75 02 3e b6 59 dc bc dc 44 41 3d 7e c0 a7 bc
       0.12739986 -0.026898246 0.04718481 -0.02047753
000010 5a d5 23 bd f4 6d 0b 3f 62 83 03 3d 3a d9 43 bd
       -0.03999839 0.5446465 0.03210772 -0.047814585
000020 27 f0 6f bd 61 54 fd 3d 03 ca a9 bd b5 96 14 3e
       -0.058578636 0.123696096 -0.08290484 0.14510615
000030 35 d1 03 3e a1 79 aa bd 8b 6b 0f 3e 8e 0d d2 bb
       0.12872775 -0.0832398 0.14005868 -0.0064103073
000040 99 c1 ea 3e e3 59 b9 bd 8f ab f0 3d df 7d 01 3c
       0.45850828 -0.09050348 0.11751472 0.007903545
000050 6d b0 cb 3c 1e e0 e6 3d 4b af a9 bd 51 da 7c 3d
       0.0248644 0.11273216 -0.082853876 0.06173164
000060 af 9b d7 3d b5 cf 5e 3d 75 6a d7 3b dc b5 10 3f
       0.10527741 0.054397304 0.00657397 0.56527495
000070 45 48 93 3c 4c f7 1e 3d 70 2d bf bd d0 eb d6 3d
       0.017978797 0.03881006 -0.093348384 0.104941964
000080 b6 92 f7 bd c1 5f 5c bd 77 77 99 3d 5f 71 59 3c
       -0.1208853 -0.053802256 0.07493489 0.013271659
000090 66 7f 5a ba d0 d9 6c 3d 6d cb 7d 3e d0 7e 25 3d
       -0.0008335024 0.05782491 0.24784632 0.04040414
0000a0 48 27 82 3d 2e 73 9c 3d 82 28 bb 3b b9 80 49 3d
       0.063551486 0.07639156 0.005711616 0.049195025
0000b0 d2 16 00 3d f0 3d fd 3b 77 4f 6d bb 54 0a e9 bd
       0.031271763 0.007728331 -0.0036210695 -0.11378923
0000c0 23 ec 47 bd bb 59 e1 3e 24 93 41 bd 2a 9c 65 bd
       -0.048809182 0.4401377 -0.047259465 -0.056057133
0000d0 cd 9d fc bd 47 21 0e bd 6e 5f 65 3d c4 64 28 3e
       -0.123347856 -0.034699704 0.055999212 0.16444689
0000e0 b6 7e 2d 3e 7d 38 cc 3d 61 de c0 3d 4a 01 59 bc
       0.16942868 0.09971712 0.094174154 -0.013244936
0000f0 bc 42 ce 3e 4d 7b ba 3d 3d 06 ee bc dd 36 c6 39
       0.4028529 0.09105549 -0.029055709 0.0003780638
000100 c1 43 60 3d 58 9c 8f bc e1 f6 41 bc 7d 42 7e 3d
       0.054752115 -0.017530605 -0.011838646 0.062075127
000110 78 4d 7c bc 18 e1 af 3d 2c f2 b2 3d 88 d5 18 3f
       -0.015399329 0.08587855 0.08737597 0.5970082
000120 2c e0 ae 3d 23 0e 93 bd 52 18 f4 3c 1c ee ae 3d
       0.08538851 -0.07180431 0.029796753 0.085415095
000130 b8 3a 12 be 61 a2 ad 3d 69 1e df 3d 00 37 ef 3d
       -0.14280212 0.08478237 0.10894472 0.11680412
000140 e2 83 1f 3e ce 58 81 3e 69 31 09 bd fd 25 dd 3d
       0.15577653 0.25263065 -0.033494387 0.10798261
000150 a6 4a 2c 3d d0 b2 1f 3e 64 3b c3 3e 77 66 09 bf
       0.042063378 0.15595555 0.3813125 -0.53671974
000160 b8 02 cc 3d 48 b1 a9 3d 32 aa 4f 3e 76 04 e6 3d
       0.09961456 0.08285767 0.20279768 0.112313196
000170 32 c7 a9 bd 91 a1 19 3e c2 88 f5 3d cc 39 15 3e
       -0.082899466 0.15003039 0.11988975 0.14572829
000180 1c 6a f2 3d 1c 55 85 3e 3a ed 9a 3d 77 d7 0a 3d
       0.11836645 0.26041496 0.075647786 0.03389689
000190 dd 77 40 bd 0a d4 10 3e 50 c8 97 bd 43 5b 69 3d
       -0.04698931 0.14143386 -0.074112535 0.0569718
0001a0 2e a2 c8 3d 0c 24 94 bd 40 cb 27 3d 24 03 ba 3d
       0.09796558 -0.07233438 0.04096532 0.0908263
0001b0 8a 59 aa 3d da 81 28 be da f5 24 bd 68 66 12 3e
       0.083178595 -0.16455784 -0.040273525 0.14296877
0001c0 8d 90 1a 3e ab 48 a6 3d 4e 4e e4 bb 8d 98 b8 3e
       0.15094204 0.08119329 -0.0069673425 0.36053887
0001d0 a4 b6 03 3e bf a8 dc 3d 37 d3 a3 ba fb b7 7b bd
       0.1286264 0.10774373 -0.001249886 -0.061454754
0001e0 0e d8 10 be fe 8c d3 3d b4 24 79 3c b2 27 92 3d
       -0.14144918 0.103296265 0.015206505 0.071364775
0001f0 32 99 aa 3d 45 59 13 bd 7f 0d 00 3f 82 73 15 bd
       0.08330001 -0.035973806 0.50020593 -0.03648711
000200 71 61 09 3e c7 b9 d1 3d 7c a5 db 3d 37 db 87 bd
       0.13416077 0.10240512 0.10724923 -0.06633609
000210 15 74 a7 3d 77 75 30 3c cb 50 c5 3d 54 b2 a9 bc
       0.08176438 0.010770193 0.09634551 -0.020714916
000220 44 c3 dd bb fd 42 4e 3e d0 a3 82 3d d7 98 2a 3d
       -0.0067676622 0.20142742 0.06378901 0.041649666
000230 e2 6b b3 3d 95 9a e3 3d 63 da 18 be ff 43 61 3d
       0.087608114 0.111134686 -0.14927058 0.054996487
000240 93 7e a4 3d 9e 24 48 bd 23 38 1a 3c 1d 60 3e bc
       0.080319546 -0.048863046 0.009412798 -0.011619595
000250 3b b3 f0 3e a5 09 01 3e ac f4 c3 bc 07 41 e3 3c
       0.47011742 0.12601335 -0.02392038 0.027740968
000260 9e f4 d9 bb ae d5 8d bd 3d 7c f4 3d 5f 73 b6 bd
       -0.006651475 -0.06925522 0.11937759 -0.08908724
000270 6d 3e dd 3c 7e f6 c8 3d 65 a1 12 3d ef 12 d2 3e
       0.027007306 0.0981264 0.03579845 0.4103007
000280 5b 36 05 3e cc e4 0d bd a9 81 39 bc ff 6f 9d 3d
       0.13009016 -0.034642026 -0.011322417 0.07687377
000290 22 0c 5c bd 64 79 3a 3d 0b 04 5a 3c ad 1d 75 bb
       -0.05372251 0.045525923 0.013306628 -0.0037401721
0002a0 4d f3 c5 3d 6f 54 11 3e 53 26 80 bc e2 de 26 3e
       0.096655466 0.14192365 -0.015643274 0.1629596
0002b0 7c ee 1d 3e 2d cc 67 3e a2 aa b8 3e 2f 66 ca be
       0.15423006 0.2263648 0.36067683 -0.39531085
0002c0 70 3a a8 3d 85 f2 39 bd 5f 30 98 bd 78 42 1e 3d
       0.08214271 -0.0453973 -0.07431101 0.03863761
0002d0 94 6f a8 bd 16 85 06 3f 83 d8 b5 3b 7a 54 47 bd
       -0.08224407 0.52546823 0.005549492 -0.048664548
0002e0 95 45 ec bd 83 53 15 bd cd df 0b bd c4 67 d4 3b
       -0.11536709 -0.036456596 -0.03414898 0.0064820964
0002f0 cb 21 82 bd 1d 39 80 bb 5f 11 7e 3d 4f 0f a0 3b
       -0.06354102 -0.0039130584 0.062028285 0.0048846374
000300 3c 02 ba 3e 43 72 14 3d c8 48 c0 bd 77 fc be 3d
       0.3632983 0.03624178 -0.09388882 0.093254976
000310 e0 05 95 3d 00 14 b4 3d 87 15 75 bd 04 b5 02 bc
       0.07276511 0.08792877 -0.059834983 -0.007977728
000320 8f 65 48 bd 29 14 67 3d c3 4c 30 bc 7c 57 c5 3e
       -0.04892498 0.05641571 -0.010760489 0.38543308
000330 d9 a8 7d 3c 5e e9 6e bd fb 0f 8f 3d 3c 7f 6d 3d
       0.015482151 -0.058328025 0.0698547 0.05798267
000340 fb 16 69 bc 00 ca fb bc ac 3d a4 bc 1e de 0c 3e
       -0.01422667 -0.03073597 -0.020048939 0.13756606
000350 92 8e 0b bd 7b 24 47 3d 1b 25 1f 3f b8 6c 91 bc
       -0.034071513 0.048618775 0.62165993 -0.017752036
000360 6d 8f f4 bc 42 2a bd bd fa 18 90 bd 8b 16 cd 3d
       -0.029853547 -0.09236576 -0.07036014 0.10014065
000370 a6 84 e2 bb 73 22 07 bb ae 99 9c bd c8 1c aa bd
       -0.0069127856 -0.0020619899 -0.076464996 -0.08306271
000380 37 4d 95 bd e1 18 29 3f 17 1f 9e bd 80 b5 02 3e
       -0.07290118 0.6605359 -0.07720774 0.1276455
000390 f3 9a a6 bd 4a e7 16 bd a4 f7 08 be 4c 01 e8 3c
       -0.08135023 -0.03684167 -0.13375717 0.02832093
0003a0 e6 d0 32 3d c8 a6 98 3d da 98 0d bd 24 7c ba bc
       0.043656252 0.07453686 -0.0345696 -0.022764273
0003b0 ed 81 c9 3c 8f 85 18 bd 24 ba 9c 3d 46 b2 2f 3d
       0.024598086 -0.037236746 0.07652691 0.042894624
0003c0 59 7f a1 bc 7c a6 ba bc 81 bf e4 3d d6 8b c5 bd
       -0.019714044 -0.022784464 0.11169339 -0.09645812
0003d0 98 31 1e 3d 85 b7 c4 bd f6 4a 88 bd 7e c9 58 3e
       0.038621515 -0.09605316 -0.06654923 0.21170613
0003e0 34 be 95 bd 96 e3 05 3e a4 1e bb 3d fe 3d 92 3d
       -0.07311669 0.13075098 0.091367036 0.0714073
0003f0 a1 05 01 be 6c 93 63 3d 3e 2e bb 3d 64 f0 8a 3d
       -0.12599804 0.055560514 0.09139679 0.06784132

lstm.weight_hh_l0 f4 [256, 64]
000000 48 ea de bd 0a 04 92 bd aa 7e 5c 3d d4 e2 8c bd
       -0.10884529 -0.07129677 0.053831734 -0.068792015
000010 23 39 b7 3d 71 05 82 bd e5 fa 43 bc b0 b9 09 3d
       0.08946445 -0.06348694 -0.011961673 0.03362435
000020 f6 73 fa bd ce 6b 2b 3d 07 de f0 3d 98 d2 d8 bd
       -0.12229149 0.041850857 0.11761098 -0.105870426
000030 4e 02 26 3d 03 0d 30 bd ff f7 ed 3d d4 f9 a2 3d
       0.04052954 -0.04298116 0.11619567 0.07957807
000040 13 9a b5 3d f2 ba 8f 3d 63 a9 07 bd 32 19 46 bd
       0.08867278 0.07018079 -0.033120524 -0.048363872
000050 3f 22 5a 3c c1 30 55 3d 9a bd 62 3d 60 14 ed 3d
       0.013313829 0.05204845 0.0553566 0.11576152
000060 fb a0 b1 3d 45 f7 be 3d ab 0d 80 bc da 20 e1 3d
       0.08673283 0.09324507 -0.015631517 0.10992594
000070 6f e2 c6 3d 6b 1a ac 3c e4 5c 95 3d de d6 34 bd
       0.097111575 0.02100869 0.07293108 -0.044150226
000080 00 42 90 3d 5a f9 95 bd 14 cf 1f bc ae 8e 83 3c
       0.070438385 -0.07322951 -0.009753961 0.016059246
000090 be e7 1b 3d e1 3a 5c bd c2 f9 02 bd cf 8f 0c bd
       0.038062803 -0.05376709 -0.03197647 -0.034316834
0000a0 17 05 aa 3c a5 8c c6 3d 52 bb b8 bd 1f e1 b4 3d
       0.02075438 0.096947946 -0.090201035 0.08832001
0000b0 55 3c 94 bd 97 47 8e 3c 32 11 27 3d 95 c7 8f 3b
       -0.0723807 0.017368121 0.040787883 0.0043878057
0000c0 1b d2 9e bd 09 53 c4 bd 9f 83 9c bc 3e f0 d8 bb
       -0.07754918 -0.0958615 -0.01910573 -0.006620436
0000d0 08 29 94 3d d1 f3 1c 3c 78 65 95 bd 6f d9 92 bd
       0.072343886 0.009579615 -0.07294744 -0.071703784
0000e0 9e cf 84 3d f4 45 39 3d 2e 27 df 3d 36 69 48 bc
       0.06484912 0.045232728 0.10896145 -0.0122321155
0000f0 3e 28 29 3c 67 b1 d4 3d 49 95 94 3c c3 8b 69 3c
       0.010324536 0.10385399 0.018137591 0.014254513
000100 77 54 70 bd 21 35 ec 3d 58 5c 96 3c 2d 81 c4 3d
       -0.058674302 0.11533571 0.01835458 0.09594951
000110 98 3b c4 bd e7 36 07 3e 1a 5b bd bb 71 81 0a 3d
       -0.09581679 0.13204537 -0.0057786824 0.03381485
000120 34 76 15 3d ea e4 bf 3c 0f 03 80 3b 87 6d 83 bd
       0.03648968 0.023424584 0.0039066146 -0.06417375
000130 34 ce 20 3d 79 a5 51 bd d3 f9 6b bd 0f 0a 9e 3d
       0.03925915 -0.051183198 -0.057611298 0.07716762
000140 dd 1b cb bd ed be e1 bd 8b 6b e7 3d 88 0b a9 bd
       -0.09917424 -0.11022744 0.11299809 -0.082541525
000150 8f cd 30 bd df 73 c8 3d 49 98 5e 3b c6 97 01 be
       -0.043164786 0.09787726 0.003396528 -0.12655553
000160 34 00 07 bb 5c 8a f6 3d e1 30 64 be a1 00 91 3c
       -0.0020599486 0.12038109 -0.22284271 0.017700495
000170 74 74 16 3d ae 21 8d 3d 38 ab f7 3d 54 ac 70 bd
       0.036732152 0.068911895 0.12093204 -0.058758095
000180 9d c5 bc 3d 20 21 7d 3d b9 33 d9 bc 2c 51 6c 3d
       0.09217379 0.06179917 -0.026513921 0.0576946
000190 4b 9f c4 3b 34 cd 16 3c 60 4b c5 3d df b0 d1 bd
       0.0060004345 0.009204198 0.09633517 -0.102388136
0001a0 e5 2e 1e bd 01 19 fb bb 76 8f 11 3d d2 b7 86 3d
       -0.03861894 -0.007662893 0.035537206 0.0657803
0001b0 10 3c d9 3d ab 76 7d bc 40 ba 86 3b 24 26 a0 bd
       0.10607159 -0.015470187 0.004111558 -0.07819775
0001c0 72 a4 81 bd 65 c3 0f bd 15 24 ad bd f7 63 80 bb
       -0.063301936 -0.035098452 -0.08454148 -0.0039181667
0001d0 b8 75 1c bd e3 1d 08 bd 61 2e 13 3d bf ee fc 3b
       -0.038198203 -0.033231627 0.035932902 0.0077188904
0001e0 ae fe c8 bd a6 aa 83 bd df e8 af 3d e7 a1 b2 bd
       -0.09814201 -0.06429033 0.085893385 -0.08722287
0001f0 63 cf b8 3d 04 1a 8b 3d 2e e3 d6 3d 61 b4 03 be
       0.09023931 0.067920715 0.1049255 -0.12861778
000200 e7 38 5a bd 68 82 c5 3c d4 af b9 bd 28 ec 97 3c
       -0.053276923 0.024110034 -0.0906674 0.018545225
000210 44 85 bd 3d 64 93 79 bd 22 a8 35 3d f9 a3 e8 bd
       0.09253934 -0.06093158 0.044349797 -0.113594
000220 f2 68 36 3c 50 95 23 be e7 c8 d1 bd 88 a7 a3 bd
       0.011133419 -0.15974927 -0.10243397 -0.079909384
000230 a1 ea 8e bc 55 44 29 bd a9 17 a2 3d ad ab d4 3d
       -0.017445864 -0.041324932 0.07914669 0.10384307
000240 29 12 bb 3b 5d a9 55 bd 58 97 ca bd c6 2c 69 3c
       0.005708952 -0.05216347 -0.09892148 0.014231866
000250 a0 84 34 bd 4f 99 fb 3d b5 2a e5 bd dc b7 4d bd
       -0.044071794 0.12285101 -0.11189786 -0.05022417
000260 f9 bb 23 3d cd f9 07 3d f2 22 c2 bd 21 95 e7 bd
       0.039974187 0.033197213 -0.094793215 -0.11307741
000270 93 5b fc bc 89 78 09 be f6 41 09 bd 27 c7 30 bc
       -0.030805385 -0.13424887 -0.03351017 -0.010789669
000280 db c2 90 3c 83 9d 59 3b dc ae 40 3d 59 67 09 be
       0.01767104 0.0033205457 0.04704176 -0.1341833
000290 95 12 09 3c 7c 39 32 3d 51 2f 2c 3d b9 0d aa bd
       0.008366247 0.043511853 0.042037312 -0.08303399
0002a0 1b 07 d8 bd e4 7c 89 3b c5 24 90 3d 4c 53 84 3c
       -0.1054823 0.0041957963 0.07038263 0.016153
0002b0 4d b1 a9 bb 66 89 a1 bd d4 02 b7 bd fd 27 b1 3d
       -0.0051786066 -0.07887535 -0.08936086 0.08650205
0002c0 ca 6d 84 bd b0 99 8c bd 67 30 45 bd 4e 9d ca bd
       -0.06466253 -0.06865251 -0.048141863 -0.09893285
0002d0 f1 93 94 bd 84 98 85 bd bf f2 4a 3d 14 f7 b9 3d
       -0.0725478 -0.06523231 0.049547907 0.090803295
0002e0 8c b2 16 be d7 8c c8 3d d5 9b 96 bc f6 1e bd 3c
       -0.14716548 0.09792488 -0.018384853 0.023086052
0002f0 76 5f 9c bd 37 5e a9 3d 26 6a a5 bd 67 dd 50 3d
       -0.07635395 0.08269923 -0.08076887 0.050992396
000300 ee 02 51 bd a3 39 72 bd 49 8d 3d bd 7e 5e bf 3d
       -0.051028185 -0.059136998 -0.04627732 0.09344195
000310 42 ee 4c bd 3f ef 85 bd 30 2d 4d bc 12 31 92 3d
       -0.050031908 -0.06539773 -0.012522981 0.07138266
000320 67 9c 0f bc 47 63 47 bd 38 9d 2f 3d 53 8f ba 3c
       -0.008765317 -0.048678663 0.042874545 0.02277342
000330 13 82 96 3d b7 8c 4f bd f7 0a bb 3d 7c 28 28 3e
       0.073490284 -0.050671306 0.09132951 0.16421694
000340 77 02 7b 3d e7 21 82 3d f2 ce 34 3d 85 96 60 bd
       0.061281648 0.063541226 0.04414267 -0.054831047
000350 5a 5c 19 3d 17 8b 07 bd b2 7b d7 bd 51 73 32 3d
       0.03744159 -0.03309163 -0.1052164 0.043567006
000360 0c 58 a3 bc 00 01 44 3d 7d b4 54 3d 8e 04 31 bd
       -0.019939445 0.047852516 0.05192994 -0.043217234
000370 95 b8 d8 bc 8d eb 0b be 1e 53 8c bd 0d 1c 72 bd
       -0.026455203 -0.13664074 -0.06851791 -0.059108783
000380 2c 15 d2 bb 63 30 07 be 31 b8 00 be 57 31 91 bd
       -0.0064112153 -0.13202052 -0.12570263 -0.07089489
000390 f6 8f 4d bc bd e9 ba bd 96 71 ae bc bd a0 9b 3d
       -0.01254653 -0.09126613 -0.021294396 0.07599018
0003a0 38 0e 4f bc 0f a1 77 bb cc 4c e5 3d 8b 5e bc 3d
       -0.012637667 -0.0037785207 0.111962885 0.0919772
0003b0 60 c4 3a bd c1 ff d9 bc 6d 45 c4 bd 92 2e b8 bc
       -0.045597434 -0.02661121 -0.095835544 -0.022483144
0003c0 da 13 87 bd 4e d8 f6 b9 71 67 af bd 5f cc 11 bc
       -0.06595583 -0.00047081936 -0.08564652 -0.0088988235
0003d0 bc 1d 87 3c ac 7d 75 bd 3a c4 b3 bd e0 aa bb 3c
       0.01649367 -0.059934303 -0.087776616 0.022908628
0003e0 b8 03 e3 3c 41 fd f4 bd 81 20 15 3d 0f 10 f2 3d
       0.027711734 -0.11962367 0.03640795 0.11819469
0003f0 28 78 0d bd c7 17 68 bc 4b 45 df 3d 76 9c 43 be
       -0.034538418 -0.014165825 0.109018885 -0.19102654

lstm.bias_ih_l0 f4 [256]
000000 30 6c 8c 3d 75 62 b3 bd d8 51 db bd e0 e9 9a 3d
       0.06856573 -0.087590136 -0.1070897 0.07564139
000010 b8 62 ed 3c 91 0e 68 bd 82 16 da 3d d3 bb d0 3d
       0.028977737 -0.056654517 0.10648824 0.101920746
000020 32 f8 16 3c d4 d0 e4 3d 4d fb 45 3d 22 f0 d6 3d
       0.009214448 0.11172643 0.048335362 0.104950204
000030 ac 9a b9 3d 7d 91 ac 3d 32 55 c0 bc c8 a6 9d 3d
       0.090627044 0.08426187 -0.023478124 0.076978266
000040 0b 94 1b bd 43 a7 51 bd cc fa ac bd 05 2e 01 3e
       -0.03798298 -0.051184904 -0.08446273 0.12615211
000050 df b1 f9 3d eb 0a df bc 8e f8 c2 3d e1 5c e0 3d
       0.12192129 -0.027226886 0.09520064 0.10955215
000060 77 62 12 3e 43 85 0c 3d 1e 8d d4 bc 8d 34 a0 bd
       0.14295374 0.034306776 -0.025946196 -0.07822523
000070 ac 19 d9 bc 7b a9 ff 3c aa f5 d0 3d 2c 12 cf 3c
       -0.0265015 0.031208744 0.10203107 0.02527722
000080 6e b2 a1 bd 7f a3 81 3c c3 a2 2b 3d a0 41 19 3b
       -0.07895361 0.015825031 0.04190327 0.0023385063
000090 e4 65 83 3c dc 69 98 3d 6c 01 f7 3d 19 0a 14 bd
       0.016039796 0.07442066 0.12060818 -0.036142442
0000a0 57 3b a6 3d af 36 b3 bd fa 71 a8 bd 99 0c f5 bb
       0.08116787 -0.087506644 -0.08224864 -0.0074783084
0000b0 f1 7c 98 3d 9b 07 3f bd 16 bb 19 3d ae c1 f5 3d
       0.07445706 -0.046638113 0.037531935 0.11999832
0000c0 19 ea a7 3d 70 3e f6 3d 86 1e 1f bd b9 a6 29 3d
       0.081989475 0.12023628 -0.03884747 0.041418765
0000d0 13 5a 56 bc 81 8a 2f 3d 04 4e a2 bc 24 b8 8f 3c
       -0.013082999 0.042856697 -0.019812591 0.01754386
0000e0 26 54 fd 3c 82 28 15 3d 3e a1 c5 bd ae cc 55 3e
       0.030923914 0.036415584 -0.09649895 0.2087886
0000f0 c8 ee 0c 3d 52 ed 88 bd e8 63 91 3d c0 b6 1c bb
       0.034407407 -0.0668589 0.07099134 -0.0023912638
000100 d1 3d 54 3d af c9 04 bd b4 7a a4 b9 a1 df 11 bd
       0.051816765 -0.032418903 -0.00031371939 -0.03561366
000110 8d 66 13 3d 3b f1 dd bd ca 03 d5 bc 72 76 07 bd
       0.035986472 -0.10837027 -0.026002783 -0.033071943
000120 da d0 f3 3d fc c2 88 bb 77 95 e3 bc 9d 9a ae 3c
       0.1190507 -0.0041736346 -0.027781231 0.02131396
000130 2a 99 ae 3d 45 d4 8d bd 7b 83 2c bd 04 ee 2c bd
       0.085253075 -0.06925253 -0.042117577 -0.042219177
000140 d4 36 54 3d 7a 93 3b 3d 95 24 a2 3d 52 5f ed 3d
       0.0518101 0.04579494 0.07917134 0.115904465
000150 ab 77 88 3c 7d 6b 30 3a 65 ad 93 bb 83 64 c3 bc
       0.016658625 0.0006729884 -0.004506754 -0.023851639
000160 60 02 05 be de c0 97 bd 70 2e 57 3d f1 43 8c 3d
       -0.12989187 -0.07409833 0.05253452 0.06848896
000170 e4 c2 17 bd f9 49 40 3d 96 e6 92 bd 1c 1d f4 3d
       -0.037051097 0.046945546 -0.07172887 0.11919615
000180 a8 66 37 3d 06 49 cc bd 75 41 d3 3d 51 d6 fe bd
       0.044775635 -0.099748656 0.10315219 -0.12443221
000190 d4 e0 6a 3c e8 c2 b3 3d 36 d8 dd bc 91 3d 46 bd
       0.01433583 0.0877741 -0.027080636 -0.048398558
0001a0 4d 44 e8 3d b0 61 40 bd 93 23 50 3d f4 27 fb 3b
       0.11341152 -0.046968162 0.050815176 0.007664675
0001b0 6b 10 da 3c 7e 7a 9c 3d 33 bb 92 bd 6e d6 a4 bd
       0.026619157 0.07640551 -0.07164612 -0.08048712
0001c0 41 86 07 bd 85 37 bf bd c0 5a f1 3b 75 3d 19 be
       -0.03308702 -0.093367614 0.0073655546 -0.1496485
0001d0 bf 44 11 bd f3 ec 76 bd 8a 04 54 bd 56 ae ca bd
       -0.035465952 -0.060284566 -0.05176214 -0.09896533
0001e0 7f 21 1f bd 6a 1a 28 bc 76 3d 82 bb 87 7e a7 bc
       -0.038850304 -0.010260204 -0.003974612 -0.020446075
0001f0 4a e6 9e bc f6 92 1d bc cd a3 c1 3c f1 f1 cf bb
       -0.01939692 -0.009617558 0.023637677 -0.0063459803
000200 c9 2c 04 3d 89 23 52 3c 2d fc 9d bc b6 22 55 bd
       0.032269273 0.012825855 -0.019285286 -0.052035056
000210 0f b0 6a bd 84 1c f3 bc c4 ac 50 bd d3 0a 8c bc
       -0.05729681 -0.029676683 -0.050946012 -0.017095005
000220 b0 b8 bb 3d 5c a0 24 bd e7 45 27 bd 16 02 16 3d
       0.09166086 -0.040191993 -0.04083815 0.036623083
000230 01 45 28 3d cf 7a 85 bd 3c fa b4 3d c5 b8 81 bd
       0.041081432 -0.065175645 0.08836791 -0.0633407
000240 91 e2 b4 3c bc e4 ba 3d ac 0c b5 3d 9f cb 6f bc
       0.022080692 0.09125659 0.088403076 -0.014635949
000250 07 b0 6b bd 12 cd 40 3d bd a5 8e 3d 3a 08 95 bd
       -0.05754092 0.04707057 0.06965206 -0.0727696
000260 d4 01 7f bc 6b 3d dc 3d 20 35 2c be ab d0 d3 3c
       -0.015564401 0.10753902 -0.1681714 0.025856337
000270 0f c0 cf bd c0 e0 f7 3c f1 52 87 3d 29 21 9c 3d
       -0.10144054 0.030258536 0.06607617 0.07623512
000280 46 d2 9f 3d 1a 4e 32 3d a2 00 d6 bd a1 e9 2d bd
       0.07803778 0.043531515 -0.104493394 -0.042459134
000290 f3 9f 7d 3d 74 50 8a 3d 78 9a 19 be 81 b4 03 3e
       0.061920118 0.067536265 -0.15000331 0.12861826
0002a0 de bf 9c 3b b0 8a 93 bd 21 af cf 3d 22 50 73 3d
       0.0047836145 -0.07204187 0.10140825 0.059402592
0002b0 70 b9 d6 bc cb eb c9 bd 2a ea 17 3c 94 4c b5 bc
       -0.02621147 -0.09859427 0.009272138 -0.022131242
0002c0 86 aa 51 3d b3 67 c2 3d 3e b4 a4 bd 83 3c 4d bd
       0.051188014 0.09492435 -0.08042191 -0.050106537
0002d0 0b 9d 5b bd 1a 83 2e bd 2f be 45 bd 0b 2d 0f bd
       -0.053616565 -0.042605497 -0.048277076 -0.034955066
0002e0 69 68 71 3d 73 d0 4d 3d 95 21 45 3d 2b 8c de bb
       0.058937464 0.05024762 0.04812773 -0.0067916117
0002f0 7c 8a b2 3b f8 d4 a5 bd 2f 0c c8 bc ea b7 0d 3e
       0.0054486375 -0.08097261 -0.024419872 0.13839689
000300 98 26 09 3d b3 16 d1 bc de e5 c6 3d 26 22 ef 3d
       0.03348407 -0.02552352 0.097118124 0.11676435
000310 f1 03 52 3d e0 4d 09 3c c9 35 bc 3c 5b 22 6b 3e
       0.05127329 0.008380383 0.022974866 0.22962324
000320 22 d6 4d 3e 53 7b 85 3d 81 cb 10 3d 63 a7 b0 3c
       0.20101216 0.06517663 0.035350326 0.021564191
000330 72 16 d1 3d 44 28 a7 3d 6a 58 d0 bc 67 2f a5 b9
       0.10209359 0.08161977 -0.025432784 -0.0003150657
000340 32 01 01 3c e9 cd bc bd 05 13 85 bd a3 fa 9f bd
       0.00787382 -0.09218962 -0.06497768 -0.07811477
000350 26 e9 6d 3d c3 b0 04 3d 30 e5 c0 3c 4d a0 8c 3c
       0.058083676 0.032395136 0.023546785 0.017166281
000360 06 92 d9 bc ae 33 7f 3d 77 ea 16 bc 72 37 ec bd
       -0.026558887 0.062305145 -0.009211174 -0.11534013
000370 93 82 af 3d 80 b8 b9 bd 99 6a 81 bd c3 2c 02 3e
       0.08569827 -0.09068394 -0.0631916 0.12712388
000380 50 5c 34 3c 05 ea da 3d c7 2b af 3d 3d 58 b5 bb
       0.011008337 0.10689167 0.08553272 -0.0055342005
000390 9f 16 1d bd 53 ae fe 3d 5d ff 0b 3e a2 85 09 3e
       -0.03835165 0.124355935 0.13671632 0.13429883
0003a0 37 5e 44 3d 35 de 02 bc 38 51 95 bd 8d f8 65 ba
       0.047941413 -0.007987549 -0.07290882 -0.00087726937
0003b0 97 30 f5 bd cd bf 07 3e 30 80 82 bc a2 98 98 bd
       -0.119721584 0.1325676 -0.015930265 -0.074509874
0003c0 52 a1 23 3b a1 85 7f bc 64 eb df 3d 83 60 a2 3d
       0.002496798 -0.015595824 0.10933569 0.079285644
0003d0 f5 c6 56 3d cb e8 87 bd a3 56 f0 bd 11 cc 79 bd
       0.052435834 -0.066361986 -0.11735275 -0.06098563
0003e0 ce 2a 93 3d 8c c8 c8 bd 93 b2 ab 3d a4 8f 0b 3e
       0.07185899 -0.09803876 0.0838367 0.13629013
0003f0 1e 33 3a bd 92 c8 1e bc ec cd b8 3d 10 72 6f 3d
       -0.045458905 -0.009691374 0.090236515 0.058458388

lstm.bias_hh_l0 f4 [256]
000000 8b 8d 3b 3d 69 a1 f8 bd ff 7a f8 3d 98 75 d5 bd
       0.045789283 -0.121401615 0.12132835 -0.1042282
000010 9e 5d 9b 3d 92 d8 1d 3d d7 02 09 3e 4b 82 c5 3d
       0.075862154 0.038536616 0.1337999 0.09643992
000020 50 7b f2 3d 3f 9d c5 bd 4d 79 e0 3b 12 25 07 bd
       0.11839926 -0.09649133 0.0068503977 -0.032994337
000030 88 f3 00 3e a5 0e eb 39 87 1d 1d bc e4 55 bb 3c
       0.125929 0.00044833604 -0.009589559 0.022868104
000040 fb f4 69 3d b1 2a fb bc ec b3 fa 3d 2c 1c 84 bd
       0.057118397 -0.030660005 0.122413486 -0.06450686
000050 3a 2d 1a 3d 40 87 01 3e 40 d8 06 be ca 25 64 bc
       0.037640788 0.1264925 -0.1316843 -0.013925025
000060 91 ec 6d 3d fc 2d d7 bd 11 b7 ac 3d ad c2 dd bc
       0.058086935 -0.10506818 0.08433355 -0.027070368
000070 12 fe bf 3d f5 d3 f6 bc cb 83 07 be a8 a5 4b bd
       0.09374632 -0.030130366 -0.13233869 -0.04971853
000080 8c 16 bb bd cb 6e 05 3e 1a c2 1c bd 64 ab 2e 3d
       -0.0913516 0.13030545 -0.038271047 0.04264392
000090 76 d3 3e 3c 3a bd 18 bd 6f 7e 0c bd f7 aa fe 3d
       0.011647096 -0.037289836 -0.034300264 0.12434953
0000a0 23 99 9e bc 6b a7 be bd 12 4f 00 bc 0e 20 fb 3d
       -0.01936013 -0.09309276 -0.007831352 0.12261973
0000b0 ab e0 89 3d 44 66 26 3d 5f 43 a6 bd f0 09 a0 3d
       0.06732305 0.04062487 -0.08118319 0.078143954
0000c0 4a c1 98 bc 96 8f bb bc f6 4b f1 bc e2 33 2b 3b
       -0.018646855 -0.022895616 -0.029455166 0.0026123454
0000d0 c3 16 80 bd 7e 8d 4b bd 43 02 cf 3c ee 9c e4 3c
       -0.062543415 -0.049695484 0.025269633 0.027906861
0000e0 4c 9e eb 3d dd 1b ab bd 3c 54 1d bb 52 47 8e 3d
       0.11504802 -0.08354924 -0.0024006506 0.06947197
0000f0 4a fe ac 3d 60 9d f2 bd 98 e4 02 3d 54 c5 4b 3e
       0.08446939 -0.11846423 0.031956285 0.19899493
000100 b2 6d 9d 3d cf c1 ca ba 11 ac a2 3d 4e fa 2b 3d
       0.07686938 -0.0015469136 0.07942975 0.041986756
000110 a7 a6 a3 bd 64 5a 1b bd 3b 24 2b 3c 46 a6 72 be
       -0.07990771 -0.037928 0.01044565 -0.23696241
000120 7d 43 da bd fb 30 f6 3c 1b ea af 3d 0e 4c bf 3d
       -0.106574036 0.030052653 0.08589574 0.09340678
000130 9d c2 dc 3d 8c 5e b4 bb d2 91 81 3d f8 ab d4 bd
       0.10779307 -0.005504435 0.06326641 -0.10384363
000140 af 2e 93 bb ea d3 ee 3d e0 52 03 3e fe 72 c2 3d
       -0.004491649 0.11661513 0.12824583 0.09494589
000150 2c 8a f7 bd 29 97 3c 3d a0 68 b4 bd 98 54 dd 3d
       -0.12086901 0.046042595 -0.08809018 0.108071506
000160 9f 20 ac bd c3 e2 bf 3b 61 bb 0f 3e 28 33 02 be
       -0.084046595 0.0058558895 0.14036323 -0.12714827
000170 2f c2 5d bd fe 47 13 3b 99 a8 77 3c 7a d2 a9 3d
       -0.054140266 0.002247333 0.01511588 0.08292098
000180 ab 31 eb bd 26 3b a9 bc d0 42 f6 3d c7 ce 8f 3c
       -0.11484083 -0.020658087 0.12024462 0.017554654
000190 f1 3d 5c 3d d1 6e 22 3d 41 33 9e b8 87 e7 f1 3d
       0.05377001 0.039656464 -7.543574e-05 0.118117385
0001a0 32 ec 6e bd 4c e6 d8 3d dc 87 34 3d 4c 28 21 bd
       -0.058330722 0.10590801 0.044074878 -0.03934507
0001b0 68 36 c5 3d 47 26 d5 bb 37 1c c6 bd 25 14 97 3d
       0.09629518 -0.006504807 -0.0967335 0.07376889
0001c0 6b 69 0a be 27 0d 26 be ba 52 32 3d 16 58 31 3d
       -0.13516776 -0.16215955 0.043535925 0.043296896
0001d0 9e 74 a8 bd 1d 80 de bd be eb 12 3d da ea de bd
       -0.08225368 -0.108642794 0.035869353 -0.10884638
0001e0 ac 25 f0 bd 4b 06 c0 bb b2 c1 d2 3d cb 25 71 be
       -0.11725935 -0.005860125 0.10290851 -0.23549573
0001f0 ec 1d 9a 3d 93 e3 0a be db 70 24 3c ca e1 f5 3c
       0.075252384 -0.13563375 0.010036672 0.030014891
000200 ec fe f3 bc 37 93 8f bd 7c 0a 7d 3d 63 a9 8c 3d
       -0.029784642 -0.07010501 0.061777577 0.068682455
000210 32 e0 21 3d c1 cc eb bd 2a eb 80 3d 4d f5 ba 3d
       0.03952045 -0.11513663 0.06294854 0.09128819
000220 fa dd 51 3d ef 68 03 3e 92 53 d9 3d 0a c2 f1 3c
       0.051237084 0.12832998 0.10611643 0.02951147
000230 0e e7 d8 3d f3 41 11 be 69 97 3c bb 8f 64 bd 3c
       0.10590945 -0.14185314 -0.002877677 0.02311924
000240 02 e7 8d bd 16 14 72 3d e8 c1 bf bd 78 68 13 3c
       -0.06928827 0.059101187 -0.093631566 0.008997075
000250 b0 33 bc 3d 43 32 7d bd 63 5b e3 3d c9 e8 86 bb
       0.09189546 -0.06181551 0.11101415 -0.0041171056
000260 ee 29 21 3d da 09 1b 3d 3e ee 0f bd 3c 37 90 3d
       0.039346628 0.037851192 -0.035139315 0.07041785
000270 8e 37 92 3c f1 cd d4 3d 34 84 b1 3c 67 6a 8f 3d
       0.017848756 0.10390843 0.021669485 0.070027165
000280 bd 1e 96 3d 62 c4 6f bd 26 11 01 3d a8 30 fb 3c
       0.073300816 -0.058536895 0.031510495 0.03066285
000290 2d e5 b2 3d af b3 93 ba 7f db 1f 3d 32 06 b5 3a
       0.08735118 -0.001126876 0.039027687 0.001381105
0002a0 c8 a8 35 bd 5d 7c ae 3d 03 97 4a bd 24 36 8c bc
       -0.044350415 0.08519814 -0.049460422 -0.01711566
0002b0 83 f5 2e bd b5 ec 43 bd b6 f8 c2 bd ae 90 31 3e
       -0.042714607 -0.047833163 -0.09520094 0.17340347
0002c0 1d 27 36 3c 7a c3 88 3d 29 2b 06 3d aa cd 6e 3d
       0.011117724 0.06677909 0.032756004 0.058301605
0002d0 ca 5c 2b 3d 33 54 43 bd 5d f5 38 3c 12 c2 7b bd
       0.041836537 -0.04768772 0.011288968 -0.061464377
0002e0 a6 29 71 3d f5 88 87 3c 7e d8 c6 bd 5d 74 0b be
       0.05887761 0.016544798 -0.09709261 -0.13618608
0002f0 72 f1 3c be 2a 83 a2 bd de ba d4 bb cc 31 2a 3d
       -0.18451479 -0.07935174 -0.006492003 0.041551396
000300 82 c7 8c bb 0d ee 30 3b 30 5b 2f bc 9a c7 fc bd
       -0.004296244 0.0026997358 -0.010702893 -0.123427585
000310 fd 37 6d 3d 00 ed b8 3d 80 b5 fc 3d 6d e9 60 3e
       0.057914723 0.09029579 0.12339306 0.21964045
000320 43 3c 25 3e da 93 22 3d b9 b8 c6 bd c9 9b 35 3d
       0.1613627 0.039691783 -0.09703202 0.04433802
000330 6d 00 dc bb ef f0 a7 bd e7 b6 c2 bd 6c 4d 83 3d
       -0.006713918 -0.08200251 -0.09507542 0.064112514
000340 57 94 0e bd f7 40 b2 3d 48 a8 04 3d 47 f1 98 bc
       -0.034809437 0.08703797 0.032387048 -0.018669738
000350 1f d7 d2 3d 5f c9 e5 3d 66 ef 43 3d 4f 19 ca 3d
       0.10294937 0.11220049 0.04783573 0.098681085
000360 c6 03 db 3d bb b8 d7 bc c5 ad 77 3c 0c 1d 88 bd
       0.10694079 -0.026333204 0.0151171135 -0.06646165
000370 c3 7f 8d 3d b2 3c dc bd 00 4b cf 3d 38 4e 8a bd
       0.06909134 -0.10753764 0.10121727 -0.067532
000380 eb eb a7 3d 76 67 09 3e e2 98 60 bd 65 82 9f 3b
       0.08199295 0.13418373 -0.0548333 0.004867839
000390 bc 36 1c 3d 32 c8 b7 bc d9 db 6f 3d 1f 9f fd 3d
       0.038138136 -0.022434328 0.058559272 0.123838656
0003a0 10 5f 32 bd 0a 29 87 3d 0a e1 cb 3d b1 73 ae 3d
       -0.04354769 0.065996245 0.09955032 0.0851816
0003b0 90 05 a8 bd 43 fe bb bd b2 22 f2 3d 96 1e 28 3e
       -0.08204186 -0.09179356 0.11823024 0.16417918
0003c0 06 f1 97 3d b4 bf 0b 3e 1e b0 88 3d 9b 59 b8 3d
       0.074190184 0.13647348 0.06674217 0.09001466
0003d0 33 69 4d bd 54 61 5f bd e4 25 2b 3d 40 73 02 3d
       -0.050149154 -0.05453618 0.041784182 0.031848192
0003e0 1c 9a fd 3d 65 91 98 bd 70 53 8d 3d c5 51 0f 3b
       0.1238291 -0.07449607 0.0690068 0.0021868807
0003f0 c8 15 c9 bc 8d 48 a7 bd d9 61 06 bd 3f ff 34 3d
       -0.024546519 -0.08168135 -0.03280816 0.044188734

lstm.weight_ih_l1 f4 [256, 64]
000000 50 77 05 3e 24 7f f4 3b e4 8a 5d ba f1 1e 96 3d
       0.13033795 0.0074614454 -0.0008451177 0.0733012
000010 76 6c f4 3d 9e e2 c8 3d 1e 1a 96 bc 3f ee b9 bd
       0.1193475 0.09808849 -0.018323 -0.09078645
000020 97 c5 97 3c 8e bc ab 3d ee e2 c1 bd 7f ed f8 bd
       0.018526835 0.08385573 -0.094671115 -0.12154674
000030 dd 83 9b bb e1 a7 20 3e da 97 ab 3d 9e a6 08 3d
       -0.004745944 0.1568904 0.08378573 0.033362024
000040 b9 df dc 3d 92 60 8e bd 4c bb 2d bd 81 90 11 bd
       0.10784859 -0.06952013 -0.04241495 -0.0355382
000050 d5 62 67 bd 05 a7 92 3d b3 ae 0d be 2b 4a ea 3d
       -0.056490738 0.07160763 -0.13836174 0.11439928
000060 45 f4 0e 3e b6 fa c4 bd f6 af c5 3d 3b 68 d1 3d
       0.13960369 -0.09618132 0.096527025 0.102249585
000070 9c 7c 04 3e 67 35 38 bd 5f 13 6f 3d 2a 63 04 3d
       0.1293816 -0.044972803 0.058368083 0.032321133
000080 b1 92 24 bc 24 d3 28 bd 15 57 86 bd 3c 98 39 3d
       -0.01004474 -0.041216984 -0.06559578 0.045311198
000090 01 70 4e 3d 9a 63 8e 3d a0 89 b1 3d 8d 49 14 3e
       0.050399784 0.06952591 0.08668828 0.14481182
0000a0 06 df b8 bd 72 6f 4b bc 14 1d b5 3d 0c 44 27 bc
       -0.09026913 -0.012416707 0.08843437 -0.010209095
0000b0 96 d5 dd bc 6f b1 31 3d 1f 33 77 3c 4b 0e ff bc
       -0.027079385 0.043382104 0.015087872 -0.031134745
0000c0 96 41 c6 bd 74 6c 21 be d5 c8 92 3d dd 8b 52 3c
       -0.09680478 -0.15764028 0.07167212 0.012850729
0000d0 af 40 2b bd d2 83 b0 3d 4d eb e1 bd 66 23 6c 3c
       -0.041809734 0.08618893 -0.11031208 0.0144127365
0000e0 3a 54 cf 3d 45 5e ab bd f3 5f d3 3d 6d 99 10 3e
       0.10123487 -0.0836759 0.10321035 0.14121027
0000f0 d6 f6 0d 3d bc fd b2 bd de 9d 41 3d 90 c2 9e 3d
       0.03465923 -0.08739802 0.047269695 0.077519536
000100 35 25 26 bd 05 86 24 3b 15 2b ba bd ef 78 11 3e
       -0.040562827 0.0025104296 -0.090902485 0.14206289
000110 56 a9 85 3d d3 0c 85 3d e9 23 d0 3c 62 24 47 be
       0.06526439 0.06496587 0.025407748 -0.19447473
000120 d9 ef 96 bd 5b 8a 2c bc 29 90 dd 3d 12 79 a5 3d
       -0.07369966 -0.010531033 0.10818512 0.08079733
000130 74 eb 10 3e 73 f9 c5 3d 9b 68 19 be f3 5a a4 bc
       0.14152318 0.09666719 -0.1498131 -0.0200629
000140 bd 07 88 3d bc fd 2d be 81 c6 e3 bc 53 a6 6b bd
       0.06642101 -0.16991323 -0.027804615 -0.057531666
000150 71 f7 9a bd e4 14 2c be 9a 64 20 3d 12 2a cb 3d
       -0.07566727 -0.16804844 0.03915844 0.09920134
000160 4f 2b d5 3d c9 a6 35 3d c7 1a 99 3d fe 29 e8 bc
       0.10408651 0.04434851 0.074758105 -0.028340336
000170 d1 5f a3 bd e5 7f 1c bd ff 8e 3f bd 88 a8 3c bc
       -0.0797726 -0.038207907 -0.04676723 -0.01151479
000180 c9 83 ec 3d a8 ad 5e bd fe 8a 30 bd e0 55 95 3d
       0.115485735 -0.05436483 -0.043101303 0.0729177
000190 d6 bb e6 3d d4 69 d6 3d 4a f8 d3 bc 05 6f 56 bd
       0.112662956 0.10469404 -0.02587523 -0.05235197
0001a0 a5 9e 29 bd e1 44 5b 3c dd fc c7 bd 72 8f 94 bc
       -0.04141106 0.013383121 -0.09765027 -0.018134806
0001b0 d0 6c c3 3d 3f f3 18 3d a8 8b 46 3d 2c ad c1 bd
       0.09542239 0.037341353 0.04847303 -0.09456858
0001c0 0d 8d 81 3d 4d 00 f4 bd 10 1b a1 bd 7e 36 5f 3d
       0.063257314 -0.1191412 -0.0786649 0.054495327
0001d0 42 80 97 3d 1f 1a 22 3e 88 da df bd 80 d8 40 3d
       0.0739751 0.15830277 -0.109303534 0.04708147
0001e0 a1 9c b2 bd 88 70 b1 3d da 26 40 bc 15 5c a1 3d
       -0.08721281 0.08664042 -0.011728013 0.078788914
0001f0 c9 07 2d bd 4f c6 95 3d d5 11 79 b9 d7 21 0e be
       -0.042243753 0.07313215 -0.00023753133 -0.13880096
000200 58 81 1d bd 2c 6c d1 3d fc 7c 37 3d 27 0e ab 3d
       -0.03845343 0.1022571 0.04479693 0.08352309
000210 52 c5 b3 3d 8c 83 a4 3d b0 e6 95 bd 81 d9 e0 bd
       0.0877787 0.08032903 -0.07319391 -0.109789856
000220 b8 41 79 bd 5b 24 33 be 09 6d 04 3c b5 97 14 bd
       -0.06085369 -0.17494337 0.008082637 -0.03627749
000230 54 47 e1 3c 64 6c ed 3d 42 c7 95 3d ff 62 93 3d
       0.027499832 0.115929395 0.07313396 0.071966164
000240 1c ab cf bd 00 f3 8f 3d f2 4f d5 3b b7 4e f4 bd
       -0.101400584 0.070287704 0.0065097744 -0.11929076
000250 69 64 e0 3d 9c 6e 8e bd 60 79 a0 bd ce d4 0c 3e
       0.10956652 -0.06954691 -0.078356504 0.13753054
000260 93 e1 97 3d e2 e3 81 3c a7 29 96 3d f0 e7 8f bd
       0.07416072 0.015855733 0.07332163 -0.070266604
000270 0d c4 c6 3d 12 17 1e be a1 3a d9 3d 5d 95 2f 3d
       0.097053625 -0.15438488 0.10606886 0.042867053
000280 fa b2 f7 bc d0 66 72 3d 6a 39 23 3d 3d 8f 91 bd
       -0.03023671 0.05918008 0.039849676 -0.07107399
000290 8f dd ff bd 82 c3 37 bd 36 b1 d1 3d 73 d5 30 bd
       -0.12493431 -0.044864185 0.102388784 -0.04317231
0002a0 8d f0 9d 3b 5c 6f 54 3d 37 a7 8f 3c 52 ce 83 bd
       0.0048199357 0.051864013 0.017535789 -0.06435837
0002b0 5a 4b eb bd f6 07 60 3d 15 95 80 bd 6a f2 5b 3b
       -0.114889815 0.054695092 -0.06278435 0.0033561238
0002c0 08 b0 e6 bd 5c 6a 8b 3b ca e1 7e 3d 05 58 48 bd
       -0.11264044 0.0042546224 0.062227048 -0.048912067
0002d0 e4 47 41 3d c8 94 ac 3c 2a 1e 5c 3d 79 fa c4 bd
       0.0471877 0.021067038 0.053739704 -0.09618086
0002e0 b6 99 18 bd 82 b1 9b 3c 50 26 b2 bd ee 1f de 3d
       -0.037255965 0.01900554 -0.08698714 0.10845934
0002f0 3e 2c 77 3d 18 d5 b8 bd 7b c7 3b 3d 78 f7 88 bd
       0.060344927 -0.090250194 0.045844536 -0.06687826
000300 f1 de d9 3d 67 8a 44 3d 24 34 2a bd 40 48 02 be
       0.10638226 0.047983553 -0.04155363 -0.12722874
000310 aa c0 c8 bd e1 31 05 3e 84 83 1d bd 0d 4b 4b bc
       -0.09802373 0.13007309 -0.0384555 -0.01240803
000320 a5 f7 70 bd 1e 7b f2 bd 78 58 af 3d d7 fc ba 3c
       -0.058829922 -0.11839889 0.08561796 0.022825642
000330 0f 02 8e bd 43 14 0c 3e 35 53 ad bd 27 39 21 3e
       -0.069339864 0.13679604 -0.08463136 0.15744458
000340 22 1f 81 bd 54 aa d0 bd 22 b6 0b 3c b3 63 18 bd
       -0.06304766 -0.101887375 0.008527311 -0.037204456
000350 6e 84 b5 bd e0 58 f8 bc bc ee ce bd e3 4f 42 bd
       -0.088631496 -0.030315816 -0.10104129 -0.047439467
000360 3c b6 66 bb 37 ed e4 bd da 64 93 3e 78 43 aa bd
       -0.0035203835 -0.11178058 0.2878788 -0.0831365
000370 67 ad 93 bd 9a b1 9c bc c9 0b 97 3d aa ed e3 bd
       -0.07210808 -0.019127656 0.07375295 -0.11129315
000380 d5 2d b7 3d 71 b0 b6 bd e8 a8 0f bd 86 83 a6 bd
       0.08944289 -0.08920372 -0.03507319 -0.08130555
000390 4d b3 cb bc 94 91 0d be 0a 39 a2 bd cc 4d 87 3d
       -0.02486577 -0.13825065 -0.079210356 0.066066355
0003a0 a7 54 ab 3d fb 86 69 3b 94 cc 46 bd ff d5 b2 bd
       0.083657555 0.0035633433 -0.048534945 -0.08732223
0003b0 cc 32 bb bb 8d 93 0b bc 6f a0 12 bd 9a 0b 8a bd
       -0.0057128426 -0.008519066 -0.035797533 -0.06740494
0003c0 9a d5 16 bc b2 e5 34 3d 34 77 f0 bc 71 c2 bb 3d
       -0.0092062 0.044164367 -0.029353715 0.09167946
0003d0 69 27 05 be 44 5c 35 bc 87 13 8e 3d b9 33 4f bd
       -0.13003315 -0.011069361 0.06937318 -0.050586436
0003e0 37 d2 e9 bb 23 6e b8 bd 94 e7 a0 3d f0 c0 d5 3d
       -0.0071356553 -0.09005382 0.0785667 0.104371905
0003f0 8d 7e db bc 44 56 bf 3b dd 22 c5 3d 38 86 ca 3c
       -0.026793743 0.005839141 0.0962579 0.024722204

lstm.weight_hh_l1 f4 [256, 64]
000000 57 d2 aa bd bd f7 82 bd e7 34 ba 3d 2f a5 1d bd
       -0.083409004 -0.063949086 0.090921216 -0.03848761
000010 1d 22 03 b9 19 e7 18 be fd bb 03 3b 48 e4 a9 bd
       -0.00012505842 -0.14931907 0.0020101063 -0.08295494
000020 c6 f9 b4 bd b9 cc 5e bd db 83 a5 bd 18 ee 90 bd
       -0.08836703 -0.054394457 -0.0808179 -0.07076663
000030 ae 24 da bd 84 95 de 3c 88 cd f5 bc 39 06 a0 3d
       -0.10651527 0.027170904 -0.030005231 0.07813687
000040 a6 32 7f bd c4 3e e2 3b 52 e4 13 bd 08 2f 9a bd
       -0.06230416 0.006904455 -0.036106415 -0.07528502
000050 1f 50 97 bc da 96 07 bd a4 4e 88 3d 9a a1 0f 3d
       -0.018470822 -0.033102848 0.066556245 0.035066225
000060 42 14 17 bd bd 01 9a bd 9f 95 7c 3d 7b d8 ec bc
       -0.036884554 -0.07519863 0.061666127 -0.02891182
000070 c3 fb 40 bd ff ca 70 bb 43 44 89 3c 46 a5 04 3e
       -0.0471151 -0.003674209 0.016756183 0.12953672
000080 8c 9c 91 3c c5 4b 88 3d cf 75 62 3d 5e 11 9c bd
       0.017774843 0.06655077 0.055288132 -0.076205
000090 0a bd 77 bc 11 11 d7 3d 8f c2 25 3d a4 a6 1a bd
       -0.015120754 0.10501302 0.04046875 -0.037756577
0000a0 65 35 d6 bc aa 15 50 3d 75 f6 f7 3d 31 82 be 3d
       -0.026148507 0.05080191 0.12107555 0.09302176
0000b0 cf 7e ae 3d 2b 7e e3 bd d3 9e cc b8 04 40 82 bc
       0.085202806 -0.11108049 -9.757061e-05 -0.015899666
0000c0 4c 99 fc bd 3e be d7 3d cd 1e 97 bd a9 76 61 bd
       -0.123339266 0.10534333 -0.07378922 -0.055044804
0000d0 98 ad 30 3d 42 09 98 bd 80 4f 01 3e e4 33 6b 3d
       0.043134302 -0.07423641 0.12627983 0.057422534
0000e0 84 1f 39 3d 4e c9 88 bc 1d 34 2c 3d 3f c0 96 bd
       0.04519607 -0.016697552 0.042041887 -0.07360887
0000f0 3b 68 11 3d 52 67 5c 3b 49 68 ef bd e4 db b0 3c
       0.035499793 0.003363092 -0.11689813 0.021589227
000100 77 38 b9 3d 0e d7 0f bd 9f 84 ff bc 35 f1 03 3e
       0.09043973 -0.0351172 -0.031191168 0.12884982
000110 57 b4 a4 3d 31 c8 b8 bd 35 d7 7e 3d 8d 8c b3 bd
       0.080422096 -0.090225585 0.062216956 -0.08767042
000120 7b 27 96 bd 19 6c f1 3d 34 e5 7d b9 5c e0 41 3d
       -0.07331749 0.11788196 -0.00024213345 0.047333106
000130 c7 8c b9 3d 05 95 d8 3d e5 6d bf 3c d2 fc 65 3b
       0.09060054 0.10575298 0.023367831 0.003509332
000140 cf 31 da bb 94 2a 2b be 00 27 be bd f0 c0 bc bb
       -0.0066587697 -0.16715461 -0.092847824 -0.0057603046
000150 99 a8 2e 3d aa e6 db bd 24 2a 0a be b1 09 86 3d
       0.042641256 -0.10737355 -0.13492638 0.06544817
000160 9c 01 07 3e 8a 04 13 3d fe bc 60 bd 46 6f d7 3d
       0.13184208 0.035893 -0.054867737 0.105192706
000170 2d 9a 86 bd 35 d4 ce bd 7d ed 4b 3b 27 aa 99 3d
       -0.065723754 -0.10099069 0.0031116896 0.07503157
000180 ed 58 a1 3d 82 16 60 3d 39 1a 60 3d e0 d4 dd bd
       0.07878289 0.054708965 0.054712508 -0.10831618
000190 b6 62 52 3d 4f 70 2e 3d 79 41 85 3d 01 4c 92 bd
       0.05136367 0.042587575 0.065066285 -0.07143403
0001a0 9d 76 b1 3d dc 51 a5 3d 88 fc 06 3e 2b 0e 09 bd
       0.08665202 0.08072254 0.1318227 -0.033460777
0001b0 d2 4e ef bd a6 77 ef bd b2 dd e4 3d 49 a0 85 bd
       -0.11684956 -0.11692743 0.111750975 -0.065247126
0001c0 fd c6 f0 bd ee 12 28 bd 43 da 74 bc 4f 0a 06 bc
       -0.11756704 -0.041033678 -0.014944616 -0.008181169
0001d0 9a 77 8f 3c cf bf 9b 3d 91 5d 8d 3d 9b 62 22 3d
       0.017513085 0.07604944 0.06902612 0.03964482
0001e0 68 38 fb 3d b9 a6 3c bc e3 81 03 be 7d a4 13 bb
       0.12266618 -0.011514359 -0.12842517 -0.0022528463
0001f0 3c 96 e2 3d 4d 14 e0 3d f5 37 14 bd d1 76 ac 3d
       0.11063811 0.10941372 -0.036186177 0.084211
000200 9d 63 9b bd 21 8c e0 bd f7 7b 03 be 0d da d8 bd
       -0.07587359 -0.109642275 -0.12840258 -0.10588465
000210 28 85 f6 3d d0 c6 e7 3c ea b1 fc 3d 04 d9 f4 3d
       0.12037116 0.028293043 0.12338622 0.11955455
000220 8b 82 a3 3d 77 29 88 bd 94 a9 41 3d 35 4f 3b bd
       0.079838835 -0.06648534 0.047280863 -0.045729835
000230 cf c6 b4 3d f4 11 d0 bd 43 9d bf 3d dd 93 c9 3d
       0.08826982 -0.10159674 0.09356167 0.09842656
000240 1d a7 d1 3d 05 c0 cb bd 6b 08 34 3d 0e db c4 bc
       0.102369525 -0.09948734 0.04395334 -0.024030235
000250 72 c8 8a bd a2 b6 f3 bd 6d d1 66 bd 4e 4b 93 3d
       -0.06776513 -0.11900069 -0.056352068 0.071920976
000260 ad e4 ac 3b 9a dd cf bd 76 79 ad 3c d3 49 7e bd
       0.0052762837 -0.10149689 0.021176081 -0.062082123
000270 f8 88 a5 bc 3a 33 a0 3c bb 90 40 3d 30 78 4c 3d
       -0.020206913 0.019555677 0.047013026 0.049919307
000280 9e 39 c1 bd f6 44 49 3c c2 6d 99 3d 7e db b8 3d
       -0.09434818 0.012284508 0.07491638 0.0902624
000290 d1 f4 c0 bd cf 83 7c 3c e8 33 0d 3e 29 9f fa 3d
       -0.09421695 0.015412285 0.13789332 0.12237389
0002a0 2b aa f6 3c 6c 2d a6 3d ee 1c a7 3d ad d9 d7 3d
       0.03011044 0.08114132 0.08159815 0.10539565
0002b0 58 a9 48 3d e5 be 2a 3d 83 ec 6d bd 47 8b 26 3c
       0.048989624 0.041685957 -0.058086883 0.010165042
0002c0 c5 08 7e 3d aa 5f 93 3a 9d 10 cd 3d 7b df d2 bd
       0.062020082 0.001124372 0.10012934 -0.10296532
0002d0 c9 36 ed bd 0e be ff 3d 2c e4 d9 bd 53 50 75 bd
       -0.11582715 0.12487422 -0.106392235 -0.059891056
0002e0 c1 67 c6 3d a1 8b 6d 3b 79 08 00 3d c0 f6 94 3b
       0.09687758 0.0036246555 0.03125808 0.0045460165
0002f0 bc 64 aa 3d b1 b5 d2 bd 19 fe 66 bd 08 69 68 bd
       0.08319995 -0.10288561 -0.05639467 -0.05674079
000300 01 27 09 bd 89 10 b1 bd a2 72 e2 3d af 48 47 bc
       -0.033484463 -0.08645732 0.11057021 -0.012163325
000310 d8 12 82 bd 96 68 88 3c 8e 94 b0 3d 78 45 4b 3a
       -0.063512504 0.016651433 0.086220846 0.0007754187
000320 0e ee a3 3d fa 96 ee bd 5e a4 81 3d 1b d6 a1 bd
       0.0800439 -0.1164989 0.06330179 -0.079021655
000330 b8 73 33 3c 7c 72 85 3d 93 94 c7 bd 54 06 c3 bc
       0.0109528825 0.06515977 -0.09745135 -0.023806728
000340 92 2b d8 bd 7b 71 2f 3b 3e f5 76 bd e1 5a 72 3d
       -0.105551854 0.002677052 -0.060292475 0.0591687
000350 51 f5 fd 3c cf d8 37 3d 93 72 6a 3d 4f ea 28 bd
       0.031000765 0.0448845 0.057238173 -0.04123908
000360 e6 c4 a2 bc d0 e3 2e 3d 47 3f aa bc 68 40 7b bc
       -0.01986928 0.042697728 -0.020782126 -0.01533518
000370 fc 4e 81 3c 89 1e 97 bd d9 95 6d 3d 90 83 5e bd
       0.015784733 -0.07378871 0.058004234 -0.054324687
000380 27 50 3b bd 05 fc 15 3d 6b ac 9e bd ea 68 79 3d
       -0.045730736 0.036617298 -0.0774773 0.06089107
000390 9d 36 0c bd 8f 44 4f 3d 55 e2 a9 bb 81 df 99 bd
       -0.03423177 0.050602492 -0.0051844516 -0.07513333
0003a0 aa 43 d8 3c da 4f 95 bd da 23 ce bd ff e0 b6 bd
       0.026399452 -0.07290621 -0.10065432 -0.08929633
0003b0 75 da dd b6 a6 ac 74 3d c5 e6 01 be 8d ce a1 3b
       -6.611745e-06 0.059734963 -0.12685688 0.004937953
0003c0 d6 ad 1c 3d a5 bc 34 3d d0 c1 c9 bd f6 81 21 3d
       0.03825172 0.044125218 -0.0985142 0.03943058
0003d0 8e d3 1f bd 7b a8 bd bd e5 a2 c3 bd 8c 1e 42 bd
       -0.039020114 -0.09260651 -0.09552554 -0.047392413
0003e0 64 f4 dc 3d 6c da d5 bd fc 67 dc bd 80 f6 99 bd
       0.10788801 -0.10442051 -0.10762021 -0.07517719
0003f0 08 d1 35 3d f5 27 6a bd e9 01 2e bc b9 c3 02 3e
       0.0443888 -0.057167012 -0.010620573 0.12769975

lstm.bias_ih_l1 f4 [256]
000000 cc 7e ed bd fe 2e 90 bd 1a 65 46 3c 24 cd e7 3d
       -0.1159645 -0.07040213 0.012109065 0.11318424
000010 9a 68 63 bd c9 b2 12 be d7 49 06 be cb a0 54 3d
       -0.055519678 -0.14326014 -0.13114105 0.051911157
000020 61 0e d7 bd 99 4b af 3d 5e 79 d0 3d 8b 85 00 be
       -0.105007894 0.08559341 0.10179399 -0.12550943
000030 a6 b1 81 3b 76 59 03 be e5 8c c5 3c c7 5b c0 bd
       0.003957945 -0.12827095 0.024115035 -0.09392505
000040 3d 7e 88 bd df fd f5 3c 8b 6c 98 bb 34 d2 6a bd
       -0.06664703 0.030028282 -0.004651611 -0.05732937
000050 a7 d0 3a bb e1 a7 55 bd cc 80 22 bd 7f 1a f2 3d
       -0.0028505714 -0.052162055 -0.03967361 0.1182146
000060 ec 7e db bd a1 56 0c 3e 18 14 85 bd dd 03 09 3e
       -0.10717568 0.13704921 -0.06497973 0.1338038
000070 d2 a0 01 3e 4c 1c ba bd 1f 2a 4c 3c c1 75 08 bd
       0.12659004 -0.090874285 0.012461214 -0.033315424
000080 3d b6 c0 bc 34 ce a0 bb 0a 7e 0f 3d 32 78 b0 3d
       -0.023524398 -0.004907394 0.03503231 0.086166754
000090 0e ef 6a 3d f3 e2 0a bd 5b 48 ce bd 5e 5b 64 bc
       0.057356887 -0.033907842 -0.100723945 -0.013937799
0000a0 07 72 a2 bd 5a 2e ba bd b5 72 87 3d b7 68 df 3d
       -0.07931905 -0.09090872 0.066136755 0.10908645
0000b0 f4 a2 36 bd a0 f2 dc 3d e9 75 9b 3d 8b 10 95 3d
       -0.044588998 0.107884645 0.07590849 0.07278546
0000c0 7c fc 84 bd cb 8a bb 3d 50 b0 c9 3d f6 4e 4b bd
       -0.0649347 0.09157332 0.09848082 -0.04963585
0000d0 b8 43 78 3d 52 36 8d bd ea 59 02 be 00 ff 36 3c
       0.060611457 -0.068951264 -0.12729612 0.011169195
0000e0 94 fd e6 3b 0c 5a 9b 3d dd 9d f1 bd 19 fa 07 3c
       0.007049272 0.075855345 -0.11797688 0.008299374
0000f0 f8 b5 e4 bc 69 8a 9d 3d 10 77 d1 3d 80 bb 1f 3d
       -0.0279188 0.07692415 0.102277875 0.038997173
000100 67 14 c7 3d c2 7f a5 3c 69 57 bb bc 4c 35 e9 3d
       0.09720688 0.020202521 -0.022868829 0.11387119
000110 29 3c 64 3d 42 8a cb bc a5 8c 9d 3d 94 b7 3f 3d
       0.055721436 -0.0248462 0.076928414 0.046805933
000120 00 7f e9 3d cd 8c 82 bd 4b fd 0d 3c 0a af 42 bd
       0.114011765 -0.06374512 0.008666347 -0.04753021
000130 04 60 a3 bc a9 44 b4 3d 66 fe 08 be 00 5a 18 be
       -0.019943245 0.088021584 -0.13378295 -0.14878082
000140 7e 2d 73 bd a3 b9 9e 3d 77 7b 57 bd 3d 61 b4 3d
       -0.059369557 0.07750251 -0.05260798 0.08807609
000150 d7 0a f2 3d 2e 59 c5 3d cc 5a 76 3d d8 4a a6 3d
       0.11818474 0.0963615 0.060145184 0.08119744
000160 e5 d9 9a bc c2 f8 f1 bc 67 19 e0 bc 1e c1 ac bd
       -0.018902728 -0.029537562 -0.027355863 -0.08435272
000170 5c 38 b7 bd 66 da 85 bd 59 8d 19 3c d0 cd 91 bb
       -0.089462966 -0.06535797 0.009372079 -0.0044495836
000180 e1 20 39 3c 89 6e 47 bd c0 46 dd 3c 74 26 cc bd
       0.011299343 -0.0486894 0.027011275 -0.09968272
000190 97 97 eb bd 78 e5 91 bc 68 cc 82 bd b5 6f 8e 3d
       -0.11503523 -0.017809615 -0.06386644 0.069549
0001a0 68 1b 1e 3e 46 6b 4c 3d 99 f2 2d 3d 12 d7 2c 3d
       0.15440142 0.04990699 0.042467687 0.042197295
0001b0 24 3d bd bd a5 5c d9 3d b4 c1 72 bd 72 2f ab 3d
       -0.09240177 0.10613374 -0.05926676 0.08358659
0001c0 e4 82 7b 3d cf 56 fb 3c 0b 76 0c 3d 85 4d 83 bd
       0.061404124 0.030681042 0.034292262 -0.0641127
0001d0 db 60 dd 3b 12 3f 2b be 6f bf c7 3d 66 58 57 3d
       0.006755931 -0.16723278 0.0975331 0.052574538
0001e0 bc e9 f8 bc 4f 93 c9 bd bb c9 cd 3d fa 89 e0 bd
       -0.03038489 -0.0984255 0.10048243 -0.10963817
0001f0 01 07 3d 3d d0 40 4d 3c 74 5b e7 3d 4c 9f 72 bd
       0.046149258 0.01252766 0.1129674 -0.05923395
000200 cf 3a b4 3d 03 a9 fc 3d f4 5b f6 3d 1a c1 b6 bd
       0.08800279 0.12336924 0.120292574 -0.0892355
000210 88 a2 0e bd e8 02 86 3d d9 54 f5 3d 3a 36 52 bd
       -0.03482297 0.06543523 0.11979074 -0.051321246
000220 53 1f 0d be 40 14 a0 bd 61 af 52 3b 79 a1 85 3d
       -0.1378148 -0.078163624 0.003214799 0.06524939
000230 e1 5c 5a 3d 6d d5 11 3e ce 0d 58 3d b0 14 5b 3d
       0.053311232 0.14241572 0.05274754 0.053486526
000240 03 b7 fc 3d c9 64 3b bd 1b a1 57 3d 5a 7f bf bd
       0.12339594 -0.045750413 0.052643877 -0.09350462
000250 98 94 02 be d4 97 62 3d 01 86 4f bd 03 7b dd 3d
       -0.12751997 0.055320576 -0.050664905 0.10814478
000260 f4 dd bb bd ca d5 92 3d 5d 7c 23 bc bf 47 b0 3c
       -0.091731936 0.07169683 -0.009978381 0.021518586
000270 c1 a4 93 bb 79 ca 81 3d 99 d3 85 bc 86 4a c1 bd
       -0.004505724 0.06337447 -0.01633625 -0.09438042
000280 5f e8 b9 3a ee da da 3c 39 f4 4c bd bc 95 91 3d
       0.0014183632 0.026715722 -0.050037596 0.07108638
000290 eb 7f 91 bc 51 5c 0b ba 20 83 f0 bd dc 07 07 be
       -0.017761191 -0.00053161854 -0.1174376 -0.13186592
0002a0 f3 1c 75 3d 9f 69 7d bd a2 f0 2e bd 67 cb 16 3e
       0.05984206 -0.061868306 -0.042709954 0.1472603
0002b0 bd 71 b7 3d 8b 8d dc bd 79 00 20 bd 7b 87 0d 3e
       0.08957241 -0.10769185 -0.03906295 0.13821213
0002c0 61 b8 61 3d 07 96 7d bc b8 93 6e bd d7 e3 fe 3d
       0.055107478 -0.015477664 -0.058246344 0.12445801
0002d0 2e 17 05 3e 6a 89 d2 bd 20 93 fa bc dd df 28 3d
       0.12997124 -0.10280116 -0.030587733 0.041229118
0002e0 ff d6 46 bd b8 03 9a bd 5a 65 46 bd 02 58 c0 bd
       -0.04854488 -0.075202405 -0.0484365 -0.09391786
0002f0 c5 70 80 3d f2 91 25 bd a3 e3 12 3e 9a 14 cb 3d
       0.06271509 -0.040422387 0.14344649 0.09916039
000300 2a ed eb 3c 96 c7 31 3d 85 e5 ef 3d 7d ba 76 3d
       0.028799612 0.04340323 0.11713699 0.060236443
000310 5e 81 d7 bd 11 77 19 be ce ff 5c 3d 0f 21 6b 3d
       -0.10522722 -0.14986826 0.05395489 0.057404574
000320 2d 32 82 bd 1f cb 5f bd 61 f0 6c 3d ed 94 c2 3c
       -0.063572265 -0.05463707 0.05784643 0.023752654
000330 e1 d2 d8 3a fc e7 92 bd cb 00 1d bd c3 ea 95 3d
       0.0016542339 -0.07173154 -0.038330834 0.07320168
000340 da 09 bd 3d 65 03 f7 ba 44 1e 32 3c 46 28 85 bd
       0.09230395 -0.0018845616 0.010871474 -0.06501822
000350 6c 24 ba bd 3b a7 cf 3d d8 e2 d1 bc 44 69 08 3e
       -0.09088978 0.101393186 -0.025620863 0.13321406
000360 49 3a 8c bc 11 bb c1 bd 47 0a ea bc a4 8b f2 3c
       -0.017117636 -0.09459508 -0.028569354 0.029607601
000370 60 10 a4 bd 97 f7 5b bd 67 06 82 bd d8 f5 32 bc
       -0.08010936 -0.053702917 -0.063488774 -0.0109228715
000380 27 88 19 be e0 c5 3e 3c 8e d1 8f bc a0 3c 04 3d
       -0.14993344 0.011643857 -0.017555978 0.03228438
000390 5c b0 01 bd 5a c1 a5 bd a7 9a ae 3c b6 9e e6 3c
       -0.03166233 -0.080935195 0.021313978 0.028151851
0003a0 5e 48 c0 3d 7a 93 76 bd 03 03 ea 3d 90 a3 06 3e
       0.09388803 -0.06019924 0.11426356 0.13148332
0003b0 63 9b d4 bd b3 2f 0a 3d 8f 1b 17 3d e6 fe c5 bd
       -0.103812 0.033736896 0.036891516 -0.09667759
0003c0 da 92 b9 bd dd 9a 8a 3d ff ed 95 3d b9 c4 dc 3d
       -0.09061213 0.06767819 0.07320785 0.10779709
0003d0 29 d4 92 bd df 0d a5 bd 5f dd 95 3d 0a 86 5e bd
       -0.071693726 -0.08059286 0.07317614 -0.05432705
0003e0 bd b0 d4 bd de 95 7b 3d 44 3c ae bd 84 cd c1 bd
       -0.10385273 0.06142222 -0.085075885 -0.09463027
0003f0 34 9d c4 bd 25 ff 0a be 21 54 f6 3d 80 cc 86 bd
       -0.096002966 -0.13573892 0.12027765 -0.06581974
