models/RNN_bbva.pt (torch, 233316 bytes, 11 tensors)

lstm.weight_ih_l0 f4 [256, 12]
00000000: 7853 77bd f6b2 03be fc66 45bd d9f7 0dbe
00000010: 117a 063c c34f bcbd 0e1c 82bd a554 bbbc
00000020: 723a 9d3d 3128 2cbd d1b2 a8bd 6b28 d2bd
00000030: 4d47 ecbd 7fca 0dbe f9e1 10be eff5 9ebd
00000040: 026d 07bd 99cd e2bd 5f02 37be 741f ffbd
00000050: 53e8 10be 8e5a 863b 1815 3d3d 187e 813e
00000060: 9c0c 9abd 4813 913d 0728 063d 54f5 50bd
00000070: 5751 0b3e 59e4 ac3d e123 c2bc fd7f 05bc
00000080: 0442 03bc e6c0 3a3e db18 893e 8262 c6be
00000090: 53f6 0cbd 965c 0b3b 9e69 b83d d6a5 373e
000000a0: 73d4 f23d 8636 84be df73 783e 7dd5 80bd
000000b0: 74fc bebd 0aad 05bf d1ec 0a3e c3ab 9e3d
000000c0: 05ac b7bc def5 513e a80b 1d3e ea25 1b3e
000000d0: 9fc2 2abe 5741 243d 3d27 59bc 0376 063e
000000e0: faff e63d 8bf9 ff3b 4bd6 8b3c 6038 953c
000000f0: 2974 84bc e713 edbd 5602 45be 0f7a 5cbe
00000100: d5b6 c6bd 73a2 d4bd df67 373c e3a7 803d
00000110: eae4 ae3d da39 26be 8b3f debd 9601 1b3f
00000120: 132a 443d c74b 7fbd 16b6 103b c651 08be
00000130: e88f 193e 3f8e 47b9 1939 4abd 526b 08be
00000140: fb04 a0bc 50fc a7bd ff88 033e 64ee 013d
00000150: 1574 5d3e a783 593e 8a15 ce3d bf4b 613e
00000160: 2ad1 47be 2071 983d f21f 5ebd 6749 5e3d
00000170: ac35 633d e7b0 123b 979e 2b3f c717 b6be
00000180: b9ff dd3d 1d88 4abd 5e9f bf3c efff ac3d
00000190: 4974 0e3e 5849 29bc 06b4 523e e4de 4cbd
000001a0: 482d 043e 99bf de3c 7b5c 063f beea 06be
000001b0: 131f 083c e611 213e 8946 7d3d 7261 e53d
000001c0: a1bc 17be 7c62 66be d264 9b3d a31d 8d3c
000001d0: 627f 9c3d 8963 9abe 4909 113f 25d8 f2be
000001e0: 4ee4 9e3d 3ef7 49bd 292c c83c 1ae0 85bd
000001f0: 6862 b5be 1058 05bd fafa 0cbe de3d 993d
00000200: dcc7 dabd d7e9 53be 9f99 f8bd 3bad 1ebe
00000210: 1d09 743e c87a 803e a866 e53e 95b7 913e
00000220: 80d0 f9bd 644b 663b 793a 823e 722f 3c3e
00000230: a260 9d3e 7518 4dbc 901a bf3e 650a 97be
00000240: e0b0 b53d e1c2 1d3e 134d e6bb d7b2 633e
00000250: 8f14 8dbe 1042 72be fb48 113e 3e3f 293e
00000260: 94ce cd3c c66d aabe 0d38 1f3e 9d9a 52be
00000270: f885 233e 3bdd 203e 9c12 403d f550 b33d
00000280: f3f4 9ebe 485e 443e e227 f5bd 97b7 073e
00000290: f598 83bc 84a9 513e 86fa a33e a515 e2be
000002a0: 6460 c8bd bcdc 8bbd e42c 5d3b fce9 e6bd
000002b0: 71e8 183d 8b15 8d3e 82c8 d13d 2b5d 22bd
000002c0: a072 173e e708 063e 7794 b33c c589 f73d
000002d0: d7a1 313e 7912 113c 793f 963d 1c26 9cbc
000002e0: 266e a3bc 5114 e4bd 2c2b 9cbd ee0c f33c
000002f0: bac7 883b ef23 91bd 0047 af3e 42cb 21bf
00000300: 4e2e fe3d d329 a73d 7df2 533d c8e9 003e
00000310: 5d4a 843e 1815 e93c 1186 c9bd 763a 233e
00000320: 075d a53d 7ce3 9f3d 798b ce3e 712b adbe
00000330: 4eca 933d 1622 303e fab3 083e 5e40 f1bc
00000340: a293 793d ff60 77be 4752 3bbc f9df 293e
00000350: f50a d13d 36cb 3c3e 8f06 ad3e ff13 a0be
00000360: 6796 4a3d 8466 0bbc 6c93 50bd e4ab 69bd
00000370: c35e 72bd a797 94bc 1386 babd 3b11 adbd
00000380: 563b ccbd 30ec 4dbe dec6 bcbd 41f7 4dbb
00000390: a6db b33d 1bdf d43d cf64 043e 025b c53b
000003a0: 3653 943d bf19 a7bd c398 ef3c ef59 223e
000003b0: b96a 543d 6ad4 bf3c dbbe 203e 9807 a33e
000003c0: 9caa 3ebe cbce f8bd fa4c 38be 9137 4f3d
000003d0: 98a3 2fbd 9732 dab9 adec 73be e52a f9bd
000003e0: 4aa6 97bc 8c6f 78be 7a73 073e 908f 37be
000003f0: d77f 57ba ad76 02be 80f1 55bd b441 3b3d
-0.060382336 -0.12861237 -0.048193917 -0.13864078 0.008207814 -0.09194901 -0.06353007 -0.02286751
0.07677163 -0.042030517 -0.082372315 -0.10261615 -0.11537037 -0.13846777 -0.14148702 -0.07761752
-0.033062942 -0.11074371 -0.17871998 -0.12457171 -0.14151125 0.0041001504 0.046162695 0.25291514
-0.07521936 0.07083756 0.032753017 -0.051015213 0.13605247 0.08441991 -0.023698749 -0.008148191
-0.008011345 0.18237647 0.26776776 -0.3874703 -0.0344146 0.0021264902 0.0900452 0.17934355
0.11856928 -0.25822848 0.24262951 -0.0629072 -0.09325495 -0.5221716 0.13566901 0.07747605
-0.022420892 0.20503947 0.15336478 0.15151182 -0.16675805 0.040101375 -0.013253984 0.13130955
0.112792924 0.0078117303 0.017069956 0.018215358 -0.01616867 -0.11576062 -0.19239172 -0.21530937
-0.09702841 -0.10382547 0.011194198 0.06282022 0.08539756 -0.16233006 -0.108519636 0.60549295
0.047891688 -0.062328126 0.0022081188 -0.13312444 0.14996302 -0.0001903111 -0.04937086 -0.1332219
-0.019533625 -0.08202422 0.12845229 0.031721488 0.21626313 0.21241628 0.10062702 0.22001551
-0.19513384 0.07443452 -0.054229684 0.05426922 0.055471107 0.0022383274 0.67038864 -0.35565016
0.10839791 -0.049446214 0.023391422 0.08447253 0.13911547 -0.010332428 0.20576486 -0.050017253
0.12907898 0.02719097 0.52484864 -0.13175485 0.00830819 0.15729484 0.061834846 0.11200227
-0.1481805 -0.22498506 0.07587589 0.017226046 0.07641484 -0.30154064 0.56654793 -0.4743053
0.077583894 -0.049308054 0.02443512 -0.065368846 -0.3542664 -0.032554686 -0.13767615 0.07482503
-0.106826514 -0.20694672 -0.12138676 -0.1549577 0.23831601 0.25093675 0.44804883 0.28460374
-0.12197971 0.003514015 0.25435236 0.18377474 0.30737787 -0.012518038 0.37324953 -0.29500118
0.08871627 0.15406372 -0.007028231 0.2223619 -0.27554747 -0.23658013 0.14187996 0.16528031
0.025122918 -0.33286875 0.15548725 -0.20566793 0.15969074 0.15709393 0.046892747 0.08755676
-0.31046256 0.1917659 -0.11970498 0.13253628 -0.016064147 0.20474821 0.32027072 -0.44157138
-0.0978401 -0.06829211 0.003374868 -0.11275098 0.03733105 0.27555498 0.10243322 -0.039639633
0.1478982 0.13089333 0.02192138 0.12086824 0.17346893 0.008854502 0.07336325 -0.01906114
-0.019949984 -0.111366875 -0.07625422 0.029669251 0.0041742 -0.07086932 0.34233856 -0.6320077
0.12411176 0.08162274 0.051744927 0.1258918 0.25837985 0.028452441 -0.09840024 0.1594027
0.08074384 0.07807061 0.40340784 -0.33822206 0.07216321 0.17200503 0.13349906 -0.029449638
0.06093181 -0.24158095 -0.011433191 0.16589345 0.10207168 0.18436894 0.33794066 -0.31265256
0.04945984 -0.008508328 -0.050921842 -0.057048693 -0.059172403 -0.01813872 -0.09107604 -0.08450552
-0.09972255 -0.2010963 -0.092176184 -0.0031427892 0.08782129 0.103941165 0.1292908 0.006022812
0.07242434 -0.081592076 0.029247647 0.1585462 0.05185959 0.023416717 0.15697806 0.3184173
-0.1861977 -0.12148818 -0.17998114 0.0505901 -0.042880625 -0.00041617893 -0.23820753 -0.121663846
-0.01851191 -0.24261302 0.13227645 -0.17925858 -0.0008220649 -0.12740584 -0.052232265 0.045716956

lstm.weight_hh_l0 f4 [256, 64]
00000000: 6841 cdbd ae6b dbbd d0fd 41bd 323b ee3d
00000010: 1350 2abe 24ce 3b3e 0ca2 ccbc f31a 403e
00000020: cc8a cebd d7e0 88be 4e58 da3d 06be 713e
00000030: c756 b1bd 7848 c03d e061 c73d 3af8 a2bd
00000040: 4edc bf3b 4062 5e3d 161f 653d ef81 073e
00000050: d397 e0bd 67d0 883d e62a 25bc 0f53 efbc
00000060: e6d2 06be 3e17 f83d 6d18 333e 2a4e 5bbd
00000070: 2b89 553d 6b12 60bd 2fa9 013d 3f7d d33d
00000080: daa8 b2bd 1ea7 14bc e28b 2bbb 06ea ed3c
00000090: caf5 53bd 4bfc ab3d d40b 973c 015e d53c
000000a0: e7cc 4b3d 0259 e83d ca24 7b3d 832f e23c
000000b0: 4c32 cebd c2ba 973d 43af 46bd c935 13bd
000000c0: 9cfe 6b3c 1dc1 15bd 28bc 8f3b 7561 bfbd
000000d0: ba6b c8bd b695 283b 7a5b 963c 1bc4 343d
000000e0: b2ac cf3c e1e4 c8bb dae2 31bb e7c6 5b3c
000000f0: 3e12 ba3c 9f6b 59bc 7628 9bbd b7a5 9b3d
00000100: 090c c6bd 5140 81bd 1a07 023e 2093 77bd
00000110: 8f20 0bbe 3e82 6b3e 89d2 2dbe c5ed 1b3d
00000120: 3ffc 833d 6c0c 653d 1caf 113e 5346 973d
00000130: fb6c ad3c ff5d edbd 0f94 28bb e35e a53d
00000140: d2eb d2bd 645e 483c 676f 0fbe 1a7e 22bd
00000150: 8d3f a2bd e053 b1bd 74b7 563d cfa9 de3d
00000160: 0b83 63bd 1e1b 4d3e eaa9 923e ef2a b5bd
00000170: bb2e e8bd bb63 653d 00e3 b6bd d3b8 6fbd
00000180: 5cdb b2bc 5375 ad3d c81d 103e 2953 15bd
00000190: 7075 c13d f857 493e d20c 823c c863 8bbd
000001a0: f755 ec3d 8fb7 29be f5a5 c33d 12e0 ba3d
000001b0: bbdc 103d 1e7c 5c3e 81cc 2a3c 95a4 bd3c
000001c0: 7258 c73c 3982 d9bb 3d14 093e 22a6 de3d
000001d0: ef33 533d 89fc 1cbe 9e9d c53d 233f 193e
000001e0: c5a6 da3d 0ef3 8e3d 44f6 3e3d df41 bebd
000001f0: bdf0 cebb a7eb 133e b560 cebc cf49 07be
00000200: 2736 ce3c af2e c0bd 2de8 143e 04b8 32be
00000210: 8188 c2bd 59e2 713e 1103 3a3c 4d95 0a3e
00000220: 5df1 7dbd b91c ed3d 1c25 023d 26cd e7bb
00000230: 31df 233e d242 003e bf17 dabd e214 cc3c
00000240: 4292 f13d 8828 073d 70a2 003d 51ce f03d
00000250: 6474 92bd 0378 7f3d dad3 bc3d d0e9 473c
00000260: 5a97 72bd 448e 41bc 41c5 9ebc 92fb debb
00000270: e537 cabb 5ec7 d83d 85e6 c23c 9127 c9bc
00000280: 6b3e 583e f3b9 a5bc 0068 7abb b215 9fbd
00000290: 180e 7cbc b70d 74bd 364a 043e 2925 f6bd
000002a0: 4ea5 a93d 6355 eabd fb3b eb3c 71cb 1cbd
000002b0: 3350 6a3d 54c2 acbd e56a 93bb cdcc 68bd
000002c0: ce8e a3bd 44bc 0bbd b9ea f73c 43b4 393d
000002d0: f999 693a 126b 15bd 3491 b53d 41b0 5cbe
000002e0: 42d4 2ebd 5b39 5b3d feec b4bd 6ac4 293d
000002f0: 4491 b73c ea4d c9ba 4ed1 5b3d fe41 26be
00000300: 24b7 6b3d 418f b9bd e672 96be c5a3 0f3d
00000310: fdc2 303e 0794 0d3e a59d aebd 91ea 8f3e
00000320: c95f 1fbe de00 173d 9e7c 67be 6038 343e
00000330: c234 63be 64b4 0e3e 8612 46bd 12f0 863e
00000340: f883 99be b123 523e 56e7 2bbd d1ae 0b3e
00000350: 541c 333e 0070 a03e 0247 15be f92f ae3d
00000360: ab4c d1bc 23af 3f3e b85d 873e 63aa bd3d
00000370: 9cfc a53d 8a75 933d da9f bcbd 762f 5fbe
00000380: 4405 f13d 7ace 213e 6b9e 683e c110 98bd
00000390: 7944 2c3e d0cc 8e3d e635 7bbd 613d d53d
000003a0: b773 7abc 043e 843e bc6a 14bd 02a6 a6be
000003b0: b388 613c 70e4 e6bd 623b 3dbe 2e52 413e
000003c0: 861f f53c f823 433c 2194 fdbc 72d3 4cbe
000003d0: 28f9 dcba 9839 a6bd 45bf 65bd c72d 1a3e
000003e0: 326e aabd 969b 50bd c358 153e 83ae 5e3c
000003f0: 0be8 47be 83a3 adbd 2b8e fe3d 9451 2c3e
-0.10022241 -0.10713898 -0.047361195 0.11632384 -0.16632108 0.18340355 -0.024979614 0.1876028
-0.10085067 -0.2673404 0.10661374 0.23607644 -0.086591296 0.09388822 0.09735465 -0.07957502
0.00585512 0.054292917 0.05593785 0.1323316 -0.10966458 0.066803746 -0.010081029 -0.02921441
-0.13166389 0.12113808 0.17489786 -0.05354134 0.052132767 -0.054705065 0.031655487 0.10326623
-0.08723612 -0.009073047 -0.0026175906 0.029042255 -0.051748075 0.083977304 0.018438257 0.026045801
0.049755957 0.11345102 0.06131438 0.027610546 -0.10068187 0.07408668 -0.048506986 -0.035939965
0.014403965 -0.03656112 0.0043864436 -0.0934476 -0.09786172 0.0025724 0.018354166 0.044132333
0.025350902 -0.0061308 -0.002714327 0.013414121 0.022713777 -0.013270288 -0.07576077 0.07599967
-0.09670264 -0.063110955 0.12698022 -0.060443044 -0.13586639 0.22998902 -0.16974844 0.03806855
0.064445965 0.05592005 0.14226955 0.0738646 0.02117013 -0.11590194 -0.0025723015 0.08074739
-0.102988854 0.012229536 -0.1400734 -0.03967104 -0.079222776 -0.08658576 0.05242105 0.10872232
-0.055544894 0.20029876 0.2864526 -0.088460796 -0.11337038 0.056003314 -0.089300156 -0.05852587
-0.021833114 0.084696434 0.1407386 -0.03645626 0.094462276 0.19662464 0.015875254 -0.06806141
0.11539834 -0.16573928 0.09553138 0.09124769 0.035366755 0.21531722 0.010424734 0.023149768
0.024334166 -0.006637838 0.13386627 0.10871531 0.0515632 -0.1533071 0.09649204 0.14965491
0.1067634 0.06979953 0.046621576 -0.09289908 -0.0063153193 0.14445363 -0.025192598 -0.1321175
0.025172306 -0.09383904 0.14541693 -0.17453009 -0.09498692 0.23621501 0.01135327 0.13533516
-0.06199776 0.11577744 0.03177367 -0.007074016 0.1600311 0.1252549 -0.106490605 0.024912301
0.117954746 0.032997638 0.031404912 0.11758102 -0.07151106 0.06237031 0.09220095 0.012201741
-0.05922637 -0.011813704 -0.019381167 -0.006804892 -0.006171214 0.10584901 0.02379156 -0.024555
0.2111756 -0.020230269 -0.0038208961 -0.0776781 -0.01538422 -0.059583392 0.12918934 -0.120188065
0.082834825 -0.114420675 0.028715124 -0.038279954 0.05720539 -0.08435503 -0.004498827 -0.05683594
-0.07986222 -0.03411509 0.030263292 0.045337927 0.00089111883 -0.036479063 0.08865586 -0.2155161
-0.042682894 0.053521495 -0.08834265 0.04144708 0.022408135 -0.0015358303 0.053666405 -0.16236112
0.057547703 -0.09060527 -0.29384536 0.035068292 0.17261882 0.13825999 -0.08526162 0.28108647
-0.15563883 0.03686606 -0.22606131 0.1759963 -0.22188094 0.13936001 -0.04835751 0.26355034
-0.29983497 0.20521428 -0.041968666 0.13640906 0.17491275 0.3133545 -0.14577869 0.08505244
-0.025549253 0.18719153 0.2643869 0.09261014 0.08104822 0.07200153 -0.09210177 -0.21795449
0.117685825 0.15801421 0.22716682 -0.074250706 0.16822995 0.06972659 -0.0613307 0.10412098
-0.015286378 0.25828564 -0.036234602 -0.3254853 0.013765502 -0.1127404 -0.18479684 0.18879005
0.029922258 0.011910431 -0.030954422 -0.20002535 -0.0016858922 -0.08116454 -0.056090612 0.15056525
-0.08321799 -0.05092963 0.14584641 0.0135914115 -0.19522111 -0.08478453 0.1242946 0.16827995

lstm.bias_ih_l0 f4 [256]
00000000: 5be5 11be fc11 91bd 3cc6 9cbd f62f 7dbb
00000010: 935b 22bd 4327 233d 7993 a3bd 0ece 1e3e
00000020: 40d3 3e3e 66d1 a43d e758 2cbd c701 ef3d
00000030: 31eb e8bd 5629 773d 2ef2 ab3d 5b9e 23bc
00000040: 546f 393d 719d 4d3d 589d a73d 2209 873d
00000050: 6e9d 31be 1ab9 febd 4453 f2bd f336 b33c
00000060: 8548 c1bd ddfc 6a3e cf4f 2a3c b112 f5bd
00000070: 399f 50bd e0c9 30bd f2a1 7e3d b669 86bd
00000080: 7e51 71bd 1e2b 2cbd ec4b b53e d8da 843d
00000090: e00c 043e 4d98 be3d a301 0cbe 49d2 4a3c
000000a0: 1e77 17be 7214 f53c 6139 f8bb 8495 053e
000000b0: ffdf bcbd 7ad4 2dbd 0ac4 29be 601c 7dbe
000000c0: 8253 423c 7f1f b5bd 5366 1cbe 59d7 153b
000000d0: 7a82 40bd 5f21 bdbd 2590 003c c89d 74bd
000000e0: c3d9 763d 9db8 33bd ab70 6fbe e2dd 52bd
000000f0: 5ef8 1dbd 5190 25bd 3835 8f3d 9438 60bd
00000100: 99e1 9ebd 3c28 a2bc 71eb a8bd c8cf 18be
00000110: db45 5dbd e266 f13d 804e d2bd b2c7 78be
00000120: 1b7b d9bd cad4 5abe 1de4 b2bd aee1 14bf
00000130: 65fd c1bd b6a4 9abe 15c0 5a3e d29a 6dbe
00000140: f631 11be a069 3fbe 5cee c7bd c979 583c
00000150: 41c5 debd 4df5 373c f542 943d a8a9 8fbd
00000160: 3009 d7bd 282f 5bbe 92d9 10bf eda1 3cbe
00000170: 8630 86bc 8481 a3bd f1ba 95be 8ca3 87be
00000180: 5f3e e0bd 9a22 4ebe db14 b5be def7 093d
00000190: d304 d8bd 48b8 d3be 2420 70bd 78d4 ffbd
000001a0: d40b edbd 06c3 a3bd 4680 903c 73b3 333c
000001b0: e133 66be 55f0 82bd 0ae6 11bc 56e3 3ebe
000001c0: f720 9ebc d225 bdbd d9e8 aabd def6 7ebd
000001d0: 54ef 03be 2fc9 9c3d 94d2 e4bc e752 923d
000001e0: 32a7 a5bc 737b 47be b76e 7fbd 1b9e e9bd
000001f0: 69e7 7abb d3a2 6ebe aec8 92be 4e42 88bd
00000200: 0e64 4c3c 2176 febc d682 c33d 74c6 28be
00000210: b1e8 b2bd 6a66 1bbe 6650 e0bd cafa 1dbe
00000220: c014 f1bd 36e8 3dbe cdf0 43bd 3487 c8bd
00000230: 31bd 013e 63b3 90bd d0d4 743c 499e d5bd
00000240: ae9f cc3d bd7f 39bd 5aeb 703d 72ac 25bd
00000250: 6c00 80ba 2c83 e53c c8ed b2bd 322e 3a3e
00000260: 6b3f 3ebd 5eca 1bbe 8320 1abe bc63 46bd
00000270: 17ee 9bbc d78a 4cbc 8d80 1cbe e3cf 2bbc
00000280: 73a4 1fbe 538a 56bd 101a 4bbe 671d 783d
00000290: e67d 49be efc0 10be 1ba4 10be 2ed1 7b3d
000002a0: 9e0b c23d 6788 19be c6b2 40be 3f98 1d3e
000002b0: 275c bf3d ef4d 053e c423 883d 1efa f83c
000002c0: 2286 d83c a138 653d f991 383d 3bbe 323e
000002d0: 2293 80bd 915b 5cbc c855 18bd d1e1 f73d
000002e0: bc2f 85bc 2b53 123e 40ec 1ebd 5930 40bd
000002f0: 7bfb c7bd 4f54 d93c cf3a ddbd 40fa 923c
00000300: 605e 2ebd 5a34 4dbd e75c 4f3c faf1 83be
00000310: 5211 5dbd 025b 8ebd be54 413d 7432 ce3d
00000320: 4cec 573e 262c 183e 31c4 7bbe 502e dc3c
00000330: 74a2 60be 69d7 f93d 51d6 ea3d 2d34 953d
00000340: 942c 023e 47dd bf3d 10f8 afbc 5102 24be
00000350: 8f58 3dbd 797b 7cbd c781 013d c9a3 1a3d
00000360: dd7b d1bd 74e4 433e 01af dfbc ed72 7dbe
00000370: 0c04 41be 850e e53c 7a7b 163d e76e 6dbe
00000380: 7d11 12bd a251 01bd 8e67 393e 6e9f bcbd
00000390: ec60 b9bc 48cf 293d aee6 4ebd 26e3 92bd
000003a0: 4a82 38bd 03f8 9dbd ce25 813d f257 eb3d
000003b0: 152b 1cbe d56a b13d 4212 f6bd c55b ccbd
000003c0: ff03 1d3a 1382 9dbd 4170 12be 631c 7fbd
000003d0: 78f9 eebd ddf1 813d 4d14 71bd 2614 6fbd
000003e0: b3e6 cebd cc09 d0bd a781 febd 8bc7 4abd
000003f0: abb2 913d 28ef 87be 0c73 15bd 116a 0ebe
-0.14247648 -0.07083508 -0.07654998 -0.0038633323 -0.039638113 0.039832365 -0.079871126 0.15508291
0.18635273 0.08047752 -0.04207697 0.11670261 -0.11372984 0.060342155 0.083958015 -0.009986485
0.045272186 0.050198976 0.08184308 0.06593539 -0.17345211 -0.12437649 -0.11832288 0.021876788
-0.0943766 0.22948022 0.010395004 -0.11966456 -0.050933097 -0.043161273 0.06216616 -0.065631315
-0.058915608 -0.042033307 0.35409486 0.06487054 0.12895536 0.09306393 -0.136725 0.012379237
-0.14791533 0.029916976 -0.0075751995 0.13045317 -0.09222411 -0.04243896 -0.16578689 -0.24717855
0.01186073 -0.08843898 -0.15273409 0.0022863953 -0.046999432 -0.09234881 0.007846867 -0.059720784
0.060266268 -0.043877233 -0.23382823 -0.051481135 -0.03856694 -0.040420834 0.069925725 -0.054741457
-0.07757873 -0.019794576 -0.08248032 -0.14923012 -0.054021697 0.117872015 -0.10268879 -0.24294928
-0.10619184 -0.21370235 -0.087349154 -0.5815686 -0.09472159 -0.3020379 0.21362336 -0.2320359
-0.14179215 -0.18692636 -0.0976226 0.01321263 -0.10877467 0.011227918 0.072393335 -0.07014781
-0.10499799 -0.21404707 -0.56581986 -0.18421145 -0.01638056 -0.079836875 -0.29244187 -0.26491964
-0.10949396 -0.20130387 -0.35367474 0.03368365 -0.10547795 -0.41351533 -0.0586244 -0.12491697
-0.11574522 -0.07996182 0.01763929 0.010968077 -0.22480728 -0.06393496 -0.008904943 -0.1864141
-0.019302828 -0.09235729 -0.083451934 -0.06224715 -0.12884265 0.0765556 -0.027932443 0.071447186
-0.020221327 -0.19480686 -0.062361445 -0.11407109 -0.0038284904 -0.233043 -0.2866873 -0.066532716
0.012475027 -0.031062188 0.09546439 -0.16481954 -0.087357886 -0.15175787 -0.10952835 -0.154277
-0.11771536 -0.18545613 -0.047837067 -0.09791413 0.12669827 -0.07065465 0.014943317 -0.10430581
0.09991394 -0.045287836 0.0588182 -0.04044766 -0.0009765751 0.02801665 -0.087367594 0.18181685
-0.0464472 -0.15213916 -0.15051465 -0.048434958 -0.019034429 -0.012484274 -0.15283413 -0.010486576
-0.15590076 -0.05237801 -0.19834161 0.060574915 -0.19676933 -0.14136098 -0.14125101 0.061478786
0.09474872 -0.1499344 -0.18818197 0.15390109 0.093437485 0.1301801 0.06647447 0.030392703
0.026431147 0.05596221 0.045061085 0.1745538 -0.06278063 -0.0134495655 -0.037191182 0.12103618
-0.016258113 0.14289539 -0.038799524 -0.046921108 -0.09764763 0.02652946 -0.108022325 0.017941594
-0.04257047 -0.050098754 0.012656427 -0.2577055 -0.053971596 -0.06950952 0.047199957 0.10068217
0.21086234 0.14860591 -0.2458656 0.026877552 -0.21936971 0.12199289 0.11466659 0.07285342
0.12712318 0.09368377 -0.02148059 -0.16016509 -0.046227034 -0.06164119 0.031617906 0.037753854
-0.10228703 0.19130117 -0.027305128 -0.24750872 -0.188492 0.027961025 0.03673885 -0.23186837
-0.03566121 -0.03157199 0.18105909 -0.09210096 -0.022629224 0.041457444 -0.050512962 -0.071722314
-0.04504613 -0.0771332 0.06306039 0.114913836 -0.1525081 0.08662955 -0.12015201 -0.09978441
0.000598967 -0.07690825 -0.14300634 -0.06228293 -0.11668676 0.0634496 -0.05885725 -0.058368824
-0.10102596 -0.101581186 -0.12427073 -0.049506705 0.07114156 -0.2654965 -0.03648667 -0.13907649

lstm.bias_hh_l0 f4 [256]
00000000: 6ef7 21be 640e 0d3d 60b6 1dbe 91ff 68be
00000010: dc70 c1bd a593 a23c dd90 7b3d 29c3 353e
00000020: aa7e 5c3e a903 703e 6bc0 00bb 7a18 653e
00000030: 64d6 15be be0b 083d 61ad 1f3e 1b77 69bd
00000040: 853a f73c ed44 073e b35c 21be 9fc9 1ebe
00000050: 4893 73be 4661 10be 488c 973d 926d f1bc
00000060: 1361 b4bd cf24 683e 7347 fb3c e3d2 bcbd
00000070: 5088 2bbe b9c6 023e b240 d63c c332 94bd
00000080: f167 95bd 0993 5fbc b0fc a53e 32f7 34bc
00000090: f73c d6bc 4a38 383d 48f8 213c 586b 6bbd
000000a0: 0f51 1fbe bfae 773c c866 c2bd 2b6e c1bc
000000b0: da36 c4bc 2263 f33d c058 223d eb52 e8bc
000000c0: 2d40 d6bd 0df0 1cbe 31af 49be beaf 903d
000000d0: b0a3 febd 1204 b33d aa62 2bbe 69a2 a63d
000000e0: 9426 81bd f696 4bbe 4f95 2cbd c76d babd
000000f0: 701c d8bc 7b10 debc 6f4e 8e3d 2fda 3bbe
00000100: 06ed 5fbd a523 8dbc f085 90bd 5aee 12be
00000110: 6f21 38be c651 d83a 739e 6bbe 0cfd b3be
00000120: 743f eabd e085 f7bd a17f e63c 8d56 0fbf
00000130: 0488 c9bd 7746 60be 6d73 ac3d b6b9 fbbb
00000140: 0cbb 36be 8da3 3abd 6f48 f2bd d678 11be
00000150: 11f9 6fbe f7bf ad3c d8dc 133d c164 87be
00000160: 3bdc 45be f0a2 2cbe 3f42 09bf f706 36be
00000170: e727 00be 9767 92bd bd13 cdbd 6231 57be
00000180: 4c4e 37be fd8d 6ebd e485 c2be cc03 a6bd
00000190: 0fc9 86be 42e6 07bf efcf 56be 6448 c6bd
000001a0: 3562 60be c50d 31be 9b7f a1bd 8421 1ebe
000001b0: 7602 babe 8491 f5bd 4e63 1ebe 80c7 ecbd
000001c0: daf8 c03c a302 d8bd 9c04 babd d032 05be
000001d0: a3f3 08be f856 a0bd eeb9 97bd 73c5 20be
000001e0: b493 c43d 515a 0f3d a873 893c 24e5 563d
000001f0: 28e5 6dbd 5399 7ebe e3f4 efbe fa6c 10be
00000200: 5047 c9bb 5ec4 b73d 85f2 e3bb a8b9 6c3c
00000210: 7f37 f9bd 7caa 1abe 1e3f de3c 94ed a6bd
00000220: 92c1 b1bd ccb7 3ebd 3775 483d 0705 cfbd
00000230: ce1e c83d 3f36 d0bd 28b3 e43d 9215 7fbd
00000240: 6bb8 cc3d 6a76 2bbe 899e 3e3d 71e9 27be
00000250: 71a6 f7bc 701f c4bc cf83 823c ea17 ddbb
00000260: 6c36 2dbd 2336 c0bd ff28 a8bd a055 f3bc
00000270: f974 acbd 9b8f 42be 723e 8abd 2347 083e
00000280: c241 4bbc 0ae5 bfbd fc26 1dbc e2af a93d
00000290: 6604 c43c eef4 82bd 0ec9 bd3c 0e68 ad3d
000002a0: 00b3 973d 9366 57bd 8d60 043d eb08 653d
000002b0: eaa1 9d3d eeb4 043e 5c66 733d c4f9 26be
000002c0: e878 3c3c 013d 923d 5f3a e23b 16c3 653c
000002d0: 4b48 19bd 3fb6 213e 9db7 35bc 4cc0 c93d
000002e0: 9488 a3bd fb4a 3f3d 57e7 33be 53e0 25be
000002f0: 4158 f4bd 2738 9d3d a989 66bd dc7f 0d3c
00000300: a0a0 c337 0d0e dabc ac97 27bd 2388 95be
00000310: e42f 20be 5a80 d13d 62cb ecbb 37fd 613d
00000320: a500 333e a75d 2a3e 89ea 3fbe 9edf 91bd
00000330: aec3 5cbe f963 73bc 645e 493c 9cf3 783d
00000340: e417 043e 68b1 51bd 00f8 14be bdb4 9d3d
00000350: 8d97 5ebd 4a7e 1bbe f884 51bd fe31 243d
00000360: 6d15 5fbd 973c 473e eeda 9f3c 7ed1 8ebe
00000370: 6f21 ed3c b036 063e 715d a2bd edea 08bc
00000380: 460f f5bd 1f33 bebd f9a2 093e 5694 8a3d
00000390: 2605 d33d cd41 42bd 3540 2cbc 486b 29be
000003a0: 750d 3fbd bda2 213d 9fdd 44bd 52c1 3e3d
000003b0: 7727 08be bbf7 59bd ac95 47bd 8f75 89be
000003c0: 415d 05be e335 e6bd 805a 7dbd 874f d6bd
000003d0: f183 e9bc 5133 91bd b890 1cbd deca d53c
000003e0: 84c1 b0bc 85c8 92bd 8cfa 60bd 3b4f 89bd
000003f0: 5925 b4bc 5cb1 b0bd 5976 283e dc63 1abd
-0.15817043 0.034437552 -0.15401602 -0.22753741 -0.09445354 0.019845793 0.06141745 0.17750229
0.21532694 0.23438896 -0.001964594 0.22372618 -0.14632565 0.033214323 0.15593483 -0.056998353
0.030179271 0.13209887 -0.15758018 -0.155066 -0.23786652 -0.14099607 0.073998034 -0.029471193
-0.08807578 0.22670291 0.030673718 -0.09219911 -0.16751218 0.12771119 0.026153896 -0.072362445
-0.07295216 -0.013645896 0.32419348 -0.011045264 -0.026152117 0.044975556 0.009885855 -0.057475418
-0.15558265 0.015117346 -0.0949226 -0.023612102 -0.023951937 0.118841425 0.03963542 -0.02835985
-0.10461459 -0.15325947 -0.19695736 0.0706477 -0.12433565 0.08741011 -0.16736856 0.08136446
-0.06306186 -0.19881806 -0.04213458 -0.091029696 -0.026380748 -0.027107468 0.06948554 -0.18344949
-0.054669403 -0.01722891 -0.070567966 -0.14348736 -0.17981504 0.0016503863 -0.23009662 -0.35153997
-0.11437884 -0.120860815 0.02813703 -0.5599144 -0.09840396 -0.2190188 0.08420453 -0.0076820506
-0.1784479 -0.04556613 -0.11830222 -0.14206252 -0.23434855 0.0212097 0.036099285 -0.26444057
-0.19322293 -0.1685903 -0.5361671 -0.17776094 -0.12515222 -0.071486644 -0.100135304 -0.21014932
-0.17900962 -0.05824088 -0.37992775 -0.08106193 -0.2632527 -0.5308572 -0.20977758 -0.09681776
-0.21912463 -0.17290409 -0.07885667 -0.15442473 -0.36330003 -0.119906455 -0.15467569 -0.11561489
0.023556162 -0.10547378 -0.090829104 -0.13007665 -0.1337419 -0.07829088 -0.0740851 -0.15700321
0.09598485 0.03499824 0.016778782 0.05246462 -0.05807987 -0.24863176 -0.4686652 -0.14104071
-0.0061425343 0.08973001 -0.006956401 0.014448561 -0.12168788 -0.15104097 0.027129706 -0.08150783
-0.08679499 -0.046562 0.04893991 -0.10108381 0.097715005 -0.101665966 0.11166984 -0.06227643
0.099961124 -0.1674439 0.04653791 -0.16397645 -0.030230733 -0.023940772 0.015931992 -0.0067472355
-0.04228823 -0.09385326 -0.082109444 -0.029703915 -0.08420748 -0.19000094 -0.06750192 0.13308387
-0.012405815 -0.093698576 -0.009591814 0.082855 0.023927879 -0.06394373 0.02316716 0.084671125
0.074071884 -0.052588057 0.03231864 0.055916708 0.07696898 0.12959644 0.05942379 -0.16306216
0.011503436 0.07140542 0.006903931 0.014023563 -0.03742246 0.15792178 -0.01109114 0.09851131
-0.079850346 0.046702366 -0.17568718 -0.16198854 -0.119308956 0.07676726 -0.056283627 0.008636441
2.3320608e-05 -0.026618028 -0.04091613 -0.29205427 -0.15643269 0.10229559 -0.0072263936 0.055173125
0.17480715 0.16637288 -0.18741812 -0.0712273 -0.21559021 -0.014855378 0.012290571 0.0607792
0.12899739 -0.05119458 -0.1454773 0.07700489 -0.05434375 -0.15184894 -0.0511522 0.04008674
-0.054463793 0.19456707 0.019513573 -0.27894205 0.028946606 0.13106799 -0.07927979 -0.008356792
-0.11965804 -0.09287094 0.13441075 0.06766574 0.10303716 -0.047426034 -0.010513355 -0.16544831
-0.046643693 0.03946184 -0.048062917 0.046571083 -0.13296305 -0.05321477 -0.048726723 -0.26847503
-0.13023855 -0.11240747 -0.061853886 -0.104643874 -0.028505297 -0.07089866 -0.038223952 0.026097711
-0.02157665 -0.07167152 -0.05492644 -0.06704565 -0.021990465 -0.086275786 0.16451396 -0.03769289

lstm.weight_ih_l1 f4 [256, 64]
00000000: b3cd 61be 6d5a 133e a7a8 603d c1c4 d1bd
00000010: e4a6 89be 50e3 a7bd 5a58 a0bd 21c4 b03e
00000020: ef69 9a3d 0009 d73e 3337 6a3d 62a1 3b3e
00000030: f94e 403d 9450 ab3d a9df 7c3c 878b 19be
00000040: 571c 06be acb3 a1bd 3b77 51bd 8da3 97bd
00000050: 7eff 03bd 00f4 dabd 9519 5f3e f186 d03b
00000060: 52e5 9bbc a147 e43e c5fa 3f3e 7a71 4bbe
00000070: be9e 7fbd 45cd f1bc ca97 05be 558f cc3c
00000080: d9a1 0dbe e451 1bbe 6473 823e a908 16be
00000090: b89d 1e3e e976 e43e 8444 a3bd df3c 1cbb
000000a0: dbf1 84bd 6128 30be 894b 2d3e 0264 2cbe
000000b0: 8bff 3f3e bc5f 1bbe c07a 483e e910 ebbc
000000c0: 9363 20bd 76cc 0f3d 87f7 313d e398 7bbd
000000d0: 9e1b adbd 6f5d 72bc fd0d 3a3e 5c0d 793d
000000e0: 80a9 433e 0a9f 1a3e 3b20 b5bd 0aa7 e03b
000000f0: bf4a b8bd d8e1 e93d 7f23 2b3d e379 41be
00000100: b27b 3cbd 360a 7dbc f6f5 a4bc 407c 423e
00000110: 09d7 de3d 6c25 0bbc ee9e 123e 3493 223e
00000120: 05e1 f63d 45ee c23d c5de b1bd c784 313e
00000130: 94ee 56be 1abb 013e 4917 ed3c 94c8 603d
00000140: 1217 eebd eb47 943d 1e1f 863d ed6b a2bc
00000150: 5a3f 003e b7aa fd3c 2d8f 1ebe 8a0a a5bd
00000160: e468 7e3d 629e 76bd 88ba 9c3c 5d51 163e
00000170: fea6 fa3d 1e1c dc3d 2acd a1bc 4223 29be
00000180: b3a6 933d 49d4 74bd d4e4 d53d fd11 a9bd
00000190: d9cf 4b3e 5578 3d3e 61ed be3d 3318 f9bd
000001a0: cbb9 b1bc 50c8 c93d 84fa ff3c df07 89bd
000001b0: 592f 44be 21ab aabc 42f5 4fbd 3717 093e
000001c0: 78cc cc3d 0467 83bc 9e8b 1abc 996f c0bd
000001d0: 4ba6 363c 6192 38be 5aa6 8f3d d654 fcbd
000001e0: 6ae8 a73c 81d8 b3bd 4a76 e03b b6a7 fc3d
000001f0: 52dd 5b3c 4f9c de3c 6923 d4bc b50c 583d
00000200: 2996 a53d 4919 a93d 8dac aabd 49c4 82bd
00000210: 9088 0ebd f6e5 de3d 6876 a0bd b0f4 b53d
00000220: b236 bc3d 76fc 2f3e 9e10 e2bc d329 413d
00000230: 7bdb 543d aaa4 ecbd fff1 31be ed49 78bb
00000240: 8654 3cbd 601a 17be 69db bbbd 1170 02be
00000250: e886 2c3c f9ee 66bd 12c6 173e 7033 76bd
00000260: e14d 8fbd ffc9 643b adc0 8d3b 03a2 fdbc
00000270: 0cc2 4e3d e385 fe3c 8a0a 17bd 6e13 1c3b
00000280: 30c3 a63c 7280 45bd 6806 213d 1ebb d4bd
00000290: a828 d13c 1006 683d b481 723c 08ef 853d
000002a0: 4b19 dbbd 3455 1dbe 5ace a23d e65b 18bd
000002b0: dbc7 fa3d e0a4 dc3d 9838 ac3d 4424 50bd
000002c0: 1993 e1bc e3fd f43d 9dbd a83d 15ee cc3d
000002d0: b7fb 673d 4bf5 6dbc 223f 1d3d 5da3 dbbd
000002e0: 648c 523c b7b6 3ebc 7a6a 363d dd8d d5bd
000002f0: fa13 f8bd 6304 e7bd 2755 27bd a204 f7bd
00000300: ff9b c7bb 79e0 10bd bb6d 803d 168a 3cbe
00000310: 5dc7 ecbd d70c 383e 54ad 47be e741 cb3d
00000320: 1029 2e3d 67b0 303e 8696 383d 5977 983e
00000330: 0ad0 af3d 9410 ab3d 88b7 83be e06b 7dbd
00000340: a0a9 babd 1dfb eebb a51e 0ebe 6aed 28be
00000350: 376c c33d e08e 1c3d e48a 9e3d 477c f13d
00000360: 3184 803d bdee a43e 4849 a13e 6b31 b7bd
00000370: 5af0 dcbb d112 1dbe bb8b 54be a8ff 1a3e
00000380: 2211 35be 3d48 03be 0eac 043e cecb 053d
00000390: b1fa f03d 9a6b 413e db44 fdbd a006 123e
000003a0: b657 b0bc b9d5 8e3d 01a1 c73d 270c 27bd
000003b0: 29a3 9c3d e653 293c 5400 253e 250f 7c3d
000003c0: 22f2 7dbd 7088 4f3e 2fd3 113e ee27 91bd
000003d0: 3584 7fbe 6dea 333d 4b46 2dbd da43 3cbc
000003e0: 7523 523d 7059 803e be2c 25bc b1ed c0bd
000003f0: 74f6 f03d c18e 8bbd 1dd3 af3d aed5 da3d
-0.22051124 0.14389963 0.05484834 -0.10242606 -0.2688514 -0.08197653 -0.07829352 0.34524634
0.075397365 0.41999054 0.05718155 0.18323281 0.046950314 0.083649784 0.015434184 -0.14994632
-0.13096748 -0.07895598 -0.051139098 -0.07404242 -0.03222608 -0.106910706 0.21787103 0.0063637425
-0.019030247 0.445859 0.18748005 -0.19867507 -0.062407248 -0.029516825 -0.13046184 0.02497069
-0.13831271 -0.15167958 0.2547866 -0.14651741 0.15489852 0.4462197 -0.07972053 -0.0023839993
-0.06491443 -0.17202903 0.16923346 -0.16835025 0.18749826 -0.15173239 0.19578075 -0.028694587
-0.03915746 0.0351071 0.04344895 -0.0614251 -0.08452533 -0.014792784 0.18169399 0.060803756
0.19107628 0.15099731 -0.08844038 0.00685585 -0.08998632 0.114200294 0.0417819 -0.18894152
-0.046016403 -0.015444329 -0.020136815 0.1899271 0.108808585 -0.008492809 0.1431844 0.15876466
0.12054638 0.095181026 -0.08685068 0.17335807 -0.20989448 0.1266903 0.028941767 0.054878786
-0.11625494 0.0724028 0.06548904 -0.019826854 0.12524167 0.030965192 -0.15484305 -0.08058651
0.06211175 -0.06020964 0.019131914 0.14679475 0.122388825 0.107475504 -0.01975115 -0.16517356
0.0720953 -0.059772763 0.10444036 -0.08255384 0.19903506 0.18502934 0.0932262 -0.12162819
-0.021695038 0.0985266 0.031247385 -0.066909544 -0.19158687 -0.020833554 -0.050771005 0.13387762
0.09999937 -0.016040333 -0.009432701 -0.093962856 0.011148046 -0.18024589 0.07014151 -0.12320869
0.020496566 -0.08781529 0.0068500387 0.12336676 0.013419466 0.027174143 -0.025895791 0.052746493
0.080852814 0.08256776 -0.08333693 -0.06385095 -0.034798205 0.10883705 -0.07835084 0.08884561
0.0919012 0.1718615 -0.027595814 0.047159027 0.051967125 -0.11554845 -0.1737747 -0.003788586
-0.045979045 -0.14756155 -0.091727085 -0.12738062 0.010530211 -0.056380246 0.14821652 -0.06010765
-0.06997276 0.0034910438 0.0043259473 -0.030961042 0.050478026 0.031069702 -0.036875285 0.0023815292
0.020356745 -0.048218198 0.03931275 -0.10387252 0.025532082 0.056646407 0.014801431 0.06539732
-0.106981836 -0.15364534 0.07949515 -0.037197016 0.12245151 0.10773635 0.08409232 -0.050815836
-0.027535962 0.119624875 0.08239291 0.10006348 0.05663654 -0.014523814 0.038390286 -0.107245184
0.012850855 -0.011640242 0.044535138 -0.10427449 -0.12113185 -0.112801336 -0.040852692 -0.120614305
-0.006091594 -0.035370324 0.062709294 -0.1841205 -0.11561463 0.17973648 -0.19499713 0.09924679
0.04251963 0.17254792 0.045065425 0.29778555 0.08584602 0.083527714 -0.2572596 -0.061870456
-0.09114385 -0.0072931186 -0.13878877 -0.16496816 0.09542125 0.038222194 0.07741335 0.11791282
0.062752135 0.32213393 0.31501222 -0.089449726 -0.0067425193 -0.15339209 -0.20756428 0.15136588
-0.17682317 -0.12820525 0.12956259 0.032665066 0.117665656 0.18888703 -0.12366649 0.1426034
-0.021526199 0.06974358 0.09747506 -0.040783074 0.07648308 0.010334944 0.16113406 0.06153788
-0.061998494 0.2026689 0.14240716 -0.07087694 -0.24952777 0.043924738 -0.042303365 -0.011490786
0.051303346 0.25068235 -0.010081468 -0.09420336 0.11765757 -0.068143375 0.085851885 0.106852874

lstm.weight_hh_l1 f4 [256, 64]
00000000: 8724 003e 03ce 87bd 7597 083e a14a 84bb
00000010: 0fc3 dcbc 6930 82bd ac90 9e3e fb5d abbd
00000020: 328a e1bd c831 813c 10b4 10be b7fe 923d
00000030: 48cf 543e 2cf4 cb3d 8e26 333e d845 8a3c
00000040: 5f25 633d 4b24 69bd 70e4 a63d c33f 2b3e
00000050: 8cbe 363e 1be0 d639 b695 803d c894 853d
00000060: be96 6bbe ea21 263e 5078 e9bd 5e51 4f3e
00000070: 946d 703d 9286 e9bd b4c6 be3c 7013 893d
00000080: 7d8b 4dbe ad78 74be 37b2 67be d1cd 4c3e
00000090: 30bb 353e e178 043e dcb9 263d 8eb4 c13d
000000a0: 98f0 28bd 04fe 983b b5ba 0abd e5d1 313d
000000b0: cc42 903d 8fbe 553d 3423 b7bd 2b3c 8abd
000000c0: e3ba 38be cf45 50be 0321 993d 83e1 6bbe
000000d0: fd89 ff3c ff30 583d 307d 97bd ef72 5bbd
000000e0: fee2 803e 6224 0bbd 4b54 7d3c f982 44be
000000f0: 4760 19bd c9c3 1bbe 92b1 d13c 5938 21be
00000100: 435d 4b3d 99e5 8e3d ca36 3dbd 8207 983d
00000110: e188 bbbc 9dd6 96bd 7a1e 82bc c818 ae3d
00000120: 9a63 c43d dc6c 94bd 6e72 33be f711 453d
00000130: 26cf 41bd 9848 f33c e693 fabd 85ab 7bbd
00000140: 02b1 e1bc 93a0 63bd 5796 70bd 2853 03bd
00000150: 5a34 fcbd aef5 ae3d 31ef d23d 557f 5fbb
00000160: de63 12bd 16fa a83c 98e9 82bb f224 aebd
00000170: f94a 153d f3f1 173d dace c2bd 1db7 d6bb
00000180: e6c6 e23d cb81 6dbd 70d3 e1bd 3dea 713d
00000190: 0a79 cf3c 118a ebbc 5cbf 643c bb03 563d
000001a0: fe48 713d a3ec 193b 54db 433e a40e 2e3d
000001b0: 8dd1 a5bd 2653 bb3d b916 8ebd a825 aabc
000001c0: 7929 233d acfb 1bbb ca10 d33d 16f0 9c3b
000001d0: 1842 4e3d ed67 023e 9b2e 70bc 72f9 2e3e
000001e0: 8246 70bd de4b d23d f5dd 203e a91c e1bc
000001f0: 661d d13d 6701 683c 9036 c0bd ffc1 993d
00000200: 8733 d83d f605 713d 91f5 7fbd 9c42 a2bd
00000210: c135 833d b689 3c3c 7657 89bd 30b3 be3c
00000220: d5a3 a93c 2f12 3d3e 0e96 1abe dfda 223e
00000230: 72a5 8fbd 1e76 0e3d a3cc e03d 6f31 843c
00000240: b414 433d 669f 113e 383c cc3d d6ba 09bd
00000250: 5b2c 073e 88cd f0bb e1df d0bb f8b6 213e
00000260: db7b 38be 912a 50bd d7d1 83bc e59a 2d3e
00000270: bf4f 1cbe 1db2 733c c0e3 36bd 1446 e1bd
00000280: 175f c1bd f72b 3ebe ad0c 08be 79b7 1a3e
00000290: 831f 88bd 8292 aa3c 213f 693c ce2e 783d
000002a0: ff1e 0bbe 9adc 323e 8a13 173e 8d05 3a3e
000002b0: d1d1 2f3d c776 5e3d b38b d83d 68dd 883c
000002c0: 3086 03be 6fb1 24be c98f 6c3d 0ff3 b4bd
000002d0: 4e87 f43d b45f bc3c 2119 113d 7a1d 013e
000002e0: 1bfb a03c 4084 7e3d 0244 81bd c2f8 893c
000002f0: 08c4 66bd 2a4c 19be cdfa 3b3d 4965 843b
00000300: cd8e a13e 0b1b dabd 3aa0 30be a384 d83d
00000310: 947d d7bd 15d6 eebc ca47 403e e1aa febd
00000320: 9cfe 08be 49b4 d13c 99fe 53be b7ff 423e
00000330: 1ea0 dd3c b0e7 383e 6263 1f3b 8242 05be
00000340: 172a 303b aa8c 683c 0fec b03d 9a23 e33d
00000350: 8686 233e fd53 8e3d 6bdf a93d f6ff f53d
00000360: e846 fbbd f610 333e 1ed4 84bc 3c89 c83d
00000370: 4e5d b3bd 156f c2bd fb6c cd3d 2b0e 2cbd
00000380: f488 c5bd fa3f babe 81c4 88ba 3d05 853e
00000390: ea99 f73c be58 d33d 6afc 2c3b e651 443e
000003a0: a299 c4bd 2638 253e 24f1 12bd 3505 683b
000003b0: f825 243e 3cab 593d b71a d8bc 8ce4 03be
000003c0: a0c8 2dbe 90f6 49be e285 933c c5eb 2fbe
000003d0: 9b2b e23d aa9e 033d d29a 5e3e 0e46 29be
000003e0: 0083 26bc 37da 0d3d 3b88 c83d e6d1 473d
000003f0: 6d88 45bd 2a22 29be 73ff a1bd 4b41 8dbd
0.12513934 -0.066310905 0.13339026 -0.004037217 -0.02694848 -0.0635689 0.3096975 -0.08367535
-0.11012687 0.015770808 -0.14131188 0.07177489 0.20782197 0.099586815 0.17495176 0.016879007
0.05545556 -0.056919377 0.0814904 0.16723542 0.17846125 0.00040984232 0.06278555 0.065225184
-0.23006722 0.16223875 -0.11399901 0.20245883 0.05869825 -0.114026204 0.023288108 0.066931605
-0.20072742 -0.23874159 -0.22626577 0.20000388 0.17747188 0.12936737 0.040704593 0.09458266
-0.041245073 0.004668953 -0.033869464 0.04341306 0.070439905 0.052183684 -0.08942261 -0.067497574
-0.18040042 -0.2033913 0.074769996 -0.23035245 0.031193728 0.0527811 -0.073969245 -0.053576406
0.2517318 -0.033970244 0.015461992 -0.19190587 -0.037445333 -0.15211405 0.025597367 -0.15744151
0.04964949 0.06977386 -0.04619483 0.07423307 -0.022892417 -0.07365153 -0.015883673 0.085008204
0.0958931 -0.07247326 -0.1752412 0.048112836 -0.047316693 0.029697701 -0.12235241 -0.06144287
-0.027550224 -0.055573057 -0.058737125 -0.032061726 -0.12314673 0.085429534 0.102995284 -0.0034102995
-0.035739772 0.020627063 -0.0039951317 -0.085031405 0.036448453 0.037095975 -0.0951211 -0.0065525905
0.11073093 -0.05798511 -0.11026657 0.059061278 0.02532627 -0.028752359 0.013961639 0.05224965
0.0589075 0.0023486994 0.19126636 0.04249443 -0.08096609 0.09146719 -0.06937928 -0.020769909
0.039834473 -0.0023801131 0.10305937 0.0047893627 0.050356 0.12734957 -0.014659549 0.17087343
-0.05866099 0.10268377 0.1570967 -0.027479487 0.102106854 0.014160491 -0.09385407 0.07507705
0.10556703 0.058843575 -0.06249005 -0.07922861 0.06406737 0.011507442 -0.06706135 0.023278803
0.020708004 0.18463968 -0.15096304 0.15903805 -0.07013978 0.034780614 0.10976531 0.016136853
0.047627166 0.14220962 0.09972423 -0.033625446 0.13200514 -0.00734872 -0.0063743447 0.15792453
-0.18015997 -0.050821844 -0.01609127 0.16953619 -0.15264796 0.0148740085 -0.044650793 -0.109996945
-0.09441965 -0.18571459 -0.13286085 0.15109052 -0.066466354 0.020821813 0.0142362425 0.06059151
-0.13586043 0.17466965 0.14753547 0.1816618 0.042924706 0.054312494 0.105735205 0.016707137
-0.12844157 -0.1608331 0.05775431 -0.08835422 0.1193987 0.022994854 0.035424355 0.126089
0.019650986 0.062137842 -0.063117996 0.01684225 -0.056339294 -0.1497046 0.04589348 0.0040403944
0.3155426 -0.10649689 -0.17248622 0.105721734 -0.10521999 -0.029154817 0.18777385 -0.12434936
-0.13378376 0.025598662 -0.2070259 0.1904286 0.027053889 0.18057132 0.0024320711 -0.13013652
0.0026880556 0.014193693 0.086387746 0.11090775 0.15969285 0.06949613 0.08294567 0.12011711
-0.12269384 0.17486939 -0.016214427 0.097918004 -0.08758031 -0.094938435 0.10030552 -0.0420057
-0.09645262 -0.36376935 -0.0010434539 0.2598056 0.03022476 0.103196606 0.0026395568 0.19171867
-0.09599616 0.161347 -0.0358745 0.0035403494 0.16030109 0.053141817 -0.026379926 -0.12880152
-0.16971064 -0.19722962 0.018008176 -0.17179783 0.11043473 0.032133736 0.21738747 -0.1653063
-0.010163069 0.034631934 0.09791609 0.04878416 -0.04822581 -0.16516939 -0.07910051 -0.06897219

lstm.bias_ih_l1 f4 [256]
00000000: c79c d1bc 6088 8d3c b116 debc 6c8f 5cbe
00000010: 21f0 b2be 4db5 5fbe 5575 11be e6ed eebb
00000020: 89fc 42be 380c 1f3d 3d77 153c c96a 0bbd
00000030: 4eef 95bc 892f 4ebe 4d74 20be 9fc9 f6bd
00000040: b0fc 4abe c576 dabd 444f 05be 6f17 91be
00000050: e66a 9d3d e508 10be 7e9c 08be a0fe 93bd
00000060: 346c 32be c373 ebbb 175d c8bd 590a 4d3d
00000070: 9b6d acbe 40e5 0bbe bba2 32bd a833 d8be
00000080: 05b7 96bc b7b6 3bbd d558 b43c 8caf bbbd
00000090: 13e3 27be 5606 33be a5c0 6dbe 1888 40bc
000000a0: f95d a23d 1502 1d3d c824 cc3d 667a af3d
000000b0: 7bcd 323e dbe7 edbd 418e 47be 39f3 50be
000000c0: e728 13be e81d 3f3d 10ef 9bbd 1583 8d3d
000000d0: 63bf 27bd 29bb f7ba b020 763d c219 09bd
000000e0: f166 c33d e49a 08be 1dcd 7d3d e834 30bd
000000f0: f1c0 e6bd b2f2 bebd 2d35 9f3d 2cec 893d
00000100: 9776 bbbd 7826 1e3e ab69 03be ea6d 7cbe
00000110: 64d8 92be 9784 4dbe a4cd 343e 106e 69bd
00000120: 70fa 7abe c340 b6bd 52ee b6be 8045 16be
00000130: 30a4 d33c 677f 12bd e1ab 5a3d 17bf 703d
00000140: 6217 3bbe f7a0 eb3d 8f72 8b3d 28d0 69be
00000150: f06a 82bd 8355 7a3c 3c0e f93d 0d85 b7bc
00000160: 17c6 13be b872 853d d590 1f3e 3084 f2bc
00000170: 2ce7 acbd db1c c4bd 3bc4 403d 81e1 54be
00000180: 4f6b 473e d284 a1bc 1189 1c3d 6ce7 0b3d
00000190: 91e1 243b 0861 e7bb 0c08 18bc 2110 88bd
000001a0: 7536 9fbd e9f4 eb3c c780 ea3d d580 e63d
000001b0: dc3e 0f3e ebf3 a73d 20fc 78be ce09 89be
000001c0: 7e10 19be 0c41 71bd 3eeb 933b 08c0 543d
000001d0: 8970 73be 50d2 66bd c701 b33d 3b77 833e
000001e0: 41d8 f23d 747a 80bd 4280 b73e 29cf a23c
000001f0: f554 c5bd fa91 14bd 27e0 3e3d 47e0 5bbd
00000200: a755 e4bc 84ea bc3d 8f7f acbc 78cd dfbd
00000210: cde9 56bb a110 a6bd 8a20 83bd 5afa ed3d
00000220: 4908 86bd 8fa0 9abd 5cfa 01bd aa55 8fbd
00000230: f6db 98bd 838f 663d ea85 20b9 4658 7a3d
00000240: 40ea a9bc 0dd1 d4bb 6de1 57bc 0026 0fbc
00000250: 718a 58bd cf23 82bc afda a2bd 9c8a 7abd
00000260: 7df6 993d abae a4bd dd4f 983c a4f9 52bd
00000270: f8e9 5bbd 4d76 fb3c a0b2 27bd 6c9e a83d
00000280: 1913 013d 90a8 59bc 5877 5b3d 7eea 8bbd
00000290: 5a76 bcbb 03a0 ae3d cb02 683d 8542 a73d
000002a0: 758d e93d b273 513d fc1e a0bd 6959 03be
000002b0: 79f0 5cbd 4b59 c9bc cb9b 773d 0052 9fbd
000002c0: 3c7b 463d 6f1f 143d 27a1 16bd d006 babd
000002d0: 7774 24bd 2e71 923d ff52 b9bd 19d5 0bbd
000002e0: 1ce7 893d 7005 51bd 48be 093b 16e8 8b3c
000002f0: 0a79 f8bc e8bd 643d 8ad3 323b 33ae a43d
00000300: ab2f 46be e36a e4bd c27e b5bd c54d bfbd
00000310: 094c 22be b603 60be 964e 1dbd ffa2 d1bd
00000320: 690e aabe 49b5 3bbc 3f21 23be 7141 06bc
00000330: 7236 6b39 8013 34be 6cfb 20be 4dec 27be
00000340: 6c37 25be 35b6 3dbe ace4 183d 25de a8be
00000350: c879 04be f755 eabd 39b1 9bbd 1569 063a
00000360: ba6c 6cbd 320c 1dbd d7ba b33d d174 9bbd
00000370: 6ae7 c8be 9dbb aabd bb38 04bd d5d6 bcbe
00000380: 56a2 d9bc 0f45 1d3e bfeb a33c a4c6 793d
00000390: b706 66be c3d9 46bc 6bdf 25be 837a 6f3c
000003a0: 767c 013d 4f8e 34bd 02b2 b4bd a920 b53d
000003b0: 0162 0d3e a295 f6bd 37dd b4be 1ea0 fbbd
000003c0: e27b 5dbe c518 32be 8c86 6dbe e738 36bd
000003d0: 4a33 15be 91c2 0bbe f8f5 e2bb 843e dcbb
000003e0: 2c6e 26bc 60a5 d2bd a056 ff3d 57bd 6bbd
000003f0: 5c8b 18be 5834 0bbb 7015 8a3c 2f2c fb3c
-0.025587453 0.017276943 -0.02711043 -0.21539086 -0.3494883 -0.21846505 -0.14204915 -0.0072915433
-0.19041647 0.038830012 0.009122667 -0.034037385 -0.018302586 -0.2013532 -0.15669365 -0.12050175
-0.19822955 -0.10667185 -0.13018519 -0.2833819 0.07686405 -0.14065893 -0.13340947 -0.072263
-0.17424089 -0.0071854307 -0.097833805 0.050058696 -0.33677372 -0.1366167 -0.043612223 -0.4222691
-0.018397817 -0.045828547 0.022015015 -0.09164342 -0.16395216 -0.17482886 -0.2321802 -0.011751197
0.0792808 0.038332064 0.09967953 0.085682675 0.17461197 -0.116164885 -0.1948786 -0.20405282
-0.14371072 0.04665938 -0.07613957 0.069097675 -0.040954005 -0.0018900383 0.060089767 -0.03347183
0.09541119 -0.13340336 0.06196319 -0.043019205 -0.112672694 -0.09323634 0.07773814 0.06734499
-0.091534786 0.15444362 -0.12833278 -0.24651304 -0.28680718 -0.2007011 0.1765657 -0.05698973
-0.24509597 -0.08899071 -0.357287 -0.1467495 0.025835127 -0.03576603 0.053386573 0.058775987
-0.18270639 0.11505311 0.0680896 -0.22833312 -0.06368053 0.015279177 0.12160918 -0.02240231
-0.14431034 0.065160215 0.15582593 -0.029604048 -0.0844253 -0.09575816 0.04706214 -0.20789148
0.19474529 -0.019716654 0.038216654 0.034156248 0.0025158862 -0.0070611276 -0.009279262 -0.06643701
-0.07774059 0.028803306 0.114503436 0.112550415 0.13988823 0.082008205 -0.24314928 -0.26765293
-0.14947698 -0.058899924 0.004514127 0.051940948 -0.23773398 -0.056352913 0.087405734 0.25676903
0.118576534 -0.06273356 0.3584004 0.019874172 -0.09635345 -0.036272027 0.046600487 -0.053680684
-0.027872873 0.09224418 -0.021056918 -0.10927862 -0.0032793165 -0.081086405 -0.06402691 0.116200164
-0.06544549 -0.07550155 -0.031732902 -0.06998761 -0.07463829 0.056289207 -0.00015308676 0.06111934
-0.020741582 -0.0064946474 -0.013176304 -0.008737087 -0.052866403 -0.015886215 -0.07951867 -0.061167344
0.07517717 -0.08041128 0.01859277 -0.051507607 -0.053689927 0.030696059 -0.040941834 0.082333416
0.031512354 -0.013284817 0.053580612 -0.06831835 -0.0057514133 0.085266136 0.05664329 0.081669845
0.11403934 0.051135726 -0.0781841 -0.12827076 -0.05394027 -0.024578711 0.06045131 -0.07779312
0.04845737 0.03616279 -0.03677478 -0.09083331 -0.040150132 0.071504936 -0.090490334 -0.034138773
0.06733534 -0.051030576 0.0021017957 0.01707844 -0.030331153 0.05584517 0.0027286732 0.08041038
-0.19354121 -0.111531995 -0.08862068 -0.09341005 -0.15849318 -0.21876416 -0.038405024 -0.10236167
-0.3321412 -0.011456796 -0.15930651 -0.008194313 0.00022431629 -0.17585564 -0.1572091 -0.16398735
-0.16134423 -0.18526538 0.037327453 -0.32981983 -0.12937081 -0.11442178 -0.07602162 0.0005127353
-0.057720877 -0.03834171 0.08775871 -0.0759064 -0.39239055 -0.08336566 -0.032280665 -0.36882654
-0.026566666 0.15358375 0.020009873 0.060980454 -0.22463499 -0.012136879 -0.16198508 0.014616611
0.031612836 -0.04408103 -0.08823015 0.0884412 0.13806917 -0.12040259 -0.35325024 -0.12286399
-0.21629289 -0.17392261 -0.23195857 -0.04448786 -0.14570346 -0.1364844 -0.0069262944 -0.0067213196
-0.010158103 -0.10285449 0.12467694 -0.057553615 -0.14896911 -0.0021240916 0.016855925 0.030660717

lstm.bias_hh_l1 f4 [256]
00000000: 5d3f 35bd fbdb abbd a338 bb3b 4574 85be
00000010: 4b50 39be d413 34be 2efe 7abd b47f 0c3d
00000020: 602e b4be 5f61 be3d de44 34be 1a12 05be
00000030: aada 41be 9810 25be 0cc3 93bd 7bbe f4bd
00000040: be15 6bbe 5404 debd 4644 41be 36d3 aabe
00000050: 621f a53d 72a1 8b3d 095b 11bd ea09 78bb
00000060: 9167 a4bd 5665 7bbc b704 9fbd a8a1 6bbd
00000070: ca39 89be 4cb7 4fbd d59e 15bd d7ae dfbe
00000080: 0ecf 8d3d 8f71 1e3d 2c79 47bb 6342 9dbc
00000090: 6b7b 07be 6872 91bd 3f0f 5fbe fa1a 12bd
000000a0: 4d9c a43d e39f 10bd ffbe c0bd 631a afbd
000000b0: 1551 b63d caf3 7dbd 29d8 a7be 71b8 35bc
000000c0: 0479 babe f22e 2c3c e031 8dbe 1509 efbd
000000d0: 3f23 80be 092f ffbd e7e0 8fbd 6530 3a3d
000000e0: 051d b63d ece3 183d 57be 793d e586 163d
000000f0: 45e6 60bd 8f73 063e 2200 7bbd 5bed c83d
00000100: 5e49 25be 51f6 233c 1d4d 003d 5f89 8dbd
00000110: 8d01 27be 4943 93be 5ab6 293e 447d a13d
00000120: e7f5 8ebe 1eee f83d e81f bbbe ab8d 33be
00000130: 0f4e 773c fba5 1a3d 2a4b 1b3e 7b03 ecbd
00000140: 3fa5 e5bd da05 a33d f014 b2bb e5ed 85be
00000150: 0a2a d63d a1d8 fe3c 4afe 063e 1bc0 033e
00000160: 380a f1bd 8760 22bd cb4c 7cbd 14d8 1f3e
00000170: 6d6b 87be 4cbf d2bd d460 8fbd 54f8 c3be
00000180: 8b91 3f3e 7bb1 a4bd 752f 0b3d 4284 8fbd
00000190: 6c8a 563d c149 0d3d e4b8 05be ae04 d03b
000001a0: a32f 7bbd b918 983c 6f03 683d 611d d33d
000001b0: dc31 9b3b 58af 8fbb 010f 29be d10a c0bd
000001c0: 60f7 07be e996 f3bd 648c bdbd 4126 8d3d
000001d0: 341e 89be 48da 8e3d 6358 a9bc 7a25 9c3e
000001e0: 1636 733a 7855 063d f1cf 803e 1097 af3d
000001f0: df04 60be 5e10 9a3d 5baf dbbd 8f1c 44bc
00000200: 26ca c2bb b4ea f73d 1e08 253d 3480 c63d
00000210: f37d c4bc 1d6e 9a3d c595 39bd 1f03 15bd
00000220: e6c7 3ebc b181 79bc c146 cb3c 5c02 843b
00000230: a1ef e7bb cecf 44bd c95c 613c 5cd4 613d
00000240: 96eb dbbc d1dc adbd 7031 bfbd f598 29bc
00000250: 5928 1cbd 157e 83bd 886f 37bc d05a cfbd
00000260: f16d 09bd 3488 99bd b30a d13d ff55 acbd
00000270: ffdd b23d b10c c93b 58f2 4fbc 252a 98bd
00000280: ac39 d53b f0db 973d e84d 05bd 1374 37bd
00000290: 9ef0 ee3c e745 ecbd 4685 4dbd 61ed c8bd
000002a0: ed4b 9b3d 3e7b 98bd 838b fe3d 86b9 b83d
000002b0: 396b a3bd a15a c9bd 1728 cebb e6e3 123d
000002c0: b892 71bb eb8e 383d bf06 b03d d0fc c83d
000002d0: 160a 343d f89f c7bd 3683 28bd 979b 1b3e
000002e0: 87ec fabd 0991 303c 865d b13d 377c ad3c
000002f0: cf09 a1bc 135a 103e 40f1 0b3d 8c48 833b
00000300: 0595 69bd 225d f73d 975f 87bd f90c 9cbd
00000310: 3f6f 77be c63e bbbe 5d85 8bbd 7f4b 08be
00000320: fa46 80be 6f93 f6bd 0a7b 0abd cbe1 2dbe
00000330: 73c8 5ebe 4e79 00be b0ae b13d 2725 5ebd
00000340: ed00 d1bd a367 bbbd 497f cabd 07f8 35be
00000350: 8c8a b13c f1c0 e8bd 2b45 a23d 19d9 423d
00000360: eea5 1ebd b27f ce3b 3721 7cbb 3516 cf3d
00000370: d068 77be afe0 f1bd 95b1 18bd 482d 81be
00000380: bcf1 173e 8fa7 66bd 2808 0c3d 25e7 f43c
00000390: 4ff0 6bbe 4fa6 51bb 7b19 87be af79 a8bd
000003a0: 780c 27bd 6a73 223d 2575 123c ec9c 15be
000003b0: 871d e23c e52e b73d 1b84 25be 4a5a 88bd
000003c0: b2b3 96be 2b89 9bbc 9555 44bd 2683 8dbd
000003d0: 7095 5dbd 142a 09be 879d c7bd ce91 b73d
000003e0: 2236 a1bd 48a8 8abc 8d63 ba3d c7a1 ffbd
000003f0: f5f4 82be 3804 60bd 166e 1cbe f10d 37bd
-0.04424988 -0.08391567 0.0057135387 -0.2606527 -0.18097036 -0.17585689 -0.06127756 0.034301475
-0.3519163 0.09295916 -0.17604396 -0.12995186 -0.1893107 -0.16119611 -0.072149366 -0.11950394
-0.22957513 -0.10840669 -0.188737 -0.33364266 0.080626264 0.068179026 -0.03548721 -0.0037847706
-0.08027566 -0.015343985 -0.07764571 -0.057527214 -0.26801902 -0.050711915 -0.036528427 -0.4368808
0.06924258 0.038682517 -0.0030437214 -0.019196695 -0.13230674 -0.071018994 -0.2178316 -0.035670258
0.080376245 -0.03530873 -0.094114296 -0.08549955 0.08902184 -0.062000073 -0.32782105 -0.011091338
-0.36420453 0.0105092395 -0.27577114 -0.11671654 -0.2502689 -0.12460143 -0.070253186 0.04545631
0.08892254 0.03732674 0.060972538 0.03674974 -0.054907102 0.1313002 -0.061279424 0.09810897
-0.16141269 0.010007457 0.03132354 -0.06910967 -0.16309185 -0.28762272 0.16573468 0.07885221
-0.27921984 0.12154792 -0.3654778 -0.17534511 0.015094294 0.037755948 0.15165392 -0.11524101
-0.11213159 0.079601005 -0.005434625 -0.26158062 0.10457237 0.031109156 0.13182941 0.12866251
-0.11769527 -0.039642837 -0.061596673 0.15609771 -0.26449147 -0.10290393 -0.070008904 -0.38275397
0.18707864 -0.08041664 0.033980805 -0.07007648 0.052378103 0.034494165 -0.13058811 0.006348214
-0.061324727 0.018566476 0.0566439 0.10308338 0.0047361683 -0.0043849163 -0.1650963 -0.09377063
-0.1327796 -0.11894018 -0.09255293 0.06892062 -0.26780856 0.069752276 -0.020672029 0.30497342
0.0009277774 0.032796353 0.25158647 0.08573735 -0.21876858 0.07522653 -0.10726806 -0.0119696995
-0.005944508 0.12105313 0.040290944 0.096924216 -0.023985839 0.07540534 -0.045308847 -0.03637993
-0.011644339 -0.015228675 0.024814012 0.0040286016 -0.0070781265 -0.04804974 0.013755032 0.055134162
-0.026845735 -0.08489383 -0.09335601 -0.010351409 -0.038124416 -0.064205326 -0.011196025 -0.10124743
-0.033552114 -0.07496682 0.10207119 -0.0841484 0.08733749 0.006135546 -0.012692057 -0.074299134
0.006507119 0.074149966 -0.032545 -0.04478843 0.02916747 -0.1153677 -0.050175928 -0.098109014
0.07582841 -0.074453816 0.124289535 0.09019761 -0.079794355 -0.09831739 -0.0062914 0.035861872
-0.0036861133 0.045058172 0.08595037 0.09813845 0.04395493 -0.097473085 -0.041140758 0.15196072
-0.12252145 0.010776767 0.08660416 0.021177394 -0.019657997 0.1409686 0.03416562 0.004006451
-0.05702688 0.120783105 -0.06610029 -0.07619662 -0.24163531 -0.3657133 -0.068125464 -0.1331005
-0.2505415 -0.120398395 -0.033808745 -0.16980664 -0.21756153 -0.12546274 0.08675897 -0.05423465
-0.10205255 -0.091506265 -0.09887559 -0.17770396 0.02167251 -0.11364926 0.07923349 0.04757032
-0.03873246 0.0063018436 -0.0038471946 0.101116575 -0.24161077 -0.11810433 -0.03727873 -0.2522986
0.14838308 -0.05631214 0.034187466 0.029895375 -0.23040889 -0.0031989997 -0.26386628 -0.08226334
-0.040783376 0.03966085 0.008939062 -0.14610642 0.02760197 0.08944491 -0.16163675 -0.06657846
-0.29433972 -0.018986305 -0.04793318 -0.0690978 -0.054097593 -0.13394958 -0.09746843 0.08963357
-0.07871653 -0.016925946 0.09101019 -0.124820285 -0.25577512 -0.054691523 -0.1527637 -0.04469103
