models/RNN_bbva.pt (torch, 233316 bytes, 11 tensors)

lstm.weight_ih_l0 f4 [256, 12]
-0.04211354 0.057086036 -0.053386964 -0.035585847 0.01685309 -0.03888158 0.12992023 -0.047482375
0.040581204 -0.1746613 0.14641106 0.0046537016 0.022808664 -0.029824568 -0.11245293 -0.025077943
-0.109173015 -0.011235182 -0.16438223 -0.110615954 0.0266101 0.0027204636 -0.10389428 0.07011475
-0.059189774 -0.027402995 0.057311073 -0.10992213 -0.07975578 -0.06353268 -0.040508877 -0.067278855
-0.036180668 0.008674761 0.059363596 -0.2783293 0.041461773 0.06906346 0.045822684 0.15142938
-0.02508762 -0.0036852502 0.121754386 0.18117316 0.05639561 -0.020161489 0.16516796 0.026162624
0.1670005 0.055950176 0.05467134 0.26914144 0.039254215 0.09551496 0.09388662 0.14647965
0.15646552 0.07801769 0.31103644 0.29259774 -0.041537546 -0.08609283 -0.17279848 -0.10059408
0.23764512 -0.21691139 0.09837016 -0.121102154 0.010949887 -0.021142723 -0.023259152 0.07002471
0.18555674 0.28696144 0.15977837 0.28898746 0.09443504 0.14996114 0.15541656 0.18793169
0.27979684 0.04494856 0.5948668 -0.4382318 0.07401968 0.018754372 -0.075504564 -0.08801506
0.16459341 -0.13803141 -0.054155067 -0.112141006 0.05286535 0.06943016 0.040368974 -0.055980455
0.13382965 0.10562949 0.042159185 0.12783976 0.09042584 0.13136779 0.03660647 -0.04196068
-0.019854404 -0.0440704 0.014236167 -0.008430562 -0.08595121 -0.11180885 -0.002769536 -0.07873903
0.20291047 -0.2022186 0.042098124 -0.09570011 -0.0043374524 -0.100129366 0.1443729 0.22725298
0.049879488 0.10306258 0.14176175 0.0012301273 0.11641778 -0.07798489 0.07404062 0.154745
0.023911703 0.10088232 0.56526005 -0.43870324 -0.1286459 -0.09621362 -0.03392797 -0.024759017
0.008803509 0.010865053 -0.027177576 0.11597279 0.060582295 0.047651414 0.3212213 -0.43275708
0.14570011 -0.036855042 0.14214863 -0.044159926 0.13049498 -0.08910231 -0.053819086 -0.080979235
-0.01350347 -0.046138115 0.048607275 0.21737391 -0.016100261 0.065759934 0.02145406 0.06508996
0.047760084 -0.113349475 -0.016505908 0.051396854 0.08175554 0.023762653 -0.15938723 -0.09792974
0.02653603 0.0047147186 0.016893623 0.11313037 -0.036173943 0.07624563 -0.03915555 0.18934406
0.012365148 -0.011764943 0.48279333 -0.13058482 -0.09236684 0.06342396 0.061388824 0.021525621
0.098642826 0.014323905 -0.051766716 -0.034608148 -0.07878607 0.029612273 0.18137711 0.055817336
0.021779934 -0.030657561 0.05222065 0.12775233 0.0939961 -0.10136993 0.1407364 0.052368455
0.122582145 -0.121740915 0.10236215 -0.12079273 0.13508418 0.112671904 0.06151996 0.14224052
-0.032781374 -0.056973305 0.024163371 -0.024198545 0.08241114 0.035072267 0.10730194 0.032583233
0.118972376 -0.0063763736 0.104153685 0.00857893 0.028498651 0.119765945 -0.084096216 0.070490874
0.023299973 0.04047875 0.016760869 0.10257305 0.09907821 0.052343566 0.03637578 0.20882873
-0.018059114 -0.2749859 0.1571146 0.19535163 0.031705063 -0.13452443 0.0322783 -0.17940226
0.11414264 -0.039931517 0.06486039 0.11212969 -0.22107214 -0.15223643 -0.016383784 -0.044683177
0.075694785 -0.1451337 -0.056767568 -0.22347105 0.06426323 0.16289511 -0.0053338595 0.18022121
00000000: 3f7f 2cbd 0cd3 693d 4aac 5abd 77c2 11bd
00000010: 7e0f 8a3c 4b42 1fbd cf09 053e e17c 42bd
00000020: 7a38 263d 69da 32be c8ec 153e 147e 983b
00000030: 3cd9 ba3c a752 f4bc b94d e6bd 4270 cdbc
00000040: 1a96 dfbd c513 38bc d153 28be 9e8a e2bd
00000050: 6dfd d93c ce49 323b 86c6 d4bd 5298 8f3d
00000060: fa70 72bd 3f7c e0bc 04bf 6a3d db1e e1bd
00000070: 0057 a3bd 6c1d 82bd a3ec 25bd 7fc9 89bd
00000080: 2e32 14bd 9620 0e3c 3e27 733d 2e81 8ebe
00000090: d2d3 293d 2571 8d3d 91b0 3b3d 4e10 1b3e
000000a0: 8d84 cdbc 3d84 71bb 5d5a f93d 7585 393e
000000b0: 15ff 663d b529 a5bc ca21 293e 0053 d63c
000000c0: 2e02 2b3e 032c 653d 0eef 5f3d e8cc 893e
000000d0: 07c9 203d 599d c33d a147 c03d c3fe 153e
000000e0: 7f38 203e bdc7 9f3d 2b40 9f3e 5fcf 953e
000000f0: 4623 2abd 7051 b0bd 16f2 30be 4504 cebd
00000100: 3e59 733e 051e 5ebe 4b76 c93d 6804 f8bd
00000110: 2867 333c 8133 adbc fa89 bebc 1d69 8f3d
00000120: 9602 3e3e 9cec 923e f19c 233e 2af6 933e
00000130: 2967 c13d 6a8f 193e 8525 1f3e 2a71 403e
00000140: 8841 8f3e fb1b 383d 3149 183f eb5f e0be
00000150: a197 973d c5a2 993c 23a2 9abd 3d41 b4bd
00000160: 2d8b 283e 1b58 0dbe b4d1 5dbd 2faa e5bd
00000170: 5689 583d 6631 8e3d f059 253d c34b 65bd
00000180: a40a 093e 4654 d83d 1caf 2c3d 6de8 023e
00000190: 2f31 b93d 4785 063e aaf0 153d f6de 2bbd
000001a0: b4a5 a2bc 2a83 34bd d03e 693c 5720 0abc
000001b0: 3007 b0bd 0afc e4bd 1b81 35bb ee41 a1bd
000001c0: c3c7 4f3e 6512 4fbe 156f 2c3d 6bfe c3bd
000001d0: 3021 8ebb a010 cdbd 7dd6 133e 01b5 683e
000001e0: 6f4e 4c3d 7912 d33d fe29 113e 393c a13a
000001f0: 726c ee3d 8bb6 9fbd 9ca2 973d 7975 1e3e
00000200: 7ae2 c33c 649b ce3d e2b4 103f b69d e0be
00000210: c0bb 03be a50b c5bd 0ef8 0abd 6cd3 cabc
00000220: 983c 103c 5603 323c 82a3 debc 2483 ed3d
00000230: 2425 783d 212e 433d 1e77 a43e 5692 ddbe
00000240: 6932 153e 50f5 16bd 698f 113e 0ae1 34bd
00000250: 7aa0 053e 467b b6bd 6771 5cbd 71d8 a5bd
00000260: a93d 5dbc 52fb 3cbd 6c18 473d 4497 5e3e
00000270: b2e4 83bc 25ad 863d 6dc0 af3c e34d 853d
00000280: 14a0 433d c523 e8bd 6637 87bc 8285 523d
00000290: 736f a73d e5a9 c23c 6836 23be 638f c8bd
000002a0: 1762 d93c ed7d 9a3b 7f64 8a3c e5b0 e73d
000002b0: 212b 14bd ab26 9c3d 9261 20bd 69e3 413e
000002c0: 3197 4a3c bfc1 40bc b030 f73e 07b8 05be
000002d0: d32a bdbd 6ce4 813d d972 7b3d 8056 b03c
000002e0: 4005 ca3d d0ae 6a3c 5609 54bd 46c1 0dbd
000002f0: 975a a1bd 7095 f23c ecba 393e b8a0 643d
00000300: d56b b23c 9125 fbbc 52e5 553d 82d1 023e
00000310: 0781 c03d 0a9b cfbd 341d 103e 4e80 563d
00000320: 590c fb3d 4d53 f9bd 3fa3 d13d 2e62 f7bd
00000330: 8253 0a3e 87c0 e63d 5bfc 7b3d 80a7 113e
00000340: c345 06bd d75c 69bd 43f2 c53c 073c c6bc
00000350: 2cc7 a83d f0a7 0f3d 1fc1 db3d ff75 053d
00000360: caa7 f33d e6f0 d0bb 874e d53d a48e 0c3c
00000370: 0176 e93c d947 f53d a33a acbd 855d 903d
00000380: 96df be3c 0ccd 253d 174e 893c d211 d23d
00000390: 84e9 ca3d 3566 563d c5fe 143d 33d7 553e
000003a0: b5f0 93bc f4ca 8cbe a6e2 203e 420a 483e
000003b0: 2bdd 013d c6c0 09be 4036 043d 3ab5 37be
000003c0: 9ec3 e93d 3b8f 23bd 86d5 843d 40a4 e53d
000003d0: bc60 62be dee3 1bbe 4937 86bc b505 37bd
000003e0: de05 9b3d ee9d 14be 1c85 68bd 98d5 64be
000003f0: 719c 833d facd 263e a8c7 aebb e98b 383e

lstm.weight_hh_l0 f4 [256, 64]
-0.13404298 0.014428155 0.01556551 0.14725067 0.041555386 0.16250454 0.06819208 -0.08044182
-0.053974044 -0.033391938 -0.03887291 -0.03316267 0.0393215 -0.027641961 0.30267876 0.056997344
0.07689985 0.11598604 -0.02237331 0.01264005 -0.08181758 -0.056679215 0.073653795 -0.14045608
-0.014032076 0.08656886 0.03807662 0.08295647 0.047221832 -0.073894344 0.069481075 -0.008831548
0.0146113755 0.02146815 -0.08630454 0.08405085 0.15817665 -0.10665127 -0.059072223 -0.05895686
0.08441014 0.07446038 -0.14167294 0.06808645 0.020075783 -0.029922012 0.29729822 -0.000809539
-0.11852161 -0.018671134 -0.070864625 0.11015784 0.07855016 -0.10512198 -0.049032174 0.10112116
-0.12520403 -0.05428638 0.12203827 0.0063655777 -0.055255383 0.043948468 -0.12203033 -0.06352214
-0.06466506 -0.135808 0.04367446 0.022289209 -0.0632639 -0.040210024 0.033901315 0.0038496964
-0.031682387 0.002498217 0.10605777 -0.009915442 0.025760487 0.13005584 -0.018777926 -0.059127353
0.050935008 0.09230772 0.052096207 0.16156445 0.056112967 0.07911357 0.12733851 -0.065984555
-0.08273699 -0.039943304 0.009514656 0.01541401 0.10176256 -0.11493414 -0.010954736 -0.060572267
-0.037582245 0.09500613 -0.0853506 -0.061041176 -0.10320078 0.058054116 0.08805011 -0.016703548
0.12553371 -0.17216055 -0.18272212 0.038848985 -0.059030857 0.021709371 0.30923736 0.03214112
0.098898366 -0.06651087 0.009761994 -0.10934781 0.036652416 0.16882484 0.026901208 0.10964335
0.09261517 -0.037900273 0.017772198 -0.04693684 0.052118775 0.031445168 -0.038638737 -0.088665195
0.13302226 0.07949204 -0.06814966 0.09583114 -0.023120401 -0.18247691 0.013101581 -0.11169212
-0.059876915 -0.1714768 -0.04232484 -0.03771057 -0.01630464 0.118517 -0.080954194 0.10905313
0.07564472 -0.020079095 -0.00012551964 0.13458288 0.0663923 0.20311849 0.14072813 0.02841699
-0.06519256 -0.012709209 0.14659767 -0.029192757 0.06455525 -0.12513416 -0.10119622 -0.023520775
0.21272902 -0.16861029 0.033609748 -0.08783234 -0.09463031 0.029998459 -0.07862006 0.018966343
0.18164621 -0.068113334 -0.020453777 0.090440415 0.11833839 0.082758576 0.1630988 0.14515816
0.09794665 -0.09230891 0.059335183 -0.2854983 -0.09106384 -0.34008986 -0.17187938 -0.24133754
-0.02454297 0.03336292 -0.19009653 0.004573039 -0.1530862 0.020977378 -0.023260219 -0.17087592
0.046116143 0.106751844 0.05676356 -0.00034252027 -0.0018562719 0.08885343 0.0023143918 0.021370972
0.043849465 -0.007922477 -0.019148322 0.107437804 -0.0036139437 0.052853975 -0.092347436 0.02517593
0.113023445 0.004166088 -0.12657923 0.1349963 0.08964239 0.14787813 0.16814598 0.16476917
-0.14296198 0.0039572907 0.0016420718 0.10163801 -0.08847564 -0.11434295 -0.027022464 0.051870387
0.068252265 -0.1481013 -0.046483703 -0.0065312823 0.08545054 0.1309588 -0.021260006 0.094571464
0.019252295 0.011252153 0.079900034 0.009601207 0.028661823 0.11220366 -0.15565923 -0.06293879
0.13737929 0.07152081 -0.01534783 -0.11404042 0.08703916 -0.056110922 -0.047843143 -0.18897964
0.15243016 -0.052038837 -0.06909403 0.035676755 -0.049928464 0.08911463 -0.04566481 -0.09488217
00000000: 9042 09be 1164 6c3c 7b06 7f3c e1c8 163e
00000010: fb35 2a3d 9767 263e 4aa8 8b3d aebe a4bd
00000020: e313 5dbd fcc5 08bd 3339 1fbd 94d5 07bd
00000030: 950f 213d 6571 e2bc b6f8 9a3e 0c76 693d
00000040: ab7d 9d3d 178a ed3d 3b48 b7bc 3618 4f3c
00000050: fa8f a7bd 7728 68bd cdd7 963d b8d3 0fbe
00000060: cbe6 65bc 044b b13d 3bf6 1b3d 15e5 a93d
00000070: ae6b 413d eb55 97bd 184c 8e3d 32b2 10bc
00000080: 8d64 6f3c f9dd af3c 6fc0 b0bd da22 ac3d
00000090: 0ff9 213e fb6b dabd b7f5 71bd c07c 71bd
000000a0: 39df ac3d af7e 983d b612 11be e970 8b3d
000000b0: f875 a43c 021f f5bc 7937 983e 3e37 54ba
000000c0: 75bb f2bd 35f4 98bc 7921 91bd 6f9a e13d
000000d0: e8de a03d 314a d7bd f6d5 48bd 9c18 cf3d
000000e0: 7c35 00be 655b 5ebd 33ef f93d 5696 d03b
000000f0: 7853 62bd 4f03 343d 0aeb f9bd e517 82bd
00000100: 1d6f 84bd 4111 0bbe fee3 323d dc97 b63c
00000110: 8190 81bd 44b3 24bd 1bdc 0a3d 304b 7c3b
00000120: 64c5 01bd 20b9 233b d134 d93d 6174 22bc
00000130: a807 d33c 5c2d 053e 2ad4 99bc 862f 72bd
00000140: 3aa1 503d d40b bd3d d562 553d 2771 253e
00000150: b6d6 653d 4c06 a23d 0765 023e e922 87bd
00000160: 0372 a9bd 979b 23bd 5ce3 1b3c 0b8b 7c3c
00000170: e468 d03d 9762 ebbd 7e7b 33bc a01a 78bd
00000180: d7ef 19bd 9392 c23d 4ccc aebd 5006 7abd
00000190: ee5a d3bd 27ca 6d3d 9e53 b43d e1d5 88bc
000001a0: e98b 003e db4a 30be 821b 3bbe 1d20 1f3d
000001b0: 57ca 71bd dad7 b13c 5c54 9e3e 68a6 033d
000001c0: 3a8b ca3d da36 88bd c5f0 1f3c bff1 dfbd
000001d0: d820 163d 6be0 2c3e ec5f dc3c b18c e03d
000001e0: 06ad bd3d 513d 1bbd 0097 913c d840 40bd
000001f0: 7f7a 553d a6cc 003d a743 1ebd 1996 b5bd
00000200: fd36 083e b9cc a23d 0d92 8bbd 1e43 c43d
00000210: ff66 bdbc 3adb 3abe 03a8 563c d7be e4bd
00000220: 7f41 75bd 9d97 2fbe d05c 2dbd 6676 1abd
00000230: 4f91 85bc 0ab9 f23d 50cb a5bd 3f57 df3d
00000240: 9eeb 9a3d ea7c a4bc ec9d 03b9 18d0 093e
00000250: b0f8 873d 4bfe 4f3e 091b 103e bfca e83c
00000260: ad83 85bd 493a 50bc b31d 163e a625 efbc
00000270: 8b35 843d 2b23 00be f73f cfbd a4ae c0bc
00000280: a3d5 593e 2da8 2cbe 60aa 093d 71e1 b3bd
00000290: 89cd c1bd 54bf f53c 8e03 a1bd 4e5f 9b3c
000002a0: 7701 3a3e 017f 8bbd ae8e a7bc d338 b93d
000002b0: 665b f23d 547d a93d 5f03 273e 57a4 143e
000002c0: 4198 c83d 740c bdbd 7309 733d d52c 92be
000002d0: ae7f babd 4220 aebe 2601 30be 3021 77be
000002e0: 570e c9bc 8fa7 083d aaa8 42be 6ed9 953b
000002f0: a1c2 1cbe c0d8 ab3c 378c bebc 19fa 2ebe
00000300: 48e4 3c3d b6a0 da3d e880 683d 4b94 b3b9
00000310: 264e f3ba c9f8 b53d 0dad 173b 2d12 af3c
00000320: 7f9b 333d 47cd 01bc f1dc 9cbc 5a08 dc3d
00000330: ead7 6cbb 697d 583d a720 bdbd c03d ce3c
00000340: d678 e73d ae83 883b fc9d 01be 783c 0a3e
00000350: 6e96 b73d 5d6d 173e 762e 2c3e 40b9 283e
00000360: a064 12be 29ac 813b c93a d73a 9727 d03d
00000370: b732 b5bd a32c eabd 375e ddbc 0b76 543d
00000380: d8c7 8b3d dea7 17be b265 3ebd 5e04 d6bb
00000390: b100 af3d 101a 063e 7729 aebc afae c13d
000003a0: fdb6 9d3c f35a 383c a1a2 a33d 624e 1d3c
000003b0: 33cc ea3c 08cb e53d 2265 1fbe 0de6 80bd
000003c0: 28ad 0c3e 8179 923d 7775 7bbc 068e e9bd
000003d0: 9641 b23d 91d4 65bd 2cf7 43bd e183 41be
000003e0: a716 1c3e ad26 55bd 2c81 8dbd ca21 123d
000003f0: ca81 4cbd bb81 b63d 060b 3bbd 9551 c2bd

lstm.bias_ih_l0 f4 [256]
-0.0024318632 -0.14195289 -0.0060351025 -0.093445055 0.09690977 0.12790933 0.17915942 0.032223307
0.07110086 -0.07789392 0.10085876 -0.010258566 0.07832531 -0.048408262 0.14148974 -0.0818171
-0.12798487 -0.022307279 -0.12654772 -0.09943013 0.11600314 0.12591296 0.00095584826 -0.064952105
0.061678514 0.038213283 0.10226349 0.47474775 -0.0017377737 -0.085850105 -0.06940787 0.074129
-0.12498589 -0.11022911 0.075924344 -0.052424207 0.008893722 0.041492958 0.11052828 0.16771467
-0.11919414 -0.03799415 0.10254411 0.07554457 -0.08429781 0.123391956 0.24004538 -0.08497437
0.014895949 -0.023960477 -0.03414343 0.30129847 -0.03910627 0.09879062 -0.04006376 -0.07908376
0.061241288 0.04670049 -0.114832096 -0.118747264 -0.100171685 0.08658151 0.094484285 0.016011665
0.019456504 0.057166174 -0.037237912 0.099738844 -0.19923909 0.075968765 -0.3887488 -0.05923867
0.18736061 0.042747214 -0.23990722 -0.010124665 0.03387787 -0.026542652 -0.11736544 -0.015337657
-0.118990995 -0.1869279 -0.09509347 -0.22083083 -0.16031855 -0.16200708 -0.15590246 -0.11782703
-0.026532624 -0.105904095 -0.12916115 -0.32104865 -0.058503624 -0.09372234 -0.03701007 -0.07778628
-0.001394711 -0.053373873 -0.15028436 -0.13789043 0.055319056 -0.0007374113 0.06363065 -0.16662851
-0.041239385 -0.06276135 0.06231229 -0.07302899 -0.1432836 -0.0023382152 -0.3986129 0.1382311
-0.09270463 -0.09558978 -0.10661671 -0.35792062 -0.11934821 -0.24688633 -0.030711422 -0.14655498
-0.18528876 -0.11807979 -0.022635996 0.038735334 -0.027302414 -0.10379086 -0.16372131 -0.11595867
0.06371472 0.076586686 -0.050730202 -0.019630536 0.025328489 0.061420035 -0.07724652 -0.093721576
0.08167781 0.036053397 -0.1657894 -0.0045558326 -0.025047572 -0.10413044 -0.0900789 -0.025235051
-0.121842586 0.08015622 0.08655346 0.049051482 -0.016163502 -0.018408015 -0.1649049 -0.034386076
0.002786155 0.016204702 0.10854673 0.056798868 0.01556724 0.109036766 0.08073991 0.02462006
-0.07827123 0.003330772 -0.081548244 0.10341825 -0.032892145 -0.0553894 0.08805392 -0.16326858
-0.1299955 0.0032167798 0.17393816 0.030070297 -0.0829609 -0.15675977 -0.18970677 -0.080531284
0.070333645 0.04931363 0.017650113 0.11926874 0.13063483 0.15405002 0.012312818 0.12033569
-0.01570419 -0.13907368 0.037522804 -0.03786063 0.1593522 -0.037045863 -0.014722678 0.17185767
0.006228893 -0.13660648 -0.06774702 0.1128094 0.18324079 0.113662116 0.02389714 -0.06895359
0.060903165 -0.089129195 0.11203296 0.0012679844 -0.07478256 0.11165423 0.20558274 -0.031011568
-0.040301405 -0.15083815 0.08387544 -0.0431071 0.03561082 0.13554192 0.06609404 -0.043900695
0.025381632 -0.08258472 0.24692196 0.4189705 0.05465921 -0.18388075 0.013681039 0.059513062
-0.12053182 -0.020001372 -0.017543446 -0.01454025 -0.14019427 -0.040488094 0.09834219 -0.021661982
0.088855065 0.008291244 0.0057423017 0.06538198 -0.04641922 -0.048583273 0.1286628 0.0029591587
-0.039865214 -0.023210997 0.06847623 0.06187529 0.03348853 0.115561515 0.0015511846 -0.08089172
0.10327189 -0.007227062 -0.13275546 -0.019518025 0.043981187 0.106509656 -0.018208336 -0.08507968
00000000: e55f 1fbb 195c 11be 1cc2 c5bb 1f60 bfbd
00000010: a178 c63d aafa 023e 9175 373e 96fc 033d
00000020: 549d 913d d986 9fbd 0a8f ce3d 8b13 28bc
00000030: 0569 a03d be47 46bd b0e2 103e b98f a7bd
00000040: 770e 03be c1bd b6bc ba95 01be 06a2 cbbd
00000050: 0e93 ed3d 54ef 003e e491 7a3a 9c05 85bd
00000060: 9ca2 7c3d 8885 1c3d 856f d13d 2312 f33e
00000070: 02c6 e3ba 2ed2 afbd b725 8ebd f2d0 973d
00000080: 9af8 ffbd cdbf e1bd 397e 9b3d c4ba 56bd
00000090: f9b6 113c 85f4 293d a75c e23d 65bd 2b3e
000000a0: 0f1c f4bd c19f 1bbd a502 d23d 1db7 9a3d
000000b0: 55a4 acbd ecb4 fc3d 75ce 753e 0b07 aebd
000000c0: 230e 743c c348 c4bc fbd9 0bbd cb43 9a3e
000000d0: e52d 20bd bd52 ca3d e619 24bd abf6 a1bd
000000e0: 25d8 7a3d 0349 3f3d 172d ebbd c431 f3bd
000000f0: d026 cdbd a651 b13d fa80 c13d e52a 833c
00000100: 3f63 9f3c 1427 6a3d c886 18bd e143 cc3d
00000110: 5505 4cbe 8395 9b3d 150a c7be 3fa4 72bd
00000120: 76db 3f3e b417 2f3d 3daa 75be ece1 25bc
00000130: 85c3 0a3d fa6f d9bc 4b5d f0bd cc4a 7bbc
00000140: 8db1 f3bd 076a 3fbe 5dc0 c2bd 7a21 62be
00000150: 8c2a 24be 2fe5 25be e5a4 1fbe 4c4f f1bd
00000160: f25a d9bc 3fe4 d8bd d242 04be 7d60 a4be
00000170: 7fa1 6fbd 80f1 bfbd df97 17bd 6a4e 9fbd
00000180: bcce b6ba 909e 5abd 25e4 19be 2633 0dbe
00000190: 3c96 623d d64e 41ba c950 823d aaa0 2abe
000001a0: a1ea 28bd 0689 80bd 2c3b 7f3d 3990 95bd
000001b0: f0b8 12be be3c 19bb fd16 ccbe 748c 0d3e
000001c0: eddb bdbd 93c4 c3bd dd59 dabd 5f41 b7be
000001d0: d66c f4bd c5cf 7cbe 8596 fbbc 8212 16be
000001e0: 56bc 3dbe d1d3 f1bd 206f b9bc f1a8 1e3d
000001f0: 50a9 dfbc 4d90 d4bd 8fa6 27be bd7b edbd
00000200: dd7c 823d 7bd9 9c3d 79ca 4fbd 38d0 a0bc
00000210: b17d cf3c 9393 7b3d 6c33 9ebd 19f1 bfbd
00000220: b246 a73d baac 133d b2c4 29be 1849 95bb
00000230: 9130 cdbc 5742 d5bd 497b b8bd bdb9 cebc
00000240: 9b88 f9bd f228 a43d f142 b13d 35ea 483d
00000250: 5269 84bc 68cc 96bc d5dc 28be 6ad8 0cbd
00000260: ed97 363b b9bf 843c bf4d de3d eea5 683d
00000270: bd0d 7f3c ab4e df3d f75a a53d 02b0 c93c
00000280: ab4c a0bd 1549 5a3b c402 a7bd f3cc d33d
00000290: eab9 06bd ffdf 62bd 9d55 b43d e12f 27be
000002a0: 8a1d 05be 9cd0 523b d81c 323e fc55 f63c
000002b0: 68e7 a9bd a285 20be 7e42 42be 96ed a4bd
000002c0: 160b 903d 17fd 493d f896 903c 2b43 f43d
000002d0: 23c5 053e 4abf 1d3e b4bb 493c 8f72 f63d
000002e0: 13a6 80bc 5569 0ebe 83b1 193d bf13 1bbd
000002f0: 392d 233e 67bd 17bd 6337 71bc 75fb 2f3e
00000300: be1b cc3b 92e2 0bbe f3be 8abd 9d08 e73d
00000310: 79a3 3b3e afc7 e83d efc3 c33c 8a37 8dbd
00000320: 9975 793d 5e89 b6bd 8971 e53d 7f32 a63a
00000330: 9927 99bd f9aa e43d 4884 523e f90b febc
00000340: 1613 25bd 5175 1abe e3c6 ab3d 1291 30bd
00000350: a7dc 113d 80cb 0a3e 505c 873d 37d1 33bd
00000360: 24ed cf3c 2d22 a9bd 1cd9 7c3e 4d83 d63e
00000370: 56e2 5f3d 3c4b 3cbe 7026 603c f8c3 733d
00000380: 63d9 f6bd ebd9 a3bc 46b7 8fbc 3b3a 6ebc
00000390: 168f 0fbe d8d6 25bd a167 c93d 7874 b1bc
000003a0: a5f9 b53d ffd7 073c eb29 bc3b fde6 853d
000003b0: 1422 3ebd 41ff 46bd 2ec0 033e 72ee 413b
000003c0: b549 23bd fd24 bebc 443d 8c3d f270 7d3d
000003d0: 452b 093d 84ab ec3d 1e51 cb3a 8faa a5bd
000003e0: 3680 d33d fdd0 ecbb 0cf1 07be 44e4 9fbc
000003f0: 9e25 343d bc21 da3d a629 95bc 413e aebd

lstm.bias_hh_l0 f4 [256]
0.07164733 -0.023261532 -0.09556904 0.11610613 0.16247354 0.11151334 0.24069494 -0.10965913
0.1520596 -0.06983175 0.10360399 0.036599115 0.06542227 -0.045643725 0.16752873 -0.14726683
-0.129605 -0.10361324 0.034616224 -0.06702486 -0.11470151 0.08290062 -0.07780991 -0.17760774
-0.04457082 -0.12839055 0.2198715 0.32606792 0.12488045 0.050105415 -0.051945053 0.05871932
0.045659795 -0.0924994 -0.03371087 -0.15423098 -0.1541125 0.00354493 -0.039484236 0.062308326
-0.07262825 -0.12222291 0.06608653 -0.090112604 -0.14439581 0.08926495 0.19597986 -0.10600845
-0.029209195 0.09993469 0.07064206 0.18781297 0.05124613 -0.0056763603 -0.12524992 -0.04409787
0.04694166 -0.12250364 -0.1711247 -0.10592763 0.0726682 0.10174955 -0.079971634 -0.1500859
-0.17008886 -0.05669664 -0.18931153 -0.083273016 -0.27197504 0.09228716 -0.32253537 0.08044481
0.21342415 -0.07804009 -0.040301822 0.03196157 0.16547431 0.02558581 -0.06846966 -0.009595223
-0.16329244 -0.15213841 -0.11184123 -0.036831208 -0.24007322 -0.105333626 -0.03839183 -0.109689474
-0.16400339 -0.106281266 -0.1479686 -0.3704383 0.060899317 -0.113826156 -0.020593714 0.002050422
-0.029915234 -0.1989915 -0.044338286 0.0083539635 0.04177006 -0.12721245 -0.05118382 -0.23897533
-0.024275644 -0.0018352554 0.13338605 0.0012932878 0.048909664 0.06543922 -0.378336 0.059162397
0.057024144 -0.101112336 0.076573856 -0.30478415 -0.10234539 -0.289431 0.0020468554 -0.0066546956
-0.23717621 -0.026404694 0.050341245 0.08303941 -0.19078887 -0.11257491 -0.051837303 -0.039365746
-0.12852472 0.081286795 -0.001110725 0.16796513 0.103107885 0.13584869 -0.08033809 0.13339189
0.13325274 -0.10948628 -0.015080721 -0.024632955 -0.085124284 0.005137692 -0.14888056 -0.057102755
-0.051685758 -0.02397112 0.014415738 -0.17879428 -0.040207077 -0.120440096 -0.03805428 -0.032592952
-0.03309174 -0.016871754 0.14962995 0.12569807 -0.07149543 -0.06448519 -0.013761623 -0.15160853
-0.025820263 0.092881694 0.014757628 0.059812766 9.031417e-05 -0.049904045 0.10147679 -0.0077648796
-0.08519541 0.12978175 -0.044913605 -0.14323121 0.035483982 -0.049494803 -0.0672906 -0.010186716
-0.08249385 0.08200464 -0.035692506 -0.0065975683 0.116170466 -0.00646123 0.11685313 -0.013172233
-0.048921317 0.052180976 0.02835733 0.15058683 -0.039874747 0.12026894 -0.08790041 -0.05080329
-0.06899207 -0.16625315 -0.14649451 0.07108267 -0.04192809 0.15912658 0.061964884 0.084561445
0.11601835 0.07904041 0.181568 0.008177327 -0.047281977 0.07777164 0.22430316 0.048874963
0.07335566 0.020673543 0.06042234 -0.0018643982 0.015958332 0.062131986 0.03164966 -0.023456184
-0.13146527 -0.09923216 0.16493459 0.4003257 0.07257129 -0.13075234 -0.07570647 0.14471474
-0.13061003 -0.13649145 -0.01396084 -0.029044801 -0.032167763 -0.011846854 0.0061294367 -0.010152438
-0.005032121 -0.007095111 0.11576342 0.055039197 -0.016423143 -0.05475327 0.16998 0.049385402
0.0044950177 -0.034725744 -0.031953964 0.19451793 -0.041507993 0.022138493 -0.06538525 -0.15063223
0.012604313 -0.08384614 -0.09738422 0.0798422 -0.14849353 -0.052478135 -0.16914229 -0.09669629
00000000: d6bb 923d f88e bebc b3b9 c3bd 0dc9 ed3d
00000010: 775f 263e 1b61 e43d bc78 763e f794 e0bd
00000020: 83b5 1b3e f303 8fbd 542e d43d f4e8 153d
00000030: 1cfc 853d eaf4 3abd a78c 2b3e 1ecd 16be
00000040: 2cb7 04be 2e33 d4bd bec9 0d3d 5444 89bd
00000050: a0e8 eabd cdc7 a93d cd5a 9fbd cede 35be
00000060: e48f 36bd d078 03be ff25 613e 60f2 a63e
00000070: 52c1 ff3d 563b 4d3d 56c4 54bd ab83 703d
00000080: c405 3b3d 5370 bdbd 6914 0abd baee 1dbe
00000090: abcf 1dbe 0e52 683b 39ba 21bd 0437 7f3d
000000a0: 1fbe 94bd 0150 fabd 6058 873d f58c b8bd
000000b0: 7fdc 13be 8bd0 b63d f2ae 483e f51a d9bd
000000c0: 1f48 efbc 8faa cc3d c9ac 903d 0b52 403e
000000d0: 76e7 513d c300 babb 8441 00be f89f 34bd
000000e0: e645 403d 30e3 fabd 503b 2fbe 96f0 d8bd
000000f0: 11d3 943d 1162 d03d 2bc8 a3bd 1eb0 19be
00000100: c62b 2ebe bc3a 68bd e2da 41be 0b8b aabd
00000110: 5040 8bbe 0d01 bd3d 5b23 a5be 40c0 a43d
00000120: dc8b 5a3e 7cd3 9fbd 8613 25bd 23ea 023d
00000130: 1972 293e 5599 d13c d239 8cbd 4835 1dbc
00000140: 2236 27be 2cca 1bbe 040d e5bd 52dc 16bd
00000150: c1d5 75be 28b9 d7bd c040 1dbd e0a4 e0bd
00000160: 81f0 27be fea9 d9bd 1585 17be 17aa bdbe
00000170: 9071 793d b01d e9bd 26b4 a8bc 5f60 063b
00000180: cb10 f5bc 6ec4 4bbe 109c 35bd 10df 083c
00000190: 1517 2b3d fb43 02be 20a6 51bd f3b5 74be
000001a0: b7dd c6bc f48c f0ba 5a96 083e 8a83 a93a
000001b0: 8055 483d ff04 863d 42b5 c1be 4554 723d
000001c0: 2692 693d fc13 cfbd c1d2 9c3d ab0c 9cbe
000001d0: 769a d1bd 4d30 94be 8924 063b a20f dabb
000001e0: 52de 72be a84e d8bc 9f32 4e3d 9110 aa3d
000001f0: 285e 43be ad8d e6bd 5a53 54bd fa3d 21bd
00000200: fc9b 03be b179 a63d bf95 91ba 0dff 2b3e
00000210: 3a2a d33d eb1b 0b3e 4c88 a4bd e297 083e
00000220: 6873 083e 583a e0bd 2115 77bc 0dcb c9bc
00000230: a455 aebd 165a a83b 2574 18be 94e4 69bd
00000240: 72b4 53bd 155f c4bc fd2f 6c3c d915 37be
00000250: 2db0 24bd 4ca9 f6bd cede 1bbd 3080 05bd
00000260: 348b 07bd a236 8abc 9838 193e ffb6 003e
00000270: 326c 92bd d010 84bd 6e78 61bc 443f 1bbe
00000280: 0485 d3bc c238 be3d fac9 713c 3bfe 743d
00000290: 0d67 bd38 2f68 4cbd 10d3 cf3d 8870 febb
000002a0: ee7a aebd 82e5 043e 54f7 37bd 34ab 12be
000002b0: a757 113d 10bb 4abd a7cf 89bd 2fe6 26bc
000002c0: 89f2 a8bd 0cf2 a73d 4e32 12bd 6a30 d8bb
000002d0: c8ea ed3d bab8 d3bb b250 ef3d 59d0 57bc
000002e0: b861 48bd b8bb 553d a24d e83c 6f33 1a3e
000002f0: b453 23bd 904f f63d 2105 b4bd 1c17 50bd
00000300: b74b 8dbd 443e 2abe a802 16be ca93 913d
00000310: cabc 2bbd 14f2 223e e4ce 7d3d 8d2e ad3d
00000320: 079b ed3d f0df a13d f6ec 393e 32fa 053c
00000330: bfaa 41bd bd46 9f3d baaf 653e 1d31 483d
00000340: 7e3b 963d 905b a93c 6a7d 773d d35e f4ba
00000350: 0cbb 823c 1c7e 7e3d 13a3 013d 2f27 c0bc
00000360: d59e 06be 3b3a cbbd 9de4 283e 7df7 cc3e
00000370: 42a0 943d f1e3 05be fe0b 9bbd 1a30 143e
00000380: a3be 05be 6ac4 0bbe 02bc 64bc 5def edbc
00000390: 58c2 03bd 4f19 42bc 71d9 c83b 6956 26bc
000003a0: 7ee4 a4bb 1b7e e8bb 5f15 ed3d c870 613d
000003b0: d489 86bc f744 60bd 3d0f 2e3e 5948 4a3d
000003c0: f14a 933b 953c 0ebd 29e2 02bd b52f 473e
000003d0: 4904 2abd c95b b53c b4e8 85bd 563f 1abe
000003e0: 5282 4e3c 86b7 abbd 6171 c7bd 4f84 a33d
000003f0: b00e 18be 50f3 56bd a333 2dbe b408 c6bd

lstm.weight_ih_l1 f4 [256, 64]
-0.100879304 0.0855594 -0.057652522 -0.028345222 -0.015481658 -0.10917304 0.006744808 0.015681952
0.020968447 -0.03153066 -0.041766778 0.069182165 0.034195192 -0.05731161 -0.046299454 0.07459077
-0.09007224 0.06816904 -0.017581346 0.06623129 0.08206434 0.15922879 -0.0847193 0.07487637
0.032694023 0.069376945 -0.09631381 -0.027822481 -0.016843854 -0.11368843 -0.0022097696 0.14189644
-0.053737897 -0.07214893 0.015600187 0.021707382 0.056321964 -0.12349678 0.09747053 0.15408853
-0.096399866 0.015675845 0.06530328 0.115425594 0.08544308 0.10794035 0.18918106 0.09859523
-0.10653029 -0.05473804 0.08860554 -0.10834459 -0.032719698 -0.12742311 0.11854793 -0.13697462
0.09033672 -0.09018221 -0.030445727 -0.121072635 0.073032215 0.005525333 0.008083677 0.06743102
-0.08119392 0.052925464 0.084889285 0.0037047716 0.012261607 -0.12747614 0.0057281563 -0.11890884
-0.009431387 0.009716154 0.10704976 -0.1323925 0.112322666 0.040475488 -0.08450745 0.057461917
0.04514288 0.090792626 -0.07499049 -0.00463077 -0.042568155 0.11975723 -0.03160599 -0.021306511
0.10725429 -0.092898816 0.032842543 -0.14595422 -0.028649118 0.06236182 0.06969538 0.11113313
0.012862548 0.11092912 -0.061988294 0.14303012 -0.031587366 -0.08295032 0.073594145 0.11051329
0.100936234 0.028368449 -0.08056017 -0.100368544 -0.069636926 -0.084653094 0.08396938 0.038625356
0.07734389 0.0016329724 -0.17351039 0.0189278 0.013275961 0.05194772 -0.00069186377 0.06516659
0.02996696 0.0013052843 0.017107962 -0.0015610807 0.058140103 -0.03333293 -0.035634637 -0.043707415
-0.10543708 -0.025003131 0.045832343 -0.0036124415 0.10012193 -0.050442047 0.054707166 -0.06085223
-0.057654835 -0.048409533 0.11764973 0.09458907 0.12186163 -0.07634604 0.06949018 0.10868735
-0.08683004 0.04592525 -0.05635714 0.094245784 0.12469391 -0.003463076 0.019470923 0.030052701
-0.07620411 -0.11143617 -0.23273188 -0.22245981 -0.0160207 -0.031336136 -0.047768697 -0.011779317
-0.06845784 0.05420853 -0.06323015 0.010795407 -0.055668384 -0.03789285 0.012658688 0.14815275
0.0545483 -0.06946327 -0.13587517 0.058936402 -0.084346734 -0.046822224 0.13965283 -0.047800202
-0.070456296 0.07276579 -0.043451134 -0.10701647 0.01678991 -0.14148238 0.036072362 -0.11129983
-0.08357736 0.08044986 0.04788068 0.09712433 0.0006428826 -0.0038626387 -0.11518582 0.040841762
-0.037022904 0.07647033 0.028316854 0.08848483 -0.14161958 -0.1881282 0.22807777 0.056990117
-0.08210379 -0.025685268 -0.009865014 -0.012271626 0.08391418 -0.075152926 0.058463756 -0.024447648
0.07550192 -0.1119103 0.038593244 0.14591512 -0.010226955 0.14820048 -0.05976055 0.012952656
0.07800185 0.04202172 -0.23609143 -0.17433928 0.0413783 -0.046944875 -0.047813162 0.027764931
0.015700942 0.08423752 -0.042672854 0.009372027 -0.028235251 0.047181394 0.028907448 0.12203275
-0.031246755 -0.14829957 0.021664362 -0.017748134 -0.124372944 -0.0143728675 0.26654008 -0.13458498
0.08428714 0.008359405 0.10604204 -0.12169764 0.06750795 -0.08280486 -0.025797924 -0.04973278
-0.01740588 0.09186867 -0.16018693 -0.119903505 -0.014371431 0.077875204 0.12867655 0.099803954
00000000: cf99 cebd c439 af3d 0d25 6cbd 3d34 e8bc
00000010: c8a6 7dbc 1d96 dfbd 8d03 dd3b 7077 803c
00000020: 05c6 ab3c 4b26 01bd a413 2bbd 61af 8d3d
00000030: 4210 0c3d 94bf 6abd 7fa4 3dbd 0cc3 983d
00000040: cb77 b8bd 369c 8b3d c106 90bc 45a4 873d
00000050: 5911 a83d df0c 233e 5081 adbd c858 993d
00000060: 2bea 053d 8015 8e3d 2d40 c5bd f9eb e3bc
00000070: 1ffc 89bc 7bd5 e8bd c8d1 10bb 4d4d 113e
00000080: 451c 5cbd d1c2 93bd ed97 7f3c aed3 b13c
00000090: dcb1 663d e1eb fcbd a19e c73d 62c9 1d3e
000000a0: 4b6d c5bd a16a 803c babd 853d 4164 ec3d
000000b0: c8fc ae3d d50f dd3d aeb8 413e 4cec c93d
000000c0: 8d2c dabd ff34 60bd d276 b53d c5e3 ddbd
000000d0: 1705 06bd 347b 02be 42c9 f23d 1343 0cbe
000000e0: 7502 b93d 73b1 b8bd 5169 f9bc eef4 f7bd
000000f0: ea91 953d da0d b53b 6671 043c 4619 8a3d
00000100: ff48 a6bd 5fc8 583d 6fda ad3d c1cb 723b
00000110: e8e4 483c 1b89 02be 42b3 bb3b 7a86 f3bd
00000120: 1b86 1abc 8130 1f3c e83c db3d e691 07be
00000130: 6d09 e63d a0c9 253d 3e12 adbd 305d 6b3d
00000140: bee7 383d 7cf1 b93d 9d94 99bd b7bd 97bb
00000150: f25b 2ebd 4743 f53d 4875 01bd fe8a aebc
00000160: 23a8 db3d bc41 bebd e785 063d 0675 15be
00000170: 8eb1 eabc 1c6f 7f3d 74bc 8e3d c499 e33d
00000180: 70bd 523c ce2e e33d 70e7 7dbd 7d76 123e
00000190: c161 01bd dbe1 a9bd 87b8 963d cb54 e23d
000001a0: a8b7 ce3d f364 e83c bbfc a4bd 068e cdbd
000001b0: ce9d 8ebd 9a5e adbd 23f8 ab3d 9f35 1e3d
000001c0: 7966 9e3d 7609 d63a b5ac 31be 790e 9b3c
000001d0: 6b83 593c 22c7 543d 315e 35ba 1076 853d
000001e0: 457d f53c 1316 ab3a ff25 8c3c 2d9d ccba
000001f0: 5124 6e3d 1c88 08bd a0f5 11bd 8c06 33bd
00000200: 65ef d7bd 5ed3 ccbc b2ba 3b3d b6be 6cbb
00000210: ba0c cd3d 529c 4ebd 9f14 603d 3040 79bd
00000220: 7a27 6cbd 1349 46bd 57f2 f03d eab7 c13d
00000230: 9792 f93d 505b 9cbd de50 8e3d 7997 de3d
00000240: f3d3 b1bd 1d1c 3c3d bfd6 66bd ef03 c13d
00000250: 855f ff3d c6f4 62bb 7c81 9f3c 1531 f63c
00000260: e710 9cbd a638 e4bd 4451 6ebe 81cc 63be
00000270: d83d 83bc 525a 00bd 1ca9 43bd 09fe 40bc
00000280: a033 8cbd c309 5e3d cf7e 81bd 38df 303c
00000290: 8804 64bd 8835 1bbd 6366 4f3c 5bb5 173e
000002a0: 0a6e 5f3d c242 8ebd dc22 0bbe 4c67 713d
000002b0: fbbd acbd a9c8 3fbd 2701 0f3e 25ca 43bd
000002c0: 644b 90bd 3b06 953d d1f9 31bd 732b dbbd
000002d0: fe8a 893c c2e0 10be 9dc0 133d 2af1 e3bd
000002e0: 9b2a abbd e5c2 a43d 881e 443d 1fe9 c63d
000002f0: 1f87 283a 5324 7dbb 8be6 ebbd b149 273d
00000300: 54a5 17bd 7a9c 9c3d bff8 e73c 8937 b53d
00000310: b904 11be aea4 40be 388d 693e 786e 693d
00000320: 0826 a8bd e969 d2bc dea0 21bc ee0e 49bc
00000330: 33db ab3d c7e9 99bd b177 6f3d 6f46 c8bc
00000340: c0a0 9a3d 3a31 e5bd f313 1e3d c66a 153e
00000350: f58e 27bc dec1 173e 7ac7 74bd 6037 543c
00000360: 6fbf 9f3d f81e 2c3d f4c1 71be ff85 32be
00000370: 4b7c 293d 4549 40bd bcd7 43bd 4873 e33c
00000380: 439f 803c b984 ac3d bbc9 2ebd 218d 193c
00000390: 9d4d e7bc 4741 413d 50cf ec3c 4eec f93d
000003a0: 32f9 ffbc d8db 17be 7679 b13c 8964 91bc
000003b0: 3eb7 febd 2d7c 6bbc f177 883e a5d0 09be
000003c0: bc9e ac3d e3f5 083c 922c d93d 9d3c f9bd
000003d0: 9c41 8a3d 9895 a9bd 2b56 d3bc 99b4 4bbd
000003e0: c796 8ebc a425 bc3d 0b08 24be f88f f5bd
000003f0: 2776 6bbc 097d 9f3d c9c3 033e 0466 cc3d

lstm.weight_hh_l1 f4 [256, 64]
-0.03388756 -0.050699316 0.06847515 -0.07007933 0.07733141 0.14930497 0.04826096 -0.0036238327
-0.09033754 -0.013667274 0.061780773 -0.04293922 -0.07013806 0.010716085 -0.15524323 0.043915074
-0.004082215 -0.10189352 0.049316116 -0.07089855 0.05781267 0.13269551 -0.049100067 -0.13409075
-0.050375726 0.030924477 0.10304027 0.07262175 -0.0059652375 -0.06942469 -0.07252109 -0.06298184
-0.05029678 0.031976677 -0.080382735 -0.05223143 0.060069606 0.012708313 0.13393171 0.02762209
0.048364274 -0.14204298 -0.03611499 -0.16504984 0.04342778 0.09627122 0.027163507 -0.123357095
0.13449514 0.026378464 0.06532878 0.08657869 0.05713509 -0.095753394 -0.0925615 -0.0783453
0.12870297 0.13805658 -0.15014419 -0.057541348 0.06681123 0.032894347 -0.098972596 -0.11208124
-0.06265774 0.027368052 0.04849494 -0.06249431 0.05037227 0.048732523 -0.06603521 -0.014895611
-0.035209887 0.0015019564 -0.086066954 0.13310441 -0.03251345 -0.053281363 0.06151807 -0.048805594
0.109846465 0.056928 0.11313468 -0.021109805 -0.073578574 -0.032549378 0.03416762 0.026918076
-0.021861127 0.16089143 -0.08775635 0.07640542 -0.14025462 0.062137604 -0.02446502 0.12635545
-0.092605464 0.003964421 0.028919492 -0.06557657 0.1410304 0.14195429 0.15020712 0.07628545
0.08303229 -0.09508054 0.13071056 0.05700587 -0.083532706 -0.10156382 -0.014703194 -0.104303226
0.10535946 0.08100024 0.12088485 0.109879375 -0.10032716 0.12677489 -0.09020173 -0.00295782
0.019186383 -0.0023428176 -0.032161508 0.11756409 -0.020246308 0.15443671 -0.016492795 0.11030747
0.074798435 0.050939992 0.10905144 -0.04119355 -0.015077969 0.04958783 0.05793505 0.09785864
-0.018095532 0.014263381 0.03823478 -0.037898548 -0.013088597 0.039015867 -0.103488594 -0.079852745
-0.14286779 -0.051999677 0.08064218 0.030951677 0.11450963 -0.020040514 0.011458011 0.028923452
0.017421758 0.036837716 -0.07917879 -0.01649971 -0.1419558 0.10301059 0.05012132 0.11376123
0.04165261 0.013342798 -0.00084381195 -0.109325215 -0.043906298 0.14032525 0.04376543 0.09821093
0.09883838 -0.13806191 0.019858574 -0.0682935 0.06810371 -0.03703293 -0.045231692 0.049092464
-0.084372096 -0.047024556 0.1491179 -0.090539336 0.016140303 -0.06664942 -0.14399274 0.03648899
-0.093039684 -0.019437898 0.030111207 0.0790084 0.09406317 0.11279484 0.027138656 0.051935878
-0.10901227 0.06830013 0.073479846 -0.0599918 0.05969664 0.08466041 -0.025759183 0.1089194
-0.099873684 -0.10760546 0.0023824917 0.0479294 -0.06296713 0.094800934 -0.15263979 -0.05493466
-0.025161393 -0.0071974983 0.11785994 0.050591 -0.00071614614 -0.031186566 0.101894125 0.053777356
0.0074569117 -0.101386756 0.043005083 0.054407943 0.0069207745 -0.037011445 -0.035339393 0.062094167
-0.07120329 0.02314497 -0.09135652 -0.06280188 -0.019323127 -0.081282616 0.018294176 0.08930681
-0.08918167 0.008484383 0.04483783 -0.17451507 0.13066201 0.10100125 0.03155107 -0.12571928
0.001486872 0.054857124 -0.05540582 -0.061651368 0.026181351 -0.06444795 0.11024596 -0.058968674
0.09340879 -0.098826036 -0.02598698 -0.003737504 0.070773676 0.07211671 -0.0056878924 0.07102832
00000000: afcd 0abd 16aa 4fbd b33c 8c3d c085 8fbd
00000010: ee5f 9e3d 67e3 183e 49ad 453d d37d 6dbb
00000020: e302 b9bd b4ec 5fbc d60d 7d3d 09e1 2fbd
00000030: 8ba4 8fbd 8592 2f3c 15f8 1ebe 4be0 333d
00000040: 1ac4 85bb 8dad d0bd b2ff 493d 4233 91bd
00000050: facc 6c3d 55e1 073e 271d 49bd 164f 09be
00000060: c756 4ebd 5455 fd3c c706 d33d b6ba 943d
00000070: 0a78 c3bb 882e 8ebd f085 94bd 9ffc 80bd
00000080: ff03 4ebd faf9 023d b49f a4bd a0f0 55bd
00000090: 8c0b 763d 8736 503c 6525 093e b947 e23c
000000a0: 9e19 463d b773 11be 50ed 13bd d302 29be
000000b0: 54e1 313d d829 c53d 0186 de3c a5a2 fcbd
000000c0: 18b9 093e a617 d83c 18cb 853d 2b50 b13d
000000d0: 7c06 6a3d 5b1a c4bd e290 bdbd 8073 a0bd
000000e0: b6ca 033e b45e 0d3e 66bf 19be 7ab0 6bbd
000000f0: 53d4 883d 39bc 063d 25b2 cabd d98a e5bd
00000100: b452 80bd f732 e03c a1a2 463d 09fa 7fbd
00000110: 2753 4e3d c19b 473d 783d 87bd b90c 74bc
00000120: 3e38 10bd 4bdd c43a df43 b0bd 864c 083e
00000130: d32c 05bd 8f3d 5abd 5ffa 7b3d 60e8 47bd
00000140: 2ff7 e03d 562d 693d 28b3 e73d 78ee acbc
00000150: 5db0 96bd 7f52 05bd 59f3 0b3d 4c83 dc3c
00000160: 1b16 b3bc b9c0 243e 9ab9 b3bd 727a 9c3d
00000170: e89e 0fbe 0084 7e3d de6a c8bc 5363 013e
00000180: efa7 bdbd f9e7 813b 92e8 ec3c 024d 86bd
00000190: 466a 103e 775c 113e e5cf 193e 8c3b 9c3d
000001a0: d50c aa3d 96b9 c2bd fdd8 053e fd7e 693d
000001b0: 3213 abbd b100 d0bd aae5 70bc ee9c d5bd
000001c0: b3c6 d73d 74e3 a53d 7a92 f73d 7008 e13d
000001d0: 5378 cdbd 47d1 013e afbb b8bd fcd7 41bb
000001e0: c32c 9d3c f589 19bb c9bb 03bd 71c5 f03d
000001f0: 96db a5bc a824 1e3e e61b 87bc e2e8 e13d
00000200: ec2f 993d 74a6 503d 5d56 df3d 91ba 28bd
00000210: 9609 77bc 9c1c 4b3d 4e4d 6d3d 1c6a c83d
00000220: 153d 94bc f5b0 693c 139c 1c3d 823b 1bbd
00000230: 8e71 56bc 1acf 1f3d d4f1 d3bd d689 a3bd
00000240: ef4b 12be 9dfd 54bd ba27 a53d 5f8e fd3c
00000250: 0684 ea3d 012c a4bc 62ba 3b3c e0f0 ec3c
00000260: 13b8 8e3c 25e3 163d 7d28 a2bd 662a 87bc
00000270: dc5c 11be 37f7 d23d 034c 4d3d a6fb e83d
00000280: ed9b 2a3d c09b 5a3c 4333 5dba e6e5 dfbd
00000290: 17d7 33bd 6cb1 0f3e 6143 333d d022 c93d
000002a0: c76b ca3d 1a60 0dbe 73ae a23c 76dd 8bbd
000002b0: f579 8b3d d7af 17bd de44 39bd 2e15 493d
000002c0: 47cb acbd d29c 40bd 5db2 183e b06c b9bd
000002d0: ab38 843c 7e7f 88bd d572 13be 7b75 153d
000002e0: 978b bebd 3a3c 9fbc c7ab f63c 28cf a13d
000002f0: 31a4 c03d fb00 e73d e351 de3c b7ba 543d
00000300: d341 dfbd f0e0 8b3d 9a7c 963d f6b9 75bd
00000310: 7784 743d 7062 ad3d ec04 d3bc 2211 df3d
00000320: 938a ccbd 4060 dcbd 9423 1c3b 9e51 443d
00000330: e9f4 80bd fe26 c23d 9b4d 1cbe 2b03 61bd
00000340: 441f cebc fed8 ebbb 8d60 f13d 8238 4f3d
00000350: c1bb 3bba f87a ffbc dead d03d a545 5c3d
00000360: 1c59 f43b dca3 cfbd 1926 303d ddda 5e3d
00000370: aac7 e23b 5099 17bd 0ac0 10bd 7456 7e3d
00000380: 08d3 91bd 859a bd3c 2119 bbbd 469e 80bd
00000390: 894b 9ebc 8077 a6bd abdd 953c 7de6 b63d
000003a0: e1a4 b6bd 1502 0b3c dfa7 373d 14b4 32be
000003b0: 43cc 053e bed9 ce3d b23b 013d 8ebc 00be
000003c0: 25e3 c23a ddb1 603d 37f1 62bd 2586 7cbd
000003d0: 467a d63c 49fd 83bd a2c8 e13d 2389 71bd
000003e0: 1c4d bf3d 4e65 cabd a6e2 d4bc e9f0 74bb
000003f0: caf1 903d edb1 933d 8061 babb 4c77 913d

lstm.bias_ih_l1 f4 [256]
0.017891502 0.025837475 0.057389602 -0.038597215 0.043503493 -0.12269778 -0.007134128 -0.1475755
0.11713601 0.079179406 -0.13028087 0.018377863 0.06749754 -0.106804535 -0.020042025 0.016878614
-0.021351317 -0.030024532 -0.048659965 0.061163872 -0.17406692 -0.06658699 0.028455306 0.1178896
-0.035874758 0.020002967 -0.16605626 -0.018665787 0.033602886 0.08437382 -0.06471404 -0.018654078
-0.06524478 0.11089897 -0.094992675 -0.0828234 -0.038799472 -0.08556749 0.06268495 0.106161706
-0.0276924 0.03145665 -0.147361 -0.0438468 0.10328533 -0.045703705 0.013391562 -0.13088581
-0.04807696 -0.15502994 -0.13278425 -0.073179536 -0.1778663 0.080561325 -0.034035794 -0.0019343194
-0.062260192 -0.026225857 -0.061087023 0.01978298 -0.09803679 -0.047380846 0.0756606 -0.16373058
-0.029214408 0.02063674 0.1076821 -0.055655316 -0.05577505 -0.04879498 -0.030629044 -0.009868101
0.12255332 -0.13786918 -0.14201774 -0.21563488 -0.072233446 -0.024793228 -0.008089598 0.0776732
0.009646998 -0.116613105 -0.04114833 0.24130782 -0.095699765 0.09396372 -0.083217725 -0.010747112
0.15759218 0.0521875 -0.034087952 -0.17476378 -0.029227328 0.0011529588 -0.08890429 0.021157399
-0.11140811 -0.06568704 -0.12280661 0.101671875 0.1773218 -0.016278453 0.082751825 -0.084726185
-0.018800694 -0.115651704 -0.10545176 -0.18135875 0.13380253 -0.16608673 0.06490604 0.009362302
0.11940483 0.00042858897 -0.023985017 0.04952759 -0.20878717 -0.092560835 0.07356908 -0.020676116
0.024908565 0.09370927 0.085127205 0.0054615615 -0.09085266 0.0029639993 0.08674691 0.04889525
-0.0489261 -0.07669091 0.061383728 0.04377149 -0.09166908 -0.047187336 0.13706633 0.12153647
0.0060455636 0.09519549 -0.08184692 -0.057732593 0.016467638 -0.10703654 0.10351821 0.039393175
0.03972454 0.064320356 -0.13514979 -0.049624324 -0.049168345 -0.10997639 0.046412516 0.09836955
0.10972582 -0.097540446 -0.04025723 -0.07551659 0.12578519 -0.08355227 0.043794587 0.024796033
-0.07911226 -0.09218645 0.009218389 0.12551835 -0.01985403 -0.14001083 -0.011624692 0.07652691
-0.07878125 0.1337429 0.040534448 -0.04266084 0.15001962 -0.09249008 0.012634354 0.034683164
-0.12928297 0.04918968 -0.14399469 -0.027599078 -0.014855384 -0.10446928 0.07188569 0.053813763
0.020162193 0.012513059 0.086655565 -0.09453684 -0.0835222 0.009362396 -0.06257582 -0.05381511
0.10088676 -0.093679056 0.031190887 -0.00045703736 0.067140386 -0.12648158 -0.09268237 -0.062265605
0.064750955 0.033947058 -0.21747276 0.010883564 0.008304812 0.0098185465 -0.018466987 0.09911371
-0.23687196 -0.07829086 0.08364554 0.086700305 -0.12177684 0.021441204 0.10615206 -0.0057851737
0.11050943 -0.05899978 -0.15750158 -0.16924769 -0.041925885 0.042040467 -0.07282138 -0.117961824
-0.1519676 -0.09720427 -0.07569754 -0.14917456 0.08111477 0.08876217 0.03655555 -0.012515053
-0.038752247 -0.091891125 0.05585949 0.058811136 -0.09261927 -0.046940852 -0.013467479 -0.023073757
-0.05918958 -0.11995893 -0.09030006 0.10982864 -0.009919915 -0.13018213 0.076983735 -0.20083983
-0.046749137 0.0053317123 -0.11342643 0.02292694 -0.022551624 -0.15885101 -0.040497404 0.015048211
00000000: 3391 923c 1da9 d33c 5c11 6b3d 1d18 1ebd
00000010: b830 323d f948 fbbd 67c5 e9bb 081e 17be
00000020: 01e5 ef3d d028 a23d 5968 05be 2c8d 963c
00000030: 263c 8a3d 56bc dabd 2c2f a4bc 0545 8a3c
00000040: f5e8 aebc 02f6 f5bc ac4f 47bd f886 7a3d
00000050: 993e 32be c35e 88bd 1a1b e93c 1a70 f13d
00000060: 69f1 12bd 43dd a33c a70a 2abe fee8 98bc
00000070: 2ea3 093d 2ecc ac3d cb88 84bd 70d0 98bc
00000080: 0e9f 85bd 001f e33d 858b c2bd 519f a9bd
00000090: 32ec 1ebd 023e afbd f860 803d 4f6b d93d
000000a0: 2cdb e2bc b0d8 003d cde5 16be b498 33bd
000000b0: 4287 d33d cf33 3bbd 4868 5b3c ee06 06be
000000c0: 59ec 44bd 2bc0 1ebe 98f8 07be 27df 95bd
000000d0: 9522 36be 56fd a43d 1e69 0bbd fd88 fdba
000000e0: 8b04 7fbd 9cd7 d6bc 6336 7abd eb0f a23c
000000f0: 83c7 c8bd 6b12 42bd f2f3 9a3d fda8 27be
00000100: 0e53 efbc 610e a93c 6f88 dc3d d4f6 63bd
00000110: 6174 64bd 3fdd 47bd c3e9 fabc d1ad 21bc
00000120: 3cfd fa3d 942d 0dbe 196d 11be 64cf 5cbe
00000130: 21ef 93bd 2b1b cbbc 3c8a 04bc 2013 9f3d
00000140: 710e 1e3c dad2 eebd 278b 28bd 6619 773e
00000150: 3dfe c3bd 0d70 c03d 0e6e aabd a814 30bc
00000160: d85f 213e 8fc2 553d cf9f 0bbd 47f5 32be
00000170: 266e efbc e11e 973a 7413 b6bd 4852 ad3c
00000180: ef29 e4bd ed86 86bd 0882 fbbd 5839 d03d
00000190: d993 353e 645a 85bc ca79 a93d ec84 adbd
000001a0: ea03 9abc cdda ecbd 18f7 d7bd 1cb6 39be
000001b0: 8803 093e a412 2abe 75ed 843d 5764 193c
000001c0: 858a f43d 3db4 e039 3a7c c4bc 71dd 4a3d
000001d0: 4ecc 55be 8990 bdbd 63ab 963d f560 a9bc
000001e0: 0c0d cc3c a5ea bf3d 2c57 ae3d e6f6 b23b
000001f0: f610 babd a83f 423b 5da8 b13d 6346 483d
00000200: bc66 48bd 2010 9dbd 816d 7b3d bc49 333d
00000210: 00bd bbbd 8247 41bd 1e5b 0c3e 1de8 f83d
00000220: dd19 c63b daf5 c23d 5c9f a7bd 0379 6cbd
00000230: 24e7 863c f935 dbbd 5b01 d43d bd5a 213d
00000240: 33b6 223d 64ba 833d b564 0abe e042 4bbd
00000250: bf64 49bd 4d3b e1bd 0d1b 3e3d fa75 c93d
00000260: eeb7 e03d 49c3 c7bd c4e4 24bd 71a8 9abd
00000270: d5cd 003e 741d abbd f461 333d 0d21 cb3c
00000280: 9c05 a2bd 40cc bcbd ba08 173c e287 003e
00000290: eba4 a2bc 005f 0fbe 7e75 3ebc 24ba 9c3d
000002a0: 1058 a1bd e6f3 083e 7307 263d 22bd 2ebd
000002b0: be9e 193e 706b bdbd 5200 4f3c ef0f 0e3d
000002c0: c162 04be 1e7b 493d 5873 13be 7617 e2bc
000002d0: ff63 73bc fdf3 d5bd ce38 933d d26b 5c3d
000002e0: 2f2b a53c 9303 4d3c 7978 b13d 889c c1bd
000002f0: b00d abbd bc64 193c c027 80bd 3c6d 5cbd
00000300: b89d ce3d ceda bfbd 0884 ff3c 849e efb9
00000310: e680 893d 6384 01be 41d0 bdbd 380a 7fbd
00000320: 269c 843d 120c 0b3d 2eb1 5ebe fa50 323c
00000330: e810 083c f8dd 203c 1448 97bc 21fc ca3d
00000340: 908e 72be f556 a0bd 5a4e ab3d ee8f b13d
00000350: 2366 f9bd 77a5 af3c 4066 d93d 8e91 bdbb
00000360: c552 e23d c1a9 71bd 1848 21be 444f 2dbe
00000370: 7aba 2bbd a032 2c3d 6023 95bd f895 f1bd
00000380: 659d 1bbe 0813 c7bd 5007 9bbd 37c1 18be
00000390: 801f a63d f1c8 b53d 46bb 153d f00b 4dbc
000003a0: adba 1ebd 6a31 bcbd eccc 643d f2e3 703d
000003b0: 2caf bdbd 0d45 40bd b3a6 5cbc 2d05 bdbc
000003c0: c670 72bd 07ad f5bd 3def b8bd d7ed e03d
000003d0: 2487 22bc 774e 05be a6a9 9d3d f5a8 4dbe
000003e0: 067c 3fbd a5b5 ae3b 1e4c e8bd 47d1 bb3c
000003f0: 2fbe b8bc d7a9 22be 9be0 25bd c68c 763c
