models/RNN_bbva2.pt (torch, 232303 bytes, 11 tensors)

lstm.weight_ih_l0 f4 [256, 11]
0	0xbcc1e51a	-0.023668814
1	0xbcc294ab	-0.023752531
2	0x3d8114ce	0.06302796
3	0xbc8fd356	-0.017556828
4	0x3e1424e0	0.14467192
5	0x3f1f769f	0.62290376
6	0x3e438bf1	0.19096352
7	0x3cd5c62b	0.02609547
8	0xbea3a7dd	-0.31964007
9	0x3dd02a0d	0.101642706
10	0x3d8a3c9d	0.06749842
11	0x3db17681	0.08665181
12	0xbd612034	-0.054962352
13	0x3d52e415	0.051487047
14	0xbda274b6	-0.07932417
15	0xbe3d240f	-0.18470787
16	0x3ecfd100	0.40589142
17	0x3dcd7d36	0.10033648
18	0xbca9fb28	-0.020749643
19	0xbc189fbb	-0.009315426
20	0x3ddd03b2	0.107917204
21	0x3dc2fe48	0.095211565
22	0xbd3fd784	-0.04683639
23	0xbd669c69	-0.056301508
24	0x39d10599	0.00039867757
25	0x3dc211aa	0.094760254
26	0x3d6e82be	0.058230154
27	0x3f4b63fd	0.79449445
28	0xbc3abcbc	-0.011397537
29	0xbcfe57a8	-0.031047657
30	0xb9f2ee88	-0.00046335557
31	0x3e6f6a82	0.23380473
32	0xbe3c6e98	-0.18401563
33	0x3a8a71b6	0.0010562453
34	0x3d2b146c	0.041767523
35	0xbd0cd239	-0.03438017
36	0xbdeacd50	-0.114649415
37	0xba9d38c7	-0.001199507
38	0x3e19b2ff	0.15009688
39	0xbcc633fa	-0.024194706
40	0xbc908a30	-0.017644018
41	0xbdc06f21	-0.09396196
42	0x3e818f30	0.25304556
43	0xbe368da9	-0.17827477
44	0x3d8044b5	0.06263105
45	0xbcfb7d55	-0.030699411
46	0x3e171422	0.14753774
47	0xbc851827	-0.016246868
48	0xbe86a88b	-0.26300463
49	0xbe605ee0	-0.21911192
50	0xbc22e82b	-0.0099430485
51	0x3db5a9bf	0.08870267
52	0xbe6eae49	-0.23308672
53	0x3f15b833	0.5848419
54	0xbe83930c	-0.25698125
55	0xbd825267	-0.06363373
56	0x3ddcbaed	0.10777841
57	0x3dbd665d	0.0924804
58	0xbda0ea45	-0.07857183
59	0x3dbad8dd	0.09123395
60	0x3f416ac9	0.75553566
61	0x3bd35cf4	0.00645029
62	0x3dc8c836	0.09803812
63	0xbf11d14a	-0.56959975
64	0x3d887cbe	0.06664418
65	0x3d5d73c6	0.05406549
66	0x3dbe8cf8	0.093042314
67	0xbbdb210d	-0.0066872896
68	0xbdeb80f8	-0.11499208
69	0xbe10b8bb	-0.14132969
70	0x3cd720ab	0.026260694
71	0x3f2c3f8d	0.6728447
72	0xbdfa0f9c	-0.122100085
73	0xbe08ee90	-0.13372254
74	0xbe49e0fa	-0.19714728
75	0xbdf04148	-0.117312014
76	0xbe19ff42	-0.1503878
77	0xbddb4bb0	-0.107077956
78	0x3d56308d	0.052292395
79	0xbe14bc3a	-0.14524928
80	0x3c94d4cb	0.018167874
81	0xbe658883	-0.22415356
82	0x3df7988c	0.12089643
83	0xbd267c14	-0.040645674
84	0xbe1730b7	-0.14764677
85	0x3cdd273f	0.026996253
86	0xbdbb8303	-0.09155848
87	0x3d6a51c0	0.05720687
88	0xbd160a09	-0.036630664
89	0xbd66be1a	-0.05633364
90	0x3d7817fb	0.060569745
91	0x3d991a00	0.07475662
92	0xbcb84d22	-0.022497717
93	0x3ebf5ee2	0.37377077
94	0x3da899a0	0.08232427
95	0x3dbea5ce	0.093089685
96	0xbe2e21bf	-0.1700506
97	0x3e40ee6c	0.1884095
98	0xbdb2796a	-0.08714564
99	0xbd5457f5	-0.051841695
100	0xbde69b31	-0.11260069
101	0xbe17fb3f	-0.14841937
102	0xbd6f5184	-0.05842735
103	0xbe070845	-0.13186748
104	0xbcedc9dc	-0.029026918
105	0xbe0ff3f5	-0.14057906
106	0xbc9b9c29	-0.018995361
107	0xbe80f51b	-0.25187
108	0xbe82564a	-0.25456458
109	0x3e8d106a	0.27551585
110	0x3d5b9547	0.05360916
111	0xbd84b547	-0.064798884
112	0xbe082986	-0.1329709
113	0x3e0fb942	0.14035514
114	0xbe3aa3ed	-0.18226595
115	0x3efa7a3c	0.48921382
116	0x3d6f576c	0.05843298
117	0xbe0c8058	-0.13720834
118	0xbcafabbc	-0.021444194
119	0xbdab83f7	-0.0837478
120	0xbdb16067	-0.086609654
121	0x3dd4a3ee	0.103828296
122	0x3e1e1af8	0.15439975
123	0xbc76e813	-0.015069979
124	0xbe35bbbc	-0.17747396
125	0xbdaca061	-0.08429027
126	0x3e1cb2bf	0.15302561
127	0x3e1e5620	0.15462542
128	0x3d7faa74	0.062418416
129	0xbe37f135	-0.17963107
130	0xbc2955e4	-0.010335419
131	0x3dad0cac	0.084496826
132	0x3d92f93d	0.07176445
133	0x3d1f3a63	0.03887404
134	0xbc8d8dbf	-0.017279504
135	0xbe7a05be	-0.24416253
136	0x3d6fe21f	0.058565255
137	0x3f55860b	0.8340766
138	0xbd9454f4	-0.07242766
139	0xbd476c3a	-0.048687197
140	0xbda4209a	-0.08014031
141	0x3e312d1e	0.17302367
142	0xbde6eda4	-0.11275795
143	0x3d86128c	0.06546506
144	0x3e1e0859	0.15432872
145	0x3da9c37e	0.0828924
146	0x3d5ecf3f	0.054396864
147	0x3d9a422f	0.07532155
148	0x3eb384de	0.35062307
149	0x3d965e2e	0.07342182
150	0xbd7b68d1	-0.061379258
151	0x3d102d2c	0.03519933
152	0x3e07c968	0.13260424
153	0x3c578b03	0.013155702
154	0x3de4835e	0.11157869
155	0xbd41b3d9	-0.047290657
156	0x3e3fe62b	0.18740146
157	0xbe2cd2ce	-0.1687729
158	0x3da4fe37	0.080563
159	0x3e1ad6cf	0.15121005
160	0x3d96f84c	0.073715776
161	0x3ddcc499	0.107796855
162	0xbe2ada87	-0.16684924
163	0x3e05c15b	0.1306204
164	0x3d9cef57	0.07662838
165	0x3d24d286	0.040239833
166	0x3dfe5cdb	0.124200545
167	0x3e08b0da	0.13348714
168	0xbe23f7a7	-0.1601244
169	0xbd9dca8f	-0.077046506
170	0x3ed6a049	0.41919163
171	0x3e057ce1	0.13035919
172	0xbdd18008	-0.10229498
173	0x3d98121b	0.07425328
174	0x3ef86b16	0.485192
175	0xbde790de	-0.11306928
176	0x3e2cc0ea	0.16870466
177	0x3e3eb6c4	0.18624407
178	0x3e052704	0.13003165
179	0x3c9d0f11	0.019172223
180	0x3e2bc0f5	0.16772826
181	0x3ee9c5f1	0.4565883
182	0x3e0cef39	0.13763131
183	0x3d1583ca	0.036502637
184	0x3cd830d6	0.026390474
185	0x3eabd300	0.33559418
186	0x3dcefae8	0.1010645
187	0x3e719881	0.23593332
188	0x3da8526c	0.08218846
189	0x3d27192b	0.040795486
190	0x3d98af81	0.0745535
191	0x3e422785	0.18960388
192	0x3f597abf	0.8495292
193	0x3b7df618	0.003875142
194	0x3e2fc22d	0.17163916
195	0xbe8f0d3f	-0.27939793
196	0x3e82bffb	0.25537094
197	0xbe8f0fc2	-0.2794171
198	0xbd4bee8b	-0.04978804
199	0x3d949882	0.07255651
200	0x3d1b4530	0.03790778
201	0x3c44e62e	0.01201777
202	0xbdad4f30	-0.084623694
203	0x3f181087	0.5940022
204	0x3c3d8932	0.011568354
205	0xbbadf1ae	-0.0053083515
206	0x3d55a124	0.05215563
207	0x3ea177c6	0.31536692
208	0xbe6b2103	-0.22961812
209	0xbd8b8f24	-0.06814411
210	0x3d8910f9	0.066926904
211	0x3d1f450e	0.038884215
212	0xbe020302	-0.1269646
213	0x3cda5ea7	0.026656462
214	0x3fb6e577	1.4288777
215	0x3b5cfdd8	0.0033720639
216	0xbe19cf8f	-0.15020584
217	0xbe41b083	-0.1891499
218	0xbe1e16a9	-0.15438332
219	0x3e0478e4	0.12936741
220	0x3d930644	0.071789294
221	0x3d713134	0.058884814
222	0x3da011f0	0.07815921
223	0xbec2fcef	-0.38083598
224	0xbc75c54e	-0.015000654
225	0x3e606c74	0.21916372
226	0x3d2ebcb2	0.042660423
227	0x3d788df7	0.060682263
228	0xbe52d569	-0.20589222
229	0x3e839457	0.25699112
230	0x3e0110ae	0.12604019
231	0x3d89323b	0.06699034
232	0xbc9de810	-0.019275695
233	0x3d34b9f5	0.044122655
234	0xbdeb94d7	-0.11502998
235	0xbe2533ca	-0.16133037
236	0x3eb15f31	0.34642938
237	0x3cff769e	0.03118449
238	0x3e0142fd	0.1262321
239	0xbe46ec8f	-0.19426177
240	0x3d587e6d	0.052854944
241	0x3dd9aca1	0.106286295
242	0xbcfd58ae	-0.030926075
243	0x3dc232ba	0.094823316
244	0x3d01b08d	0.031662513
245	0x3d356fbc	0.04429601
246	0xbcd38aff	-0.025823114
247	0x3ec78868	0.38971257
248	0x3d2255a3	0.03963245
249	0x3b0ffa25	0.0021969166
250	0x3c9156ac	0.017741524
251	0x3d75378e	0.059867434
252	0xbd7efb57	-0.062251415
253	0xbe2b90eb	-0.167545
254	0xbcee1d64	-0.029066749
255	0xbe411fe0	-0.18859816

lstm.weight_hh_l0 f4 [256, 64]
0	0xbdbcf96b	-0.0922726
1	0x3e07920a	0.13239303
2	0x3e50d2df	0.20392941
3	0xbeb21ec7	-0.34789106
4	0xbe4dd2a4	-0.20099884
5	0xbe5c8455	-0.21534856
6	0x3e291604	0.16512305
7	0xbd831066	-0.06399612
8	0x3e1a0e37	0.15044485
9	0x3e84e84e	0.25958484
10	0xbe40b4e8	-0.1881901
11	0xbded258a	-0.11579426
12	0x3ea1b1f1	0.3158107
13	0xbd35b377	-0.044360604
14	0xbe2f3713	-0.17110853
15	0x3e83ab26	0.25716513
16	0xbe675e72	-0.22594622
17	0x3e15ed38	0.14641273
18	0xbe310c9f	-0.17289971
19	0xbddbee66	-0.1073883
20	0x3e743bf3	0.23850994
21	0xbda19e60	-0.07891536
22	0x3dbf0abb	0.093282185
23	0x3e01025c	0.12598556
24	0x3e385b33	0.1800354
25	0x3d9245a7	0.071421914
26	0x3e561e6d	0.20910044
27	0x3de955bc	0.11393306
28	0xbeb728bb	-0.35773262
29	0xbe238db2	-0.15972021
30	0xbe02faab	-0.12790935
31	0xbe42488e	-0.1897299
32	0x3e06a0e2	0.1314731
33	0xbe82fa3d	-0.25581542
34	0x3e5fef6b	0.21868674
35	0xbe93b6ad	-0.28850308
36	0xbe20cedd	-0.15703912
37	0x3e814fba	0.2525614
38	0xbe77f782	-0.2421551
39	0xbeacc9da	-0.3374775
40	0x3d283af4	0.041071847
41	0x3e9fe154	0.312266
42	0x3e715dd6	0.23570952
43	0x3ea1ad24	0.31577408
44	0x3e2a018b	0.16602151
45	0xbe9617e8	-0.29315114
46	0x3da1a29c	0.078923434
47	0xbdc50520	-0.09620118
48	0xbe493780	-0.19650078
49	0xbe2da4a0	-0.1695733
50	0xbdffd214	-0.12491241
51	0xbe0ebd42	-0.13939384
52	0x3e5f33f0	0.21797156
53	0x3e52c4bb	0.20582859
54	0xbe2cdd5a	-0.16881314
55	0xbe4fbd21	-0.2028699
56	0x3e4f44ca	0.20241085
57	0x3dcc1223	0.09964397
58	0xbe050612	-0.12990597
59	0x3e3d6dff	0.18498991
60	0x3dba3d84	0.090937644
61	0x3e57a916	0.21060595
62	0xbe83c3c3	-0.25735292
63	0xbe6a7b30	-0.22898555
64	0x3da5ffe2	0.081054464
65	0xbda59cfd	-0.08086584
66	0xbc1cc483	-0.009568336
67	0x3ddf2276	0.10895245
68	0x3cfa2a30	0.030537695
69	0xbe37487d	-0.17898746
70	0x3da73fc7	0.081664614
71	0xbe043d9e	-0.1291413
72	0xb99f5f12	-0.00030397676
73	0xbbeb54d6	-0.007181744
74	0x3e039133	0.12848358
75	0xbdbfdafc	-0.0936794
76	0xbdb0f203	-0.0863991
77	0x3d750de7	0.05982771
78	0x3dc57c46	0.09642844
79	0x3e2b5087	0.16729937
80	0x3d8abbde	0.06774114
81	0xbd616825	-0.05503096
82	0xbd441d6b	-0.047879618
83	0x3da48d3b	0.0803475
84	0xbd3905b2	-0.045171447
85	0xbdde53ef	-0.10855853
86	0xbd0ea714	-0.034827307
87	0xbe90b0cc	-0.28259885
88	0xbcbe37df	-0.02322
89	0xbcbac414	-0.022798575
90	0x3dee3acb	0.116323076
91	0x3be71af4	0.0070527736
92	0xbc8473f6	-0.016168576
93	0x3df98910	0.12184346
94	0x3da3edcd	0.08004341
95	0xbdbd0e00	-0.09231186
96	0x3b355bc1	0.0027673098
97	0x3bc0cce0	0.005883798
98	0xbe299df1	-0.16564156
99	0xbcb88671	-0.022525044
100	0x3dba11f7	0.09085458
101	0x3db4578b	0.0880576
102	0xbbef44cb	-0.007301902
103	0xbd7c4c01	-0.06159592
104	0xbba68890	-0.0050821975
105	0xbdb1c7c1	-0.08680678
106	0xbdf1d4a0	-0.11808133
107	0x3851db9a	5.0034003e-05
108	0x3e499fd1	0.19689871
109	0xbda67e93	-0.08129611
110	0xbd3192b2	-0.04335279
111	0xbd76a81a	-0.060218908
112	0x3d9d182b	0.07670625
113	0x3da8a42f	0.082344405
114	0xbd23eadb	-0.040018898
115	0xbd6f4449	-0.05841473
116	0x3d8cadca	0.06869085
117	0xbe0804c7	-0.13283072
118	0xbd9a6041	-0.0753789
119	0x3d0c8524	0.03430666
120	0xbd992cd8	-0.074792564
121	0xbb481b60	-0.0030533895
122	0x3dab9888	0.083787024
123	0x3cc42dff	0.023947714
124	0xbd96e59e	-0.07368015
125	0x3d9d4365	0.0767887
126	0x3d7520c7	0.059845712
127	0x3dd0cd74	0.10195437
128	0x3d24936d	0.04017966
129	0x3e1d2dc7	0.15349494
130	0xbda94703	-0.082654975
131	0xbe448fdb	-0.19195502
132	0xbdf23cf3	-0.118280314
133	0xbe1054a5	-0.1409479
134	0x3e0487ce	0.1294243
135	0xbdae907e	-0.085236534
136	0xbb9ffae8	-0.0048822053
137	0x3daee778	0.08540243
138	0xbc53413c	-0.012893971
139	0xbd87f64e	-0.06638776
140	0x3e0290e9	0.12750591
141	0x3d9052c4	0.07047036
142	0xbd971818	-0.073776424
143	0xbdb9b692	-0.09068026
144	0x3dc42f62	0.0957935
145	0xbde6a921	-0.112627275
146	0xbde9243c	-0.11383864
147	0xbe3342cc	-0.1750595
148	0x3de091bc	0.109652966
149	0xbc065b32	-0.008200454
150	0x3d900c25	0.070335664
151	0xbd665d3e	-0.056241266
152	0xbcd1f8cc	-0.02563133
153	0x3e08abdd	0.1334681
154	0x3e092f78	0.13397014
155	0x3e16b9ae	0.14719269
156	0xbcbc84e5	-0.023012588
157	0xbe70e1d0	-0.2352364
158	0xbe294b8f	-0.1653273
159	0xbe37a5f6	-0.17934403
160	0xbda21c6f	-0.079155795
161	0xbd8c7301	-0.06857873
162	0xbb258ced	-0.0025261
163	0xbc6de7e6	-0.014520621
164	0xbd5f361e	-0.05449497
165	0x3c2837cb	0.010267208
166	0xbda5ab5e	-0.08089326
167	0xbb9f3aa9	-0.0048592878
168	0x3e0f9969	0.14023365
169	0xbce3b9bf	-0.027798532
170	0x3e204870	0.15652633
171	0x3d3d76e7	0.046255972
172	0x3e702049	0.23449816
173	0x3da7f96a	0.08201869
174	0x3d3f690f	0.04673105
175	0x3c884076	0.0166323
176	0x3cc27ac5	0.023740182
177	0x3e19ac68	0.15007174
178	0x3cbbb24d	0.022912169
179	0x3c84a140	0.016190171
180	0x3c9be8ed	0.019031966
181	0x3d619e50	0.05508262
182	0x3ceb69ff	0.028737066
183	0xbe02df9e	-0.12780616
184	0x3e14167f	0.14461707
185	0x3d48c8f6	0.049019776
186	0xbe276a1b	-0.1634907
187	0xbc798f21	-0.0152318785
188	0x3df3c649	0.11903054
189	0x3d6d1d39	0.057889197
190	0xbda7c771	-0.08192337
191	0xbd9511e8	-0.07278806
192	0xbcdf802d	-0.027282799
193	0x3db3b7f2	0.08775319
194	0x3e938e0c	0.2881931
195	0xbc661fd5	-0.014045675
196	0xbea3264d	-0.3186516
197	0xbe35baf2	-0.17747095
198	0x3e41b126	0.18915233
199	0xbdb55872	-0.0885476
200	0x3dba806f	0.09106528
201	0xbd28c976	-0.041207753
202	0xbe1b8441	-0.1518717
203	0xbdc4ff02	-0.096189514
204	0x3c5ee009	0.013603219
205	0xbd277da6	-0.040891312
206	0xbe296c76	-0.16545281
207	0x3d52fccc	0.051510617
208	0x3c84e0a4	0.016220398
209	0x3ddd2c4d	0.10799465
210	0xbde8e62c	-0.11372027
211	0xbe12d770	-0.14339995
212	0x3e6e6cc1	0.23283674
213	0xbd21c93a	-0.039498545
214	0xbdaf1a58	-0.085499465
215	0xbd219cc2	-0.039456137
216	0x3e4d8d97	0.20073543
217	0xbd2d23d0	-0.04227048
218	0x3e5e6d68	0.21721423
219	0x3e3b5aa0	0.1829629
220	0xbe3ab717	-0.18233906
221	0x3c874e74	0.016516902
222	0xbd4a1750	-0.04933864
223	0x3c78fd00	0.015197039
224	0x3d93c74c	0.07215747
225	0xbda61b2b	-0.08110651
226	0xbc134c85	-0.008990412
227	0xbe361de8	-0.17784846
228	0x3d99f39e	0.075171694
229	0x3e364606	0.1780015
230	0xbd5d3e94	-0.054014757
231	0xbe8751a2	-0.26429468
232	0x3d6315c0	0.055440664
233	0x3cfbb55f	0.030726133
234	0x3e83546c	0.25650346
235	0x3d0220be	0.031769507
236	0x3e7f29c4	0.24918276
237	0xbd6b9a50	-0.05752021
238	0x3cbf7c00	0.023374557
239	0xbe0f79f6	-0.14011368
240	0xbe0dd573	-0.13850956
241	0x3d5c0df3	0.05372424
242	0xba3d9122	-0.00072314043
243	0xbdb73ffb	-0.0894775
244	0x3e254f90	0.16143632
245	0x3e004222	0.12525228
246	0xbdb8fc2f	-0.09032475
247	0xbd203c8a	-0.039120235
248	0x3da89f5e	0.08233522
249	0x3d213a38	0.039362162
250	0xbe4db134	-0.20087129
251	0x3d3064d0	0.043064892
252	0x3d251132	0.0402996
253	0x3e496bbf	0.19670008
254	0xbdb4e3b0	-0.088324904
255	0xbdb9d125	-0.09073094

lstm.bias_ih_l0 f4 [256]
0	0xbd6491a4	-0.055802956
1	0xbd694e46	-0.056959413
2	0x3d13868e	0.036016993
3	0xbe04328d	-0.12909909
4	0xbd86c018	-0.06579608
5	0xbda65e23	-0.08123424
6	0xbc236b43	-0.009974304
7	0xbe39b5eb	-0.18135802
8	0xbcdbfc48	-0.026853696
9	0xbdd30caf	-0.103051536
10	0x3d85c7b5	0.06532232
11	0xbd2a6778	-0.04160258
12	0xbe01f680	-0.12691689
13	0x3d351d39	0.044217322
14	0xbca335f2	-0.019923184
15	0x3dc93f84	0.09826568
16	0x3c31bd5c	0.010848369
17	0x3d4a051b	0.049321275
18	0xbdc188ee	-0.094499454
19	0xbdbe6478	-0.09296507
20	0xbde5fc58	-0.112297714
21	0xbd1ad745	-0.037802953
22	0x3e151eb2	0.1456249
23	0xbd15a076	-0.03652998
24	0x3dd3a6c2	0.10334541
25	0xbdc17519	-0.09446163
26	0xbd827e4d	-0.06371746
27	0x3c81ab14	0.015828647
28	0xbd5110a0	-0.051041245
29	0x3d8ff3c7	0.07028919
30	0x3d9389ca	0.072040156
31	0x3c95eb81	0.018300774
32	0x3dcc0d41	0.099634655
33	0xbd4e18a3	-0.050316464
34	0xbc73712e	-0.014858527
35	0x3c36148e	0.011113299
36	0x3d33ccea	0.043896593
37	0x3c89a370	0.016801566
38	0x3b170829	0.0023045635
39	0x3d1a96ca	0.03774146
40	0xbd901bff	-0.0703659
41	0x3d82ff27	0.06396323
42	0xbd7da72a	-0.061927
43	0xbcdcf383	-0.026971584
44	0xbe0ffa87	-0.14060412
45	0x3de3ffff	0.11132812
46	0xbdd63a67	-0.10460358
47	0xbd5136b5	-0.051077563
48	0xbd8aa337	-0.06769412
49	0x3de24127	0.11047583
50	0xbd673539	-0.05644724
51	0x3da62fdf	0.081145994
52	0xbe33c5b6	-0.1755589
53	0xbd0ab45e	-0.033863418
54	0xbcefb248	-0.029259816
55	0xbc416f3f	-0.011806308
56	0x3d81a71e	0.06330703
57	0xbdc70283	-0.09717276
58	0xbd78bfaa	-0.06072966
59	0xbd8bf0bd	-0.068330266
60	0xbd54dc8a	-0.051968135
61	0x3b4ffcdb	0.0031736407
62	0xbd2466f5	-0.04013725
63	0xbdbd76a6	-0.09251146
64	0xbe77bec0	-0.24193859
65	0xbd557513	-0.052113604
66	0xbd024ad3	-0.03180964
67	0xbbf7ce25	-0.007562416
68	0xbe88ac9e	-0.26694196
69	0xbccea984	-0.025227316
70	0xbe320d33	-0.17387848
71	0xbc2644e1	-0.010148258
72	0xbe03cd8a	-0.12871376
73	0x3d4fffcf	0.050781067
74	0xbc9e3f90	-0.019317418
75	0xbddb04c1	-0.10694266
76	0xbd47dfa4	-0.048797265
77	0xbdc46ac2	-0.09590675
78	0xbd231c64	-0.039821997
79	0xbd82e003	-0.06390383
80	0x3c60079a	0.013673687
81	0xbe954531	-0.2915435
82	0xbe967cc6	-0.2939207
83	0xbdb5e29a	-0.088811114
84	0x3d06d980	0.032922268
85	0xbdd4bd60	-0.10387683
86	0x3d7826c5	0.06058385
87	0x3d08053b	0.033208113
88	0xbe8aa917	-0.2708213
89	0xbd221b4a	-0.039576806
90	0xbd52a9c5	-0.051431436
91	0x3cc366c3	0.023852712
92	0xbdd7b0a1	-0.10531736
93	0xbcd8746a	-0.026422698
94	0x3d8bf074	0.06832972
95	0x3e481680	0.19539833
96	0x3e128aef	0.14310811
97	0xbe0b6269	-0.13611759
98	0xbe431643	-0.19051461
99	0xbcafb5cb	-0.02144899
100	0x3d7f1d70	0.062283933
101	0xbd908e5d	-0.07058404
102	0xbdab8542	-0.08375026
103	0xbe954499	-0.29153898
104	0x3d6586dd	0.05603682
105	0xbda52757	-0.08064144
106	0xbec2c478	-0.3804052
107	0xbcd93135	-0.026512722
108	0xbe8cff5c	-0.27538574
109	0xbe5e2030	-0.21691966
110	0x3d863800	0.0655365
111	0xbe0818c7	-0.13290702
112	0xbdd76e55	-0.10519091
113	0xbe03a3b6	-0.1285542
114	0xbcebd916	-0.028790038
115	0xbdfa7e0b	-0.12231072
116	0xbe01b4e2	-0.12666658
117	0xbdc5afc1	-0.09652663
118	0xbd7fa478	-0.06241271
119	0xbe29dcbc	-0.1658811
120	0xbe925d03	-0.28586587
121	0xbd6f0359	-0.058352802
122	0xbdd92ce0	-0.10604262
123	0x3d472efa	0.048628785
124	0xbdbcf61d	-0.0922663
125	0xbd5ee817	-0.054420557
126	0x3b656d0a	0.003500762
127	0xbe2804e9	-0.16408123
128	0x3e05cbeb	0.1306607
129	0xbd8759ec	-0.06608948
130	0xbdc6786e	-0.09690939
131	0x3e381766	0.17977676
132	0x3e128db2	0.14311865
133	0x3de78c90	0.11306107
134	0x3ce742bf	0.02823007
135	0x3d885807	0.06657415
136	0xbc55816f	-0.013031348
137	0xbdf63b63	-0.12023046
138	0xbac600d3	-0.0015106447
139	0xbc7d07e0	-0.015443772
140	0xbdec8c57	-0.11550205
141	0x3deebd1b	0.11657163
142	0x3cdaf0ff	0.026726244
143	0xbdfd9860	-0.12382579
144	0x3d82085b	0.0634925
145	0xbd9db722	-0.077009454
146	0xbd532a9d	-0.05155431
147	0x3db5d53e	0.08878563
148	0xbdbbba55	-0.091663994
149	0xbc165a9c	-0.009176876
150	0xbdcae9d3	-0.0990788
151	0x3d0b0db9	0.033948634
152	0xbd0ca20d	-0.03433423
153	0xbd54fe2f	-0.05200022
154	0x3d2ce8c1	0.04221416
155	0xbd96b156	-0.07358043
156	0x3cb6f0c4	0.022331603
157	0x3d2e871a	0.04260931
158	0x3dac2f3e	0.08407448
159	0xbd10d229	-0.035356674
160	0xbdd2d2a0	-0.1029408
161	0x3d6be88f	0.057594832
162	0xbdb79412	-0.08963789
163	0x3e065327	0.13117658
164	0x3dfa27d1	0.122146256
165	0x3cf85454	0.030313648
166	0xbdaae56a	-0.083445385
167	0x3b5a3b6f	0.0033299585
168	0xbc1d7871	-0.009611235
169	0xbdc16bae	-0.094443664
170	0x3cb9c959	0.022679018
171	0xbd8a3305	-0.067480125
172	0xbdc3f536	-0.09568255
173	0x3d575c1f	0.052578088
174	0xbd5e0ede	-0.054213397
175	0x3df301e3	0.11865594
176	0x3d83c1cf	0.064334504
177	0x3d852fe0	0.06503272
178	0x3da3c709	0.07996947
179	0x3cdc68a8	0.026905373
180	0x3d0df573	0.034657907
181	0xbda13900	-0.078722
182	0x3d282ca4	0.041058198
183	0xbcfd027c	-0.030884974
184	0xbdcd7d15	-0.10033623
185	0xbe04df27	-0.12975751
186	0x3de38275	0.11108867
187	0xbd3b5591	-0.0457359
188	0xbd582c08	-0.052776366
189	0xbe00f1b9	-0.1259221
190	0x3daa6ad0	0.08321154
191	0x3b5e18a7	0.0033889206
192	0x3c5adc40	0.013358176
193	0xbde2bb39	-0.11070866
194	0x3cfab575	0.030604104
195	0xbddbeced	-0.107385494
196	0x3e114891	0.14187838
197	0x3c968e77	0.01837848
198	0xbe15ec0e	-0.14640829
199	0x3cb658aa	0.022259075
200	0x3d66adef	0.05631822
201	0xbdd2395d	-0.102648474
202	0xbe0ca000	-0.1373291
203	0xbdd1953f	-0.102335446
204	0xbdfdd813	-0.123947285
205	0x3dcc1b0f	0.099660985
206	0x3e009000	0.12554932
207	0x3bebc9f2	0.0071957046
208	0x3e1f0255	0.15528233
209	0xbcb7adf9	-0.022421824
210	0x3da665f3	0.08124914
211	0xbe4da75c	-0.20083374
212	0xbde11c34	-0.109917074
213	0x3d8c7f1d	0.068601824
214	0xbcd090d7	-0.02545969
215	0x3d084b9f	0.033275243
216	0x3c84570b	0.016154787
217	0xbdd45e97	-0.10369604
218	0xbcf66fc4	-0.03008259
219	0xbe129f04	-0.14318472
220	0x3d42242d	0.04739778
221	0x3d85b0f2	0.0652789
222	0xbbd5d729	-0.006525893
223	0x3dd11b3b	0.10210272
224	0x3d4ae6c6	0.04953649
225	0xbc25b783	-0.010114553
226	0xbaefaf30	-0.0018286463
227	0xbc2385d6	-0.009980639
228	0x3dbd4463	0.09241559
229	0x3ccd3e5d	0.025054151
230	0x3d3ccebc	0.046095595
231	0x3dc6d3fe	0.09708403
232	0x3d0cc8ab	0.03437106
233	0x3da9981e	0.08280967
234	0x3da61d2c	0.08111033
235	0xbcaed145	-0.021340022
236	0x3c437276	0.011929145
237	0x3d27eeec	0.040999338
238	0xbbc53512	-0.0060182894
239	0xbd9cd183	-0.07657149
240	0x3d8d49d0	0.06898844
241	0xbdd61eac	-0.10455069
242	0xbddedc8b	-0.10881909
243	0xbd78ad5b	-0.0607122
244	0xbdb28011	-0.08715833
245	0xbdafbc33	-0.08580818
246	0xbd8668f6	-0.065629885
247	0xbdffd3a5	-0.1249154
248	0xbda9ea21	-0.0829661
249	0x3cffecaa	0.03124078
250	0xbcebafb6	-0.028770309
251	0xbdca9ca1	-0.09893156
252	0xbc82b86c	-0.01595708
253	0xbc0347cf	-0.008012726
254	0x3d40c11c	0.047059163
255	0xbd3921a4	-0.045198098

lstm.bias_hh_l0 f4 [256]
0	0xbd7f5079	-0.062332604
1	0x3d64d3c2	0.05586601
2	0xbcd43240	-0.025902867
3	0x3c516b94	0.012781996
4	0x3db5f11d	0.08883879
5	0x3ce1983e	0.027538415
6	0xbe1015f2	-0.14070871
7	0xbd31ab1c	-0.043376073
8	0xbdf2d2a3	-0.11856582
9	0xbe2e9811	-0.17050196
10	0xbbbad1f3	-0.0057012974
11	0xbcd65175	-0.026161889
12	0x3c15e1b5	0.009148051
13	0xbdcb92e7	-0.09940129
14	0x3e268773	0.16262607
15	0xbdb51b2c	-0.08843073
16	0xbd0045e4	-0.031316653
17	0x3d563fc0	0.05230689
18	0xbdcb8e72	-0.09939279
19	0xbda0850b	-0.07837876
20	0xbe092e98	-0.1339668
21	0xbdad26fe	-0.08454703
22	0x3e01b3c0	0.12666225
23	0x3d674fe2	0.056472667
24	0xbd422afd	-0.047404278
25	0xbe0a7a98	-0.13523328
26	0xbc37d562	-0.011220308
27	0x3bc0793d	0.0058738277
28	0x3c0a22b6	0.008431127
29	0xbe0ae7af	-0.13564943
30	0xbc94e852	-0.018177185
31	0x3e13b2a1	0.1442361
32	0x3e063b98	0.1310867
33	0xbe493620	-0.19649553
34	0x3d18c93e	0.037301295
35	0xbda27587	-0.07932573
36	0x3a488542	0.00076492515
37	0xbd5fce99	-0.054640386
38	0x3d8835bc	0.06650874
39	0xbce9296e	-0.028462138
40	0x3d4ab723	0.04949106
41	0x3cafb2ad	0.021447504
42	0x3d33590d	0.043786097
43	0xbd3ac451	-0.04559738
44	0xbc454ab6	-0.012041738
45	0xbde86188	-0.113467276
46	0x3d3d0a4d	0.0461524
47	0xbe07b56b	-0.13252799
48	0xbce08f04	-0.027411945
49	0x3d71c3ad	0.0590245
50	0x3d77bdb7	0.06048366
51	0xbc72f086	-0.014827853
52	0xbce726d1	-0.028216751
53	0x3db64389	0.088996
54	0x3d4c85dd	0.04993235
55	0xbe419f10	-0.18908334
56	0xbdaabdec	-0.08337006
57	0x3d439cad	0.04775684
58	0xbd31615d	-0.043305743
59	0xbe33b5eb	-0.17549865
60	0x3d93e485	0.07221321
61	0xbddd46ae	-0.10804497
62	0x3c0e2b9e	0.008677391
63	0xbe09f705	-0.13473137
64	0xbe2bd0fc	-0.1677894
65	0x3cb31016	0.021858256
66	0xbd5901a0	-0.052980065
67	0xbe192af9	-0.14957799
68	0xbe9ad691	-0.30241826
69	0xbe5335c4	-0.20625979
70	0xbe066976	-0.13126168
71	0xbde9341a	-0.11386891
72	0xbe5707b6	-0.20999035
73	0x3d296aa2	0.04136146
74	0xbdf78790	-0.12086403
75	0x3d45e003	0.048309337
76	0x3db9e531	0.09076918
77	0xbdf5fa03	-0.120105766
78	0xbdd837a8	-0.105574906
79	0xbe4ab8bd	-0.19797035
80	0xbd6590e4	-0.05604638
81	0xbe196c7d	-0.14982791
82	0xbe21d02a	-0.15802065
83	0xbe2ba7a6	-0.16763172
84	0xbe11c722	-0.1423612
85	0xbdd910ed	-0.105989315
86	0x3e0d744b	0.13813893
87	0xbd84b3b5	-0.06479589
88	0xbdc589eb	-0.096454464
89	0xbe3d7835	-0.18502887
90	0xbe15e2f6	-0.1463736
91	0x3d44955d	0.047994006
92	0xbe29d962	-0.16586831
93	0xbdfce27c	-0.12347886
94	0xbc0d688b	-0.008630882
95	0x3d0a6724	0.03378977
96	0x3d3ae251	0.04562599
97	0xbc974937	-0.018467529
98	0xbd920891	-0.0713054
99	0x39e9ec44	0.00044617255
100	0xbd8c619f	-0.06854557
101	0x3bd3468e	0.0064476198
102	0xbddcbff3	-0.10778799
103	0xbe5ada4a	-0.21372333
104	0xbe09666d	-0.13417979
105	0xbd92c200	-0.07165909
106	0xbeab3925	-0.33442035
107	0xbdac9f43	-0.08428814
108	0xbde25995	-0.11052243
109	0xbe0046d0	-0.12527013
110	0x3beaf3b7	0.0071701664
111	0xbd12aadb	-0.03580747
112	0xbe3c8962	-0.18411782
113	0xbdfe9805	-0.12431339
114	0xbdb6d560	-0.08927417
115	0x3d288bf3	0.04114909
116	0xbd2592ab	-0.040423077
117	0x3d72368f	0.059134062
118	0xbe1beb8a	-0.1522657
119	0xbdfa06f8	-0.122083604
120	0xbeaa4411	-0.33255056
121	0xbdd7b012	-0.105316296
122	0x3cced16f	0.02524635
123	0xbc84f6fe	-0.016231056
124	0xbc1ba9d2	-0.009500938
125	0x3b0d0547	0.0021518038
126	0xbd8f6384	-0.07001403
127	0xbdbd4a83	-0.092427276
128	0x3d9f6c17	0.077842884
129	0xbd13f2e1	-0.0361203
130	0x3d1106cb	0.03540687
131	0xbd48e21d	-0.049043763
132	0x3c9ff3cb	0.01952543
133	0x3dd7da56	0.10539691
134	0xbd2e5b22	-0.04256738
135	0x3ca137e8	0.019679978
136	0xbb669dee	-0.0035189348
137	0x3d0cb399	0.034350965
138	0x3ddf1ecd	0.10894547
139	0x3e0c0114	0.13672286
140	0x3ce14a0f	0.027501134
141	0x3ab5ad49	0.0013860847
142	0x3e0075eb	0.12544982
143	0xbd540af7	-0.05176827
144	0x3de4a9aa	0.11165173
145	0x3d6bb8db	0.05754934
146	0x3e1456af	0.14486192
147	0x3daa6e9a	0.08321877
148	0xbcc56eae	-0.024100628
149	0x3dfb1af2	0.12260999
150	0xbdafb123	-0.08578708
151	0xbe202f0f	-0.15642951
152	0xbe017e47	-0.12645827
153	0xbd102d1d	-0.035199273
154	0xbe10242a	-0.14076295
155	0xbd2d50f2	-0.042313524
156	0xba87182f	-0.001030689
157	0x3db9c311	0.09070409
158	0x3d33f5e4	0.04393567
159	0xbd061eb4	-0.032744125
160	0xbe040733	-0.12893371
161	0x3d2d0941	0.042245153
162	0xbded417e	-0.11584757
163	0x3d6d70f1	0.057969037
164	0x3d447227	0.047960427
165	0xbe06d64d	-0.13167687
166	0xbcd14c8d	-0.025549198
167	0x3d3fee5a	0.04685817
168	0xbe20db3c	-0.15708631
169	0x3c54396a	0.012953142
170	0xbdf79dbd	-0.12090633
171	0x3e1d22be	0.15345284
172	0xbc824e21	-0.015906395
173	0x3d3dedd4	0.04636939
174	0xbe000ccb	-0.1250488
175	0x3d12d0a3	0.035843503
176	0x3d7ce9d4	0.061746433
177	0x3da77086	0.08175759
178	0x3de27033	0.110565566
179	0x3d8d9dcb	0.06914862
180	0x3b9fc550	0.0048758164
181	0xbd4b16a1	-0.049582127
182	0x3e092bae	0.13395569
183	0xbce28fd9	-0.027656483
184	0xbbeca7a8	-0.0072221346
185	0x39ce873a	0.00039392133
186	0x3d11ea4e	0.03562384
187	0xbd02fd79	-0.03198001
188	0xbd3e2bb3	-0.046428394
189	0x3ca27d44	0.019835122
190	0x3c857afe	0.016293999
191	0xbc015a40	-0.007895052
192	0xbdefeb09	-0.11714751
193	0x3d2c1bc4	0.042018667
194	0xbc816ce7	-0.015798999
195	0xba5bd1b3	-0.00083854346
196	0x3db6e663	0.089306615
197	0xbdc0050b	-0.09375962
198	0xbe0790ec	-0.13238877
199	0x3d7b1424	0.061298504
200	0xbe0a947f	-0.1353321
201	0xbdec8e3e	-0.11550568
202	0xbdfebd06	-0.12438397
203	0xbdb84f8d	-0.08999548
204	0x3d775098	0.060379595
205	0xbc87f80b	-0.016597768
206	0x3d94d276	0.07266705
207	0xbd349955	-0.04409154
208	0x3e4073d1	0.1879418
209	0x3caa51d7	0.020790977
210	0x3d491cda	0.04909978
211	0xbcae5c53	-0.021284258
212	0xbe15c038	-0.14624107
213	0x3d81c8cb	0.06337126
214	0x3d5d5c8f	0.05404335
215	0xbdb3d5cb	-0.08781012
216	0x3cb43018	0.02199559
217	0xbd2f78c7	-0.04283979
218	0xbd99efb2	-0.075164214
219	0x3d0affed	0.033935476
220	0xbcfdb5a3	-0.0309704
221	0xbddc67a4	-0.107619554
222	0x3db439ed	0.08800111
223	0xbca5ad37	-0.020224197
224	0x3cf66751	0.030078562
225	0xbd056aa8	-0.03257242
226	0x3c968c78	0.018377528
227	0xbe1842a8	-0.14869177
228	0x3cb56da9	0.022147017
229	0xbd511d34	-0.05105324
230	0xbd895a5a	-0.06706686
231	0xbd0f3884	-0.034966007
232	0xbd93fb44	-0.072256595
233	0xbe07a05e	-0.13244769
234	0x3b5f503e	0.0034074928
235	0xbd128348	-0.03576973
236	0x3d12d7c5	0.035850305
237	0xbde5a587	-0.112132125
238	0xbda8c930	-0.082414985
239	0xbdaa4e43	-0.083157085
240	0x3de9bca8	0.114129364
241	0xbd05f911	-0.03270823
242	0xbe091e02	-0.13390353
243	0xbdfba4c6	-0.122872874
244	0xbd9776c6	-0.07395701
245	0xbd43d28f	-0.047808226
246	0xbcdab4b7	-0.0266975
247	0xbe438c53	-0.19096498
248	0x3d4f18b1	0.050560657
249	0x3c902f39	0.017600643
250	0xbe0a29b7	-0.13492475
251	0x3cd739ce	0.02627268
252	0xbc793193	-0.015209573
253	0xbd87ce37	-0.06631129
254	0xbdd08f9b	-0.101836406
255	0xbd86741d	-0.065651156

lstm.weight_ih_l1 f4 [256, 64]
0	0xbdd5c9b1	-0.1043886
1	0x3bf834c4	0.0075746495
2	0x3d662123	0.056183945
3	0xbe6d50cb	-0.23175351
4	0xbe4a4bd0	-0.19755483
5	0xbe25ba94	-0.16184455
6	0x3e05349a	0.13008347
7	0xbcf073a3	-0.029352015
8	0x3ca82050	0.02052322
9	0x3dad984f	0.08476316
10	0xbde0b9d4	-0.10972944
11	0xbd444f17	-0.04792699
12	0x3d825b14	0.06365028
13	0xbdc4e173	-0.096133135
14	0xbd4a5c3d	-0.04940437
15	0x3e2a3020	0.1661992
16	0xbe115233	-0.14191513
17	0x3d3fb3a1	0.046802167
18	0xbc4ecbbf	-0.012621819
19	0xbe450d11	-0.19243266
20	0xbc3965c2	-0.011315765
21	0xbdc86e6d	-0.09786687
22	0x3df1f5ee	0.118144855
23	0x3e68128e	0.22663328
24	0x3d487526	0.048939846
25	0x3cbf55ca	0.023356337
26	0xbd56b518	-0.0524188
27	0x3de81e7a	0.11333938
28	0xbdceb05d	-0.100922324
29	0x3cadd100	0.021217823
30	0x3cd1c47a	0.025606383
31	0x3d63fc65	0.055660624
32	0x3d6c7376	0.0577273
33	0x3bac8ba4	0.00526567
34	0x3dc08f12	0.094022885
35	0xbd37f901	-0.044915203
36	0xbda54860	-0.08070445
37	0x3daf14c6	0.08548884
38	0xbc5ab489	-0.013348707
39	0xbcbf4add	-0.023351127
40	0x3da8829a	0.08228035
41	0x3e035009	0.128235
42	0x3da49aec	0.080373615
43	0xbd96ff31	-0.07372893
44	0x3e70ca1f	0.23514603
45	0x3d1985a3	0.03748096
46	0x3db0cce0	0.08632827
47	0x3cd7d3b7	0.02634607
48	0xbe2cde1e	-0.16881606
49	0xbe0a5574	-0.1350916
50	0xbe088be5	-0.13334616
51	0x3c8560e0	0.016281545
52	0x3dc08774	0.09400836
53	0x3da9a1fd	0.0828285
54	0xbccc38ff	-0.024929522
55	0xbda7e52f	-0.0819801
56	0x3d7d38c8	0.06182173
57	0x3c008a64	0.007845495
58	0xbde2be66	-0.11071472
59	0x3d83a0d5	0.06427161
60	0xbdb71462	-0.089394346
61	0x3cef251c	0.0291925
62	0xbe52ee35	-0.20598681
63	0x3cc67460	0.024225414
64	0xbd85e926	-0.0653861
65	0x3c3ad27c	0.011402722
66	0x3e023d43	0.12718682
67	0x3d8a0a68	0.06740266
68	0xbdfa8787	-0.12232881
69	0xbde670d8	-0.11251992
70	0xbe0fb379	-0.14033307
71	0xbdd1cf74	-0.10244647
72	0xbc9d3a26	-0.019192766
73	0x3e2b96ec	0.16756791
74	0x3d511e92	0.051054545
75	0x3d602e2f	0.054731544
76	0x3d7a03c8	0.061038762
77	0xbda91713	-0.08256354
78	0xbe032977	-0.12808786
79	0xbb751eb4	-0.0037402334
80	0x3d25e07b	0.040497284
81	0x3d8d0285	0.06885246
82	0xbe186f9f	-0.1488633
83	0xbddc300d	-0.107513525
84	0x3ce75d3a	0.028242696
85	0xbd8f1426	-0.06986265
86	0xbbaec5e9	-0.0053336513
87	0x3dc8bac6	0.09801249
88	0x3df6675b	0.12031432
89	0xbd32da8f	-0.043665465
90	0xbe07abc4	-0.13249117
91	0xbcdf7716	-0.027278464
92	0x3d0a9b15	0.033839304
93	0x3ca4f008	0.020133987
94	0x3c0987fe	0.0083942395
95	0x3da64952	0.081194535
96	0x3c2be3e6	0.010491347
97	0xbc34ddad	-0.01103918
98	0xbc703f2e	-0.014663501
99	0x3da2a74f	0.07942068
100	0x3da5ad5b	0.080897056
101	0xbe19de6f	-0.15026258
102	0x3d85bfcc	0.06530723
103	0xbd1bdd86	-0.038053058
104	0xbdb00757	-0.0859515
105	0xbdbe01bd	-0.09277675
106	0xbcccff95	-0.025024215
107	0x3aef3928	0.0018251287
108	0xbc03fc76	-0.008055797
109	0x3d2bab4c	0.04191141
110	0x3d729cd8	0.05923161
111	0x3d3bee45	0.04588153
112	0x3d81f259	0.06345052
113	0xbe2361e0	-0.15955305
114	0xbdb06327	-0.08612662
115	0x3c881a4a	0.016614098
116	0x3c8dc1f0	0.01730439
117	0xbe12120d	-0.14264698
118	0xbe002689	-0.125147
119	0xbd901e5f	-0.07037043
120	0x3e049936	0.1294907
121	0xbd2a766c	-0.041616842
122	0x3d86b6ff	0.065778725
123	0xbd723ac1	-0.059138063
124	0xbc2ba8b6	-0.010477236
125	0x3d9309c5	0.07179598
126	0x3c989e35	0.018630126
127	0x3d75fd52	0.06005604
128	0xbe229e98	-0.15880811
129	0xbd5e290e	-0.05423837
130	0xbdfe0c91	-0.124047406
131	0xbd33716b	-0.043809336
132	0xbe1378b9	-0.14401521
133	0x3cbd918a	0.023140687
134	0xbd8043b0	-0.0626291
135	0x3e003471	0.12520005
136	0x3d3833db	0.04497133
137	0xbc88ce89	-0.016700046
138	0x3e28d32d	0.16486807
139	0x3d87f3c3	0.06638291
140	0xbdfab563	-0.12241628
141	0xbd0f31df	-0.03495967
142	0x3dbbfa80	0.091786385
143	0xbcf7d4e4	-0.030252881
144	0xbddea063	-0.10870435
145	0x3d7bbcdd	0.06145941
146	0x3c2fb7e0	0.010724992
147	0x3c11a92a	0.0088904295
148	0xbe362c3c	-0.17790312
149	0x3e14df40	0.14538288
150	0x3cf817e1	0.030284824
151	0x3db978b3	0.09056225
152	0x3de65549	0.112467356
153	0xbe19a9f1	-0.15006234
154	0x3da443e3	0.08020761
155	0xbd8c4238	-0.06848568
156	0xbe1100c7	-0.14160453
157	0xbd67451a	-0.056462385
158	0xbdfa8fcf	-0.122344606
159	0x3d581d17	0.052762117
160	0xbd749780	-0.059714794
161	0xbe25696a	-0.16153494
162	0xbd531eac	-0.051542923
163	0xbcf161ab	-0.029465517
164	0xbdbfd162	-0.093661085
165	0xbe05f74c	-0.13082618
166	0x3d8c2e79	0.068448015
167	0xbe1dcf1c	-0.15411037
168	0xbcf80e74	-0.03028033
169	0x3d8cda9e	0.068776354
170	0x3c3f320f	0.01166965
171	0xbdffeca8	-0.124963105
172	0x3cf272b4	0.02959571
173	0x3d7f4efc	0.062331185
174	0xbcc453c3	-0.023965722
175	0x3db389d0	0.0876652
176	0xbd9e21b6	-0.077212736
177	0xbdf5b726	-0.119978234
178	0x3cded564	0.027201362
179	0xbd28e6bc	-0.04123567
180	0xbe078e4a	-0.13237873
181	0xbc69c25f	-0.014267533
182	0xbdae6326	-0.08515005
183	0x3e00b26b	0.12568061
184	0xbde7ce61	-0.113186605
185	0xbd69d625	-0.05708899
186	0xbc6cd723	-0.0144555895
187	0x3d9454ba	0.07242723
188	0xbcd8c278	-0.026459917
189	0xbe02b77f	-0.1276531
190	0x3d00122a	0.031267323
191	0xbd4bc9e1	-0.049753074
192	0x3ccb44f1	0.024813147
193	0x3ce718cc	0.028210066
194	0x3d7258b5	0.05916663
195	0xbe06cdc2	-0.13164428
196	0xbe57c38d	-0.2107069
197	0x3dae3f6c	0.085081905
198	0x3d03c3c4	0.03216912
199	0x3dad35d5	0.08457533
200	0x3dce4b77	0.100729875
201	0x3cd5a8b5	0.026081422
202	0x3e6d47c2	0.23171905
203	0xbc925a55	-0.01786534
204	0xbd968557	-0.07349651
205	0xbba82711	-0.00513161
206	0x3dfb84df	0.122812025
207	0x3e009ce7	0.12559853
208	0xbd137ea1	-0.036009435
209	0x3dfd1542	0.1235757
210	0xbde8f739	-0.11375279
211	0xbcdc884d	-0.026920462
212	0x3dcfe698	0.10151404
213	0x3df4768e	0.11936675
214	0xbdca3574	-0.098734766
215	0x3eb2c529	0.34916046
216	0x3e33b55a	0.17549649
217	0xbd7239e0	-0.059137225
218	0xbe3de9e3	-0.18546252
219	0x3d5865d0	0.05283147
220	0xbde47185	-0.11154465
221	0x3d12f12a	0.035874523
222	0xbe5fefcc	-0.21868819
223	0x3dab8b71	0.08376206
224	0x3dc369b3	0.09541645
225	0xbdf5a638	-0.11994594
226	0x3e3003e5	0.17188986
227	0xbd3a686c	-0.04550974
228	0x3d5dca60	0.054148078
229	0xbc63dc91	-0.013907568
230	0xbd1e5e22	-0.03866399
231	0xbe5b8275	-0.21436484
232	0xbc80b816	-0.015712779
233	0x3dfcf35f	0.12351107
234	0x3c27f305	0.010250811
235	0x3d0de414	0.03464134
236	0x3cd18c26	0.025579523
237	0xbdc7d169	-0.09756739
238	0x3de9ece4	0.114221364
239	0x3e29403a	0.16528407
240	0xbe4142ce	-0.1887314
241	0xbe12a104	-0.14319235
242	0xbd3fba4f	-0.046808537
243	0x3e0d2500	0.13783646
244	0x3da29aa3	0.07939651
245	0xbe0957c6	-0.13412389
246	0xbce92ef7	-0.028464777
247	0xbdb9d45c	-0.090737075
248	0x3cb1409f	0.021637259
249	0x3db63592	0.088969365
250	0x3dcffd49	0.10155732
251	0xbd91d8fa	-0.07121463
252	0xbce74fe4	-0.028236337
253	0x3d06f782	0.032950886
254	0x3c05e724	0.008172784
255	0x3d00a325	0.031405587

lstm.weight_hh_l1 f4 [256, 64]
0	0xbdcca63b	-0.099926434
1	0xbba8f7b7	-0.005156483
2	0xbe05a69b	-0.13051836
3	0x3d28e7f6	0.04123684
4	0x3d53f1da	0.05174432
5	0x3db20b60	0.08693576
6	0x3e1ebb9b	0.15501253
7	0x3d616297	0.055025663
8	0x3cd1af9f	0.025596438
9	0x3dd50159	0.10400648
10	0xbc691705	-0.01422668
11	0xbdaa72de	-0.083226904
12	0xbdccdc47	-0.10002952
13	0x3d9282a8	0.07153827
14	0xbd0cbd70	-0.03436035
15	0xbd1453fe	-0.036212914
16	0x3d856d2c	0.065149635
17	0xbda2a50e	-0.07941638
18	0xbab148f5	-0.0013525771
19	0xbd22cc90	-0.039745867
20	0xbd9d2261	-0.07672573
21	0x3daa62a1	0.08319593
22	0xbb4967a0	-0.0030731931
23	0x3dc78390	0.097418904
24	0x3d3f85e2	0.04675854
25	0xbd5fc6c6	-0.054632924
26	0x3b4ff689	0.003173264
27	0x3d4c1be2	0.04983128
28	0x3d052875	0.032509286
29	0xbd51f720	-0.051261067
30	0x3cad368e	0.021144178
31	0xbbcc912a	-0.006242891
32	0x3cd29d34	0.025709726
33	0xbd5d493e	-0.054024927
34	0xbcbc4631	-0.022982689
35	0xbc32fc79	-0.010924452
36	0x3db9461f	0.09046578
37	0xbd402257	-0.04690775
38	0x3d459cb7	0.048245158
39	0x3dc53e83	0.09631064
40	0x3d839686	0.064251944
41	0xbd894026	-0.067016885
42	0x3ba4c55c	0.00502841
43	0xbdaacdcc	-0.08340034
44	0xbd853158	-0.06503552
45	0x3dbee3e8	0.093208134
46	0x3c4b1c82	0.0123969335
47	0xbb8ee9ce	-0.004361368
48	0x3dbdefbc	0.09274241
49	0xbe0c83cc	-0.13722152
50	0x3cfaba06	0.030606281
51	0x3d2d0c53	0.04224808
52	0x3d8e8e18	0.06960696
53	0xbca17944	-0.019711144
54	0x3e18ede7	0.14934503
55	0xbd85dc3e	-0.065361485
56	0xbdf0c55b	-0.117563926
57	0x3ddf46ef	0.109022014
58	0x3e160ce5	0.14653356
59	0xbcdf8d33	-0.027289009
60	0xbd5fdad5	-0.054652054
61	0xbe00e151	-0.12585951
62	0x3dba9f88	0.091124594
63	0xbcf1f5d2	-0.029536162
64	0x3d59ba40	0.053156137
65	0x3d8599b5	0.06523458
66	0xbda0e8dc	-0.078569144
67	0x3dc91b1c	0.09819624
68	0xbe254049	-0.16137804
69	0x3e19b8c8	0.15011895
70	0x3e5c1e9d	0.21496053
71	0x3ad0f03d	0.0015940737
72	0xbdd9e673	-0.10639658
73	0x3e5cb841	0.21554662
74	0xbe24230a	-0.16028991
75	0x3dcfd749	0.10148484
76	0x3bac8ba4	0.00526567
77	0x3b94b94b	0.00453869
78	0x3d3f15a0	0.046651483
79	0xbd22219a	-0.039582826
80	0xbb828839	-0.003983524
81	0x3d8d5458	0.06900853
82	0x3e4c566a	0.1995484
83	0xbc208add	-0.009798733
84	0xbe34fa9c	-0.17673725
85	0xbd9d2688	-0.07673365
86	0x3de9ee39	0.114223905
87	0xbc594102	-0.013260128
88	0xbe5544ee	-0.20827076
89	0x3d3381b4	0.043824866
90	0x3d499332	0.049212642
91	0x3c7f9dcd	0.0156015875
92	0x3d9e055c	0.07715866
93	0xbd2defa8	-0.042464882
94	0x3dbd64e5	0.0924776
95	0x3dfa2fed	0.12216172
96	0xbe306596	-0.17226252
97	0x3d51ddce	0.05123692
98	0xbd6ff5eb	-0.058584135
99	0x3e0a5703	0.13509755
100	0xbd6da87a	-0.058022
101	0xbe63ef7a	-0.22259322
102	0x3d51a05b	0.051178318
103	0x3d98c010	0.07458508
104	0xbe49218c	-0.19641703
105	0x3e66a2ea	0.22523084
106	0xbcebfb4d	-0.028806353
107	0x3e6b8769	0.23000874
108	0xbdff6d7e	-0.12472056
109	0xbe50a4b2	-0.20375326
110	0x3e35d880	0.1775837
111	0xbe253887	-0.16134845
112	0xbcd954d1	-0.026529701
113	0x3d8a66fc	0.06757924
114	0xbd08e6ab	-0.033423107
115	0x3c55d20b	0.013050566
116	0x3c46d883	0.012136581
117	0x3e1fb9bd	0.15598197
118	0xbe0535eb	-0.1300885
119	0xbe3f8302	-0.1870232
120	0x3dfc86fb	0.12330433
121	0x3d4d6a64	0.05015029
122	0x3c2c3f97	0.010513208
123	0x3d69c6fa	0.057074524
124	0xbd44207a	-0.047882535
125	0x3daad80b	0.08341988
126	0xbd253b53	-0.04033978
127	0x3d9517f6	0.07279961
128	0x3e0fc001	0.14038087
129	0x3dad841c	0.084724635
130	0x3d38dc83	0.04513217
131	0xbcc16a74	-0.023610331
132	0xbdc6c163	-0.09704854
133	0xbd9a0f9c	-0.075225085
134	0x3e5edd24	0.21764046
135	0x3d9f96bf	0.077924244
136	0xbdec19d0	-0.11528361
137	0x3deb7ea4	0.11498764
138	0xbe3b2f7c	-0.18279833
139	0x3dbc07ca	0.09181173
140	0x3de63a53	0.11241593
141	0xbc86acf0	-0.016439885
142	0x3e6e9f77	0.23303019
143	0x3e02d23b	0.12775509
144	0x3c10a1c8	0.008827634
145	0x3d643ada	0.055720188
146	0x3e14a67a	0.14516631
147	0xbdd0ab71	-0.1018895
148	0xbd983107	-0.07431226
149	0x3de9a882	0.114090934
150	0x3d1f5c10	0.038906157
151	0x3e1b206e	0.1514909
152	0xbe00b1bd	-0.12567802
153	0x3ce4b368	0.027917579
154	0x3e11736f	0.1420419
155	0x3e00b8be	0.12570474
156	0x3e0f8dc5	0.14018925
157	0xbd8541b8	-0.065066755
158	0x3c304093	0.010757583
159	0x3e0df68e	0.13863584
160	0xbe0f985f	-0.14022969
161	0xbd904366	-0.07044105
162	0x3dbdfd2f	0.092768066
163	0x3da6b635	0.08140222
164	0x3d8549a1	0.06508184
165	0xbdf8c26b	-0.12146457
166	0xbcca314c	-0.02468171
167	0xbdacb2d7	-0.084325485
168	0xbd51e3f2	-0.051242776
169	0x3e3cdf79	0.18444623
170	0xbdb03db0	-0.08605516
171	0x3d9978a0	0.074937105
172	0xbe646872	-0.22305468
173	0xbb96d886	-0.0046034483
174	0x3b0c0165	0.0021363136
175	0xbe142c43	-0.1447001
176	0xbe0de21e	-0.13855788
177	0x3d903fa7	0.07043391
178	0xbde3ce06	-0.1112328
179	0xbe216d2a	-0.15764299
180	0xbcca4bc9	-0.02469434
181	0x3e46f343	0.19428734
182	0xbd03112b	-0.031998795
183	0xbc23a17a	-0.0099872295
184	0x3be7f2a6	0.0070784865
185	0x3ddbd617	0.10734194
186	0x3e00ec47	0.12590133
187	0xbdde7c19	-0.108635135
188	0xbddee8dd	-0.10884259
189	0x3d7b6008	0.06137088
190	0x3dd8377a	0.10557456
191	0xbde9f7bf	-0.11424207
192	0x3d89ed0a	0.06734665
193	0x3e113f12	0.14184216
194	0x3ce958fa	0.02848481
195	0x3e37a715	0.1793483
196	0x3bedb80f	0.0072546075
197	0x3d398b74	0.04529901
198	0x3eb50d8f	0.35361907
199	0x3d8b7ee2	0.0681131
200	0xbdbaa4c9	-0.091134615
201	0x3e44f234	0.19233018
202	0xbdafdc4a	-0.08586939
203	0xbdd7eb18	-0.105428874
204	0xbba25c19	-0.0049548266
205	0xbdee2d31	-0.11629713
206	0x3d9fa755	0.07795588
207	0x3d173350	0.03691417
208	0x3d1c726f	0.03819507
209	0x3dae434b	0.08508929
210	0x3d87b2d5	0.066259064
211	0x3da6f4b3	0.081521414
212	0xbe015e8a	-0.1263372
213	0xbb0e9cbb	-0.00217609
214	0x3e067bf5	0.13133223
215	0x3c6382ac	0.013886135
216	0xbd99f1cd	-0.07516823
217	0x3e46e54a	0.19423404
218	0x3df8fc7f	0.12157535
219	0x3c978273	0.01849482
220	0x3e25d273	0.16193561
221	0xbcd50f58	-0.026008293
222	0xbc6605ac	-0.014039438
223	0x3c7db016	0.015483877
224	0xbcbbffb3	-0.022949075
225	0xbd33a032	-0.043853946
226	0x3ce4c094	0.02792386
227	0x3e324eba	0.17412844
228	0x3de11516	0.1099035
229	0xbd96b9b0	-0.07359636
230	0xbd980fd6	-0.074248955
231	0xbd4a109a	-0.04933224
232	0xbd9b43c0	-0.07581282
233	0x3c2ee351	0.010674314
234	0xbe35a02d	-0.17736883
235	0x3e944763	0.28960714
236	0xbb5f9058	-0.0034113135
237	0x3d0bad46	0.034100793
238	0x3d9efde5	0.0776327
239	0xbe15252b	-0.1456496
240	0xbe5f03d8	-0.2177881
241	0xbe1835fb	-0.14864342
242	0x3d8a0e72	0.067410365
243	0xbdb16fe2	-0.08663918
244	0xbde5cdba	-0.1122088
245	0x3ea77d7f	0.32712933
246	0xbd37bc5a	-0.04485736
247	0xbe6d107d	-0.23150821
248	0x3e0e67e9	0.13906826
249	0xbd01c060	-0.031677604
250	0x3e0e03a5	0.13868578
251	0xbdb97dad	-0.09057174
252	0xbd92d71f	-0.07169937
253	0x3d413681	0.04717112
254	0xbe282ddb	-0.16423742
255	0xbcad6330	-0.02116546

lstm.bias_ih_l1 f4 [256]
0	0xbde11e24	-0.10992077
1	0xbe08c5c9	-0.13356699
2	0xbe9ba446	-0.30398768
3	0xbd8d5996	-0.06901853
4	0x3d7d52b8	0.061846465
5	0xbdc8a271	-0.09796608
6	0xbe24f365	-0.16108473
7	0x3cb7749c	0.02239447
8	0x3d106a83	0.035257827
9	0xbe0f49bd	-0.13992973
10	0x3d001f57	0.031279888
11	0xbe58e33c	-0.21180433
12	0xbe546c7b	-0.20744507
13	0xbdc3a3a8	-0.09552699
14	0xbdf73c56	-0.12072055
15	0xbe16b357	-0.1471685
16	0xbe233d6e	-0.15941402
17	0xbdad1209	-0.084507056
18	0x3d176478	0.03696105
19	0xbe32e479	-0.17469968
20	0x3e0731d9	0.13202609
21	0xbd9d071f	-0.07667374
22	0x3cfb2b60	0.030660331
23	0x3e676d73	0.22600345
24	0xbde01fee	-0.1094359
25	0xbd0c7a98	-0.034296602
26	0xbd177d14	-0.03698452
27	0x3c6f42df	0.014603346
28	0xbdc4c511	-0.096079
29	0xbcd3339e	-0.025781449
30	0xbd8cd3b8	-0.0687632
31	0xbe37163e	-0.17879578
32	0xbe22f00e	-0.15911886
33	0xbe51e77d	-0.20498462
34	0xbe2e72f0	-0.17036033
35	0xbdad8e1f	-0.08474373
36	0xbe74eaf6	-0.23917755
37	0x3e041e8e	0.1290228
38	0xbebe2cea	-0.37143642
39	0xbdb8aaf4	-0.09016982
40	0x3ce6e804	0.028186806
41	0x3d0455f3	0.03230853
42	0xba81c4f0	-0.0009900611
43	0x3d9c16d1	0.076215394
44	0xbcf263e9	-0.029588656
45	0x3c126143	0.008934322
46	0xbd4dfdcc	-0.050290868
47	0x3d4a37b0	0.049369514
48	0x3da87692	0.082257405
49	0xbca9830f	-0.020692376
50	0x3b57e9bf	0.003294572
51	0xbcdc0789	-0.026859062
52	0xbd4e4458	-0.050358146
53	0xbc959bba	-0.018262733
54	0xbdb4362f	-0.08799397
55	0xbdff12b8	-0.12454742
56	0x3bbdb674	0.0057895724
57	0xbdd89534	-0.10575333
58	0xbe2c8d5d	-0.16850801
59	0xbe99ea75	-0.3006169
60	0x3d26e8b1	0.040749256
61	0xbe285e7b	-0.16442291
62	0xbe24730f	-0.16059516
63	0xbd94c688	-0.07264429
64	0x3e2b57da	0.16732731
65	0xbeaecc2b	-0.34140143
66	0xbdcd7b7d	-0.10033319
67	0x3e279ee0	0.163692
68	0xbe21f736	-0.1581696
69	0xbc58d15d	-0.01323351
70	0xb99776ab	-0.0002888938
71	0xbe2c62c7	-0.16834556
72	0xbe123dfc	-0.14281458
73	0xbcff5096	-0.031166356
74	0x3d632a34	0.05546017
75	0xbcb28154	-0.021790184
76	0x3d2cf3fe	0.042224877
77	0xba6b6cd3	-0.00089807546
78	0xbb796f73	-0.0038060814
79	0xbe31c54b	-0.17360418
80	0xbdee2d1c	-0.11629698
81	0x3bc1530f	0.005899794
82	0x3e1be179	0.1522273
83	0xbc8849d8	-0.016636774
84	0x3c3e7251	0.011623935
85	0xbd2ad243	-0.041704427
86	0xbe92f192	-0.2869993
87	0x3ea67371	0.3250995
88	0x3d354362	0.044253714
89	0xbdbc82c3	-0.09204628
90	0xbdcbd7ad	-0.09953246
91	0x3dc7a441	0.09748126
92	0xbdce6db4	-0.10079518
93	0x3da71dec	0.08160004
94	0xbda610ed	-0.08108697
95	0xbdaa7eec	-0.0832499
96	0xbde0cc12	-0.10976423
97	0x3d555c46	0.052089952
98	0xbe4f4c78	-0.20244014
99	0x3d42959d	0.047505964
100	0xbdc84886	-0.09779458
101	0x3e006b97	0.12541042
102	0xbe4aa931	-0.19791104
103	0xbd67b79d	-0.05657159
104	0x3e435727	0.19076215
105	0xbdbc880d	-0.09205637
106	0x3e036ae6	0.12833747
107	0x3ddf2dc9	0.10897405
108	0x3d810100	0.06299019
109	0x3e1aa00c	0.15100116
110	0x3d97c5b3	0.07410755
111	0x3e604cd0	0.21904302
112	0x3dde74d0	0.10862124
113	0xbddcb541	-0.10776759
114	0xbe03d4e0	-0.12874174
115	0xbc126d9d	-0.008937267
116	0xbdf4db4e	-0.119558915
117	0xbd7ebce0	-0.062191844
118	0xbd859e70	-0.0652436
119	0xbd6b6341	-0.057467703
120	0x3dfc07ac	0.12306151
121	0xbbdc915a	-0.0067311944
122	0xbdc055d7	-0.09391373
123	0xbe7a43bb	-0.244399
124	0xbe07e58b	-0.13271157
125	0x3dc75984	0.097338706
126	0xbe1dd69d	-0.154139
127	0xbd721752	-0.05910427
128	0xbd0e2053	-0.034698796
129	0x3dc65ed9	0.096860595
130	0x3d41424b	0.047182363
131	0x3d894c7e	0.06704043
132	0x3cbc9011	0.023017915
133	0x3d814ab0	0.06313074
134	0x3d9f559f	0.07780003
135	0x3dd4ca9a	0.10390206
136	0x3dd9bae8	0.10631353
137	0xbdccb1ee	-0.09994875
138	0xbae03fc0	-0.0017108843
139	0xbd2f7202	-0.042833336
140	0xbc14331f	-0.009045391
141	0x3db1c8be	0.08680867
142	0x3c881b39	0.016614543
143	0x3c45578c	0.012044799
144	0xbd930b98	-0.07179946
145	0x3dd8902e	0.10574375
146	0x3d69009a	0.05688534
147	0xbbe01f25	-0.00683965
148	0x3d77f071	0.060532037
149	0x3c96cc0d	0.018407846
150	0x3d9d889e	0.07692073
151	0x3b8c00e2	0.004272566
152	0x3dab3b6f	0.083609454
153	0xbb137095	-0.0022497524
154	0x3d9a9b16	0.075491115
155	0x3d20ecd7	0.039288368
156	0x3c8ccf46	0.01718868
157	0xbc93cd6a	-0.018042285
158	0x3c488734	0.012239266
159	0xbd28c044	-0.041198984
160	0xbd87bc80	-0.066277504
161	0xbd7de6df	-0.061987754
162	0xbd8e3b88	-0.069449484
163	0xbd2cb27c	-0.042162403
164	0x3df6cf62	0.12051274
165	0x3e000648	0.12502396
166	0x3d8ad3f4	0.06778708
167	0x3d587619	0.052847
168	0xbd8921bd	-0.06695888
169	0xbdbfac95	-0.09359089
170	0x3cfc5c9b	0.030805876
171	0xbdb2e84a	-0.08735712
172	0x3ce761e5	0.028244922
173	0x3dcf18d4	0.101121575
174	0xbcc37feb	-0.023864707
175	0x3d9d21c1	0.07672454
176	0xbdc44231	-0.095829375
177	0x3d2ac578	0.041692227
178	0xbd8e33c9	-0.06943471
179	0xbdc3e944	-0.09565976
180	0xbd08c3b4	-0.033389762
181	0xbd61bf4b	-0.05511407
182	0x3dfdf30e	0.12399875
183	0x3d3297d6	0.043601833
184	0x3c325cd3	0.010886389
185	0xbc97dca8	-0.018537834
186	0x3d5676e4	0.052359477
187	0x3dd2f77b	0.103011094
188	0x3d2db891	0.042412344
189	0xbd58da98	-0.052942842
190	0x3daee9f3	0.08540716
191	0x3ccea2f0	0.025224179
192	0xbd5ae78d	-0.05344348
193	0xbead77b9	-0.33880404
194	0xbe1c48a0	-0.15262079
195	0x3c9508dc	0.018192701
196	0xbe1ad1c7	-0.15119086
197	0xbe17ec7f	-0.1483631
198	0xbcd343e5	-0.02578921
199	0xbd145e96	-0.036223017
200	0xbc0a5d3d	-0.008445081
201	0xbe052611	-0.13002802
202	0xbe4324e9	-0.19057049
203	0xbe4b4ccd	-0.19853516
204	0xbe4ec120	-0.20190859
205	0xbcf7e3aa	-0.030259926
206	0x3d9d231d	0.07672713
207	0xbe4be5cd	-0.19911881
208	0x3ca7c165	0.02047796
209	0x3d5ab161	0.053391818
210	0x3d9e4cc5	0.077294864
211	0xbdfec083	-0.124390624
212	0xbcfa56c9	-0.03055896
213	0xbbfd14f0	-0.007723443
214	0xbd7693af	-0.060199436
215	0x3dc2dd71	0.09514893
216	0xbafea6b1	-0.001942834
217	0x3da1085f	0.07862925
218	0xbba8cf94	-0.0051516984
219	0x3e06ed28	0.13176405
220	0x3da5e259	0.08099813
221	0xbe0f73ca	-0.14009014
222	0xbd4a35ec	-0.04936783
223	0xbd956d8b	-0.07296284
224	0xbc9c9623	-0.01911456
225	0xbd53130f	-0.051531848
226	0xbe886f98	-0.2664764
227	0xbe2d92a6	-0.16950473
228	0xbe24be27	-0.16088162
229	0xbd2645fa	-0.04059408
230	0xbe560532	-0.2090042
231	0xbe567a19	-0.20945014
232	0x3dc0cd8d	0.09414206
233	0x3c0ae713	0.008477944
234	0xbd0dd7f6	-0.034629785
235	0x3cdd490f	0.027012376
236	0xbdab9c7c	-0.083794564
237	0x3c34dc36	0.0110388305
238	0xbd371cd0	-0.044705212
239	0xbd1d7741	-0.038443808
240	0xbddb74f8	-0.107156694
241	0xbe62324c	-0.22089499
242	0xbe61fba7	-0.22068654
243	0xbe2624fa	-0.16225043
244	0xbe230a3f	-0.15921877
245	0xbda325b1	-0.079661734
246	0xbe0a89a3	-0.13529067
247	0x3da2e172	0.079531565
248	0xbdcd43ca	-0.10022695
249	0xbe84ec79	-0.25961664
250	0xbc17a1bc	-0.009254869
251	0xbe2d6836	-0.16934285
252	0xbdc599d6	-0.096484825
253	0xbe879159	-0.2647808
254	0xbd2111fc	-0.03932379
255	0xbe4af784	-0.19820982
